preTrained/CharRNN_reviews_64_3_0.5.pth (torch, 448408 bytes, 15 tensors)

embedding.weight f4 [71, 71]
00000000: fff4 fcbd 5fe6 df3e 214c a6be 21fe e13e
00000010: cd8d 27bf ba2e dabf 5bb8 11c0 93d0 f0bf
00000020: 66d5 4f3f 1830 953f 3316 4840 34b1 953f
00000030: e3cb 27bf 72a5 6d3f 7089 0740 964a 45c0
00000040: 815a 95c0 3c4d 2abf 1b3b a3bf 0a8c 67bf
00000050: 8486 3340 6295 be3d 0d4e b8bf d5ea 20c0
00000060: 1a6b 01c0 bb83 b9bd f6ca ad3e 8ad2 013f
00000070: 5afa 08bf 9b75 1540 26cf 883f de4c a03f
00000080: 7211 e23e 108b 03bf 067f 15bf 1b9a 493f
00000090: 74a2 e6bf 0e6c f13f c6e0 e33e 9fa1 05be
000000a0: e3d7 74bf c422 54c0 170d a23e bfab 4a40
000000b0: b644 903f 65fa 83be bec7 1cbf e600 43be
000000c0: 0396 78bf fa9d 68bf 26ac 1a3e eb69 4ebf
000000d0: 88f5 06bf 9f13 02be d8ab 84c0 cc01 0840
000000e0: f316 3240 5e42 3cbe f2d8 823e abef 31bf
000000f0: 4860 353f 852d 533d 89be b4bf 7b15 77bf
00000100: 1160 bcbf 11cd b4bf 3176 d83f 6363 febf
00000110: bafa 85bf fae0 0f3f 51c4 debf b63d b8bf
00000120: bbb2 4b40 a0a4 98be 1d88 0b40 e58f 89bf
00000130: 54e6 383f a12c ddbf ceeb 83c0 d443 643d
00000140: 0bc7 f5be ef8b 0abe 0878 873f 29f4 0040
00000150: 1964 6c3e 2de5 043e 82f8 e03e ac5b ebbe
00000160: 1ba4 17c0 7d54 9a3f c6d3 b33f c293 a6bf
00000170: a65b 19bf 3fb0 5dbf 3c2d fdbf 70e8 ae3f
00000180: 147a a5bf 516d 39bf 4180 c13f 0136 52bf
00000190: 18f8 ffbf d631 b53c fb73 c5bf 375c 46be
000001a0: 4a5c 373f 902b c03f a31f 5e3e 2c9b 0fc0
000001b0: 40e7 283c ec40 39c0 a415 d73d ccb4 1c3f
000001c0: d980 c1bf 4427 b73f a80f a8bf 14a3 3c3f
000001d0: e20b 2b3f 3c43 6e3e ed6f cebe 8abf ac3f
000001e0: d791 cdbe e462 c43d 5cda ad3c 4c25 6e3f
000001f0: 6084 debf 74aa 89bd fb13 babf 26a9 fd3f
00000200: 8d1b 2c3f 4069 b23f 531b 913f 35ab a73f
00000210: e3b4 213e 114f fcbf 8ac8 a9be e5e9 25be
00000220: 60b4 bd3e 3957 343f f8bc 6e3f 0bd5 a63f
00000230: b8ba 0540 e782 f9bf b1da c33f 7ec8 36c0
00000240: 7d97 d5bd c199 7dbf abf5 2dbf 986a 66c0
00000250: 2679 0bc0 902a c3bf db60 7bbf ac7b 1640
00000260: 217f fa3f a06d 1c40 133b a6be 3925 24be
00000270: 6633 1c40 ad9b 1440 7eda f3bf 0236 57c0
00000280: 2dee c2be a2f0 3fbf 3007 1b40 e0e7 0c40
00000290: ad52 babf 1920 403f e50b 09bf 9478 cc3f
000002a0: 0ff0 45bf 8e17 8cbf a9ac ccbe a352 e83f
000002b0: c764 8abf b034 1f40 d3d8 e13f 57d1 5bbe
000002c0: 4c0c a53f 0201 4f3e 744e 05c0 5c5a ccbf
000002d0: a4f9 8a3f 0481 1740 3fd0 b7bf 0d2e 563e
000002e0: 7a1d 8c40 10ce e7be 9a46 bfbb 1556 3b40
000002f0: 68d8 3dbf acb4 d3bf f37b 273f 378b cb3f
00000300: f479 0ac0 fbfc 4fc0 4fb8 b43f 7188 e73f
00000310: 540d 23be 7500 9d3d 22c3 27bd a4b8 73bf
00000320: c244 893f 99ff 0cc0 4b92 0240 eafd f43f
00000330: d964 dcbe 2cc6 dc3f 786b 133e 4f5e af3f
00000340: d715 19bf e70d 91bf bcec a7bf 51b0 babf
00000350: 7590 bfbe ae84 babe 5525 0a40 f9e1 37bf
00000360: 8862 31bf 1a81 82bf 9e6e ccbf ed0c cb3f
00000370: 3112 993d 3700 2fbf 08e4 aabf bcf1 10bf
00000380: b805 4240 c512 f23f 0587 46c0 6706 f9bd
00000390: dd0a 283f a82a 33bf af00 c6bf 3ea5 dcbe
000003a0: 574d a1bf 9329 c63f 1a4c 873f 0a37 bd3f
000003b0: 357d dfbb fce3 4dbf a260 4f3f 79be 8abe
000003c0: f083 7fbf 5641 d7bd 5024 0040 1ce1 28c0
000003d0: 5282 ef3f 4220 47bf a44a 2a3f 6dd4 283f
000003e0: cf80 fd3f a143 23bf 02ee 82be b0b8 08c0
000003f0: ca92 1a40 5888 b1bf 2821 30c0 07e9 27bf
-0.12351417 0.43730447 -0.32479957 0.44139197 -0.65450746 -1.704551 -2.2768772 -1.8813652
0.81184995 1.1655302 3.126355 1.1694703 -0.6554548 0.92830575 2.1177635 -3.0826774
-4.667298 -0.665241 -1.2752413 -0.9044806 2.8050852 0.09305836 -1.4398819 -2.514333
-2.022162 -0.09058329 0.3394391 0.5071188 -0.53507006 2.335303 1.0688217 1.2523458
0.44153935 -0.5138407 -0.5839695 0.7875077 -1.8018327 1.8861101 0.44507426 -0.13049935
-0.95641917 -3.314622 0.31650612 3.1667325 1.1270969 -0.25776973 -0.6124228 -0.19043311
-0.971039 -0.90866053 0.15104732 -0.8063037 -0.527184 -0.12702797 -4.145977 2.1251097
2.7826507 -0.18384692 0.2555614 -0.6950633 0.7085004 0.051557083 -1.4120647 -0.9651715
-1.4716817 -1.4125081 1.6911069 -1.987408 -1.0467141 0.5620266 -1.7403661 -1.4393833
3.1827838 -0.298131 2.1801827 -1.0747038 0.7222645 -1.7279245 -4.1225348 0.05572875
-0.4800342 -0.13529943 1.0583506 2.0149024 0.23085059 0.12978049 0.43939596 -0.45968378
-2.3693912 1.2057034 1.4049003 -1.3013842 -0.5990547 -0.86597055 -1.977943 1.3664684
-1.292788 -0.7243243 1.5117265 -0.82113653 -1.9997587 0.02211849 -1.542602 -0.19371115
0.71625197 1.5013294 0.21691756 -2.243846 0.010309041 -2.8945875 0.105021745 0.61213374
-1.5117446 1.4308858 -1.3129778 0.7368634 0.66815007 0.23267835 -0.40319768 1.3495953
-0.4015033 0.095891744 0.021222286 0.9302566 -1.7384148 -0.067219645 -1.4537348 1.9817245
0.6722954 1.393837 1.1336464 1.3099123 0.15791659 -1.9711629 -0.33160812 -0.16202505
0.37051678 0.7044559 0.93257093 1.3033766 2.0895214 -1.9493073 1.5301114 -2.855987
-0.10429285 -0.99062735 -0.67952985 -3.600256 -2.1792693 -1.5247364 -0.98194665 2.3512983
1.9570047 2.444191 -0.32466945 -0.16029824 2.440637 2.3220017 -1.9051054 -3.3626714
-0.3807234 -0.7497655 2.4223137 2.2016525 -1.4556481 0.7504898 -0.53533775 1.5974298
-0.77319425 -1.0944688 -0.3997548 1.8150219 -1.0812005 2.4875908 1.7644295 -0.21466576
1.2894378 0.20215228 -2.0829134 -1.5965075 1.0857434 2.3672495 -1.4360427 0.20916004
4.378598 -0.452744 -0.005837274 2.927129 -0.74158335 -1.6539512 0.65423506 1.590186
-2.1636934 -3.2498157 1.4118747 1.8088514 -0.15923053 0.07666103 -0.040957578 -0.95203614
1.0724108 -2.2031004 2.040179 1.9139988 -0.4304569 1.7247977 0.14396465 1.3700656
-0.5979895 -1.1332368 -1.3119121 -1.4585057 -0.374149 -0.36429352 2.1585286 -0.7182918
-0.6929097 -1.0195649 -1.5971258 1.586332 0.07474173 -0.683597 -1.335084 -0.5661886
3.031599 1.8911978 -3.101991 -0.12159424 0.65641576 -0.69986963 -1.5468959 -0.4309482
-1.2601727 1.5481437 1.0570099 1.4782422 -0.0068203458 -0.80426 0.81006825 -0.27098444
-0.99810696 -0.10510509 2.0022163 -2.6387396 1.8711646 -0.77783597 0.6652014 0.65949136
1.9804934 -0.6377507 -0.2557221 -2.1362724 2.4152093 -1.3869734 -2.7520237 -0.65589947

rnn.weight_ih_l0 f4 [256, 71]
00000000: 3708 77bd 8dfa 9cbf 9d42 cbbe 9479 343f
00000010: 95fc 00bf f4f4 0abd 2914 94bf 551d e63c
00000020: e916 3f3f 514c 433e 48ee 4cbf 9734 aabe
00000030: 92b5 a23f c7ac 56be d066 16bf 80fc a83f
00000040: 21b8 82bf b6f6 1e3f 7c72 1c3f eece d5be
00000050: b955 db3d 796d aebe bd6e 2abf 4f39 afbe
00000060: 1a3a a33e 7bfa 2abf e783 69be d84d 8d3e
00000070: f313 6d3d e30f 953e d4d3 c4be e3ac b1be
00000080: f77b a6be 0bb6 cebe 5e27 55be 1981 c83d
00000090: d076 2ebf 297a b23e 8c7a ff3e d9a8 903f
000000a0: 8757 b43f 3e96 edbe ab6c 813f 2339 5e3f
000000b0: 31bb b63f 9625 fdbe 75b4 e7be 7e23 e9be
000000c0: 2315 8d3e 4c59 33bf 3dd8 263f f658 17be
000000d0: 96a5 9ebd badb 0cbf 01d8 943e 63af 0f3e
000000e0: cebe 763e 7323 9abc 51de 4f3f b2f7 86bf
000000f0: 83c1 083f 2611 1b3f deb0 f83e 14ac 0b3f
00000100: 0d36 3cbf a7b2 673f cff4 da3e 305b 8f3c
00000110: 803f 213f cc1a 84be 6962 f53c 69d2 33bf
00000120: a20a 0dbe 0318 9bbe 0448 653f 6b65 0ebf
00000130: 8f56 443e 5be4 a1be 2c6b b13f 1eca 71be
00000140: 7152 27bc c3d3 7cbe d53c 1cbf ff4f 6fbf
00000150: b772 1c3f 3b6f 263f 835f f83e d951 44bf
00000160: c0e1 e2bf a483 223f 4e22 073f c0b0 ffbe
00000170: 1963 783f 3309 ffbc 4f16 283f dcc9 16bd
00000180: ac00 033d 1202 c83c 850a e73d 7fea 1fbf
00000190: aab1 91bf 8af8 243c 1d1b 85bf 3fbf 3ebe
000001a0: c28c 9cbe 8d18 cbbd a6c5 f5be db23 81bf
000001b0: 80ea ef3f 56ac 323f 7146 5f3d 9c0e ad3d
000001c0: 8b02 4bbe 903f 213e 5eb9 adbd bc1f e6bc
000001d0: 2de7 acbf 7ea4 2d3f f539 c53e 7e11 863e
000001e0: 4829 823e cd66 623f 9a4d 2ebf 9845 7fbf
000001f0: caed f2be f7f6 b6be 26c1 76be 583a f5bd
00000200: 2b09 3dbf 20f1 efbd d4db 32bf ec5a b73e
00000210: bcde 5dbf e058 b4bd af6e 48bf 10cb 693e
00000220: 09dc ddbe 4d6a 30bf 2864 bc3c d786 463f
00000230: 4706 5c3f f82e 3abf 2ec0 75bf c770 a63e
00000240: 094b 89be 1258 8a3e 67f4 19bf 2a2e 20bf
00000250: 9027 82bf 9a12 c93e d891 14be 3676 f6be
00000260: 9af9 e43e c268 97bd 1ad9 183f 06bb 68be
00000270: 5b5a 1a3f 4cf2 fbbe 2de5 a43e b395 58bf
00000280: 2df7 a7bf ea90 3ebe 28e0 8fbe a230 d93e
00000290: 9656 5e3f 54b6 f43e 810a 2bbd 1a94 b13c
000002a0: 8d60 2f3d 7d62 c83f 39ac 45bf 68c3 8ebf
000002b0: 7ced 2c3f ac0a 973f 1f85 a6ba 44f3 d53e
000002c0: 2a29 10be e52a 06bf fb93 07bf 4c6b 32bf
000002d0: d09d 08be 0f5d 273f 35cc f5bd eb92 12bf
000002e0: bc3a 9b3e 899c 12be 6a52 883f db3b 6c3e
000002f0: 88aa b43e 100f 093d 59ca 17bf 56a7 bb3e
00000300: 06eb 34bf bdd6 3b3f 1dfe 04bf bc4f 97bc
00000310: 2371 c23d 392c 9bbf 8e77 573d d636 883d
00000320: 6c40 41be cd99 d53f eafe 1bbf b5e1 03be
00000330: 3547 f7be 15c2 bfbf fe85 52bf 4a92 16be
00000340: 9a5f a6be 3b14 e0bf cd1a 8e3d 14e6 cbbd
00000350: ab89 923e 988b 263f a20c a83e f76c 013f
00000360: 72a6 8ebf 9e2b 0d3d 0eb1 f1be ba7e 2cbe
00000370: 23bc 5c3e c99e 69bf 375f 893e d7c5 403f
00000380: 14a1 453f 606b 63bf 71ee ea3e 9e5f 603f
00000390: cb7f 5fbf 0b4e 46be e09f 8b3e 4c2b bcbe
000003a0: f3ea a2be 85b9 113f 8c60 e43d cd5d 323f
000003b0: eeab 153f 8b4e bc3e 1c5c b2bd d7a4 75bf
000003c0: edc7 c83d eb28 d2bd 05e7 12be 38d4 d23e
000003d0: 9db1 bc3e b22f 23bd 898a 5a3e ac71 1a3f
000003e0: 8542 133c 4509 cbbd 88ec fabe f535 56be
000003f0: 96d1 343e e819 863e de23 e03f f695 23bf
-0.06031057 -1.2263962 -0.3969926 0.70498013 -0.5038541 -0.03392501 -1.1568652 0.028090158
0.74644333 0.19072081 -0.8005109 -0.33243248 1.2711661 -0.20964347 -0.5875063 1.3202057
-1.0212442 0.620952 0.6111219 -0.41759437 0.1070971 -0.34067896 -0.66575223 -0.3422341
0.31880265 -0.6678845 -0.22804223 0.27598453 0.057880353 0.29113683 -0.38442862 -0.34702215
-0.32516453 -0.40373263 -0.20815799 0.097902484 -0.68150043 0.34858826 0.49898183 1.1301528
1.4089211 -0.46403688 1.0111288 0.86805934 1.4275876 -0.49442738 -0.45254865 -0.4553489
0.2755519 -0.7005813 0.65173703 -0.1478003 -0.07746427 -0.55022776 0.29071048 0.14031748
0.24096224 -0.018815732 0.811986 -1.0544341 0.53420275 0.6057304 0.4857244 0.54559445
-0.73519975 0.90506977 0.427649 0.017499536 0.6298752 -0.25801694 0.029954152 -0.70242935
-0.13773587 -0.30291757 0.8956301 -0.556235 0.19173644 -0.31619534 1.3860831 -0.23612258
-0.010212527 -0.24690156 -0.6103032 -0.9348144 0.6111254 0.65013474 0.4851037 -0.7668739
-1.7725143 0.6348212 0.5278672 -0.49939537 0.9702621 -0.031132316 0.6565904 -0.0368136
0.031983063 0.02441505 0.11281303 -0.6246719 -1.1382344 0.010069022 -1.0398899 -0.18627642
-0.3057614 -0.09916792 -0.48002356 -1.0089067 1.8743439 0.69794214 0.054510538 0.08450052
-0.19825189 0.15746903 -0.084826216 -0.028091304 -1.3508049 0.6782912 0.3852078 0.2618522
0.2542212 0.8843811 -0.6808716 -0.99715567 -0.47447044 -0.35735294 -0.24097118 -0.11974019
-0.73842114 -0.11715913 -0.6986668 0.35811555 -0.8666799 -0.08806014 -0.7829389 0.22831368
-0.43331936 -0.689122 0.022996977 0.775495 0.8594708 -0.7272792 -0.9599637 0.32507917
-0.2681506 0.27020317 -0.60138553 -0.6257044 -1.0168324 0.39272004 -0.1450876 -0.48137063
0.4472168 -0.07393028 0.5970627 -0.22727594 0.6029412 -0.49208295 0.32206097 -0.8460342
-1.3122307 -0.18609968 -0.28100705 0.42419916 0.8685087 0.47795355 -0.041758064 0.021677066
0.042816687 1.5655056 -0.77215916 -1.1153383 0.6754987 1.1800132 -0.0012704468 0.4178716
-0.14078203 -0.524092 -0.52960175 -0.6969497 -0.1334145 0.6537637 -0.1200184 -0.5725543
0.30318248 -0.14317526 1.0650151 0.23069708 0.35286355 0.03346163 -0.59293133 0.36651105
-0.7067112 0.7337454 -0.51950246 -0.018470638 0.09494235 -1.2122871 0.05260425 0.06651084
-0.18872231 1.6687561 -0.60935843 -0.12879069 -0.48296514 -1.4981104 -0.82235706 -0.14704242
-0.32494813 -1.7506174 0.069387056 -0.09955993 0.28620657 0.65056753 0.32822138 0.5055689
-1.1144545 0.034465425 -0.47205395 -0.16845217 0.21556143 -0.9125791 0.26830456 0.7530188
0.7719891 -0.88835716 0.4588504 0.876459 -0.8730437 -0.19365709 0.27270412 -0.36751783
-0.31819877 0.56923705 0.11151227 0.6967438 0.5846547 0.36778674 -0.08708975 -0.9595465
0.09803758 -0.10261711 -0.1434594 0.41177535 0.36854258 -0.039840408 0.2134191 0.603297
0.008988027 -0.099138774 -0.49008584 -0.2091902 0.17658076 0.2619164 1.7510946 -0.639007

rnn.weight_hh_l0 f4 [256, 64]
00000000: a211 793f f4aa acbe 10c6 1340 3427 0940
00000010: 7b2d 40be 735e dd3a d690 5fbf 95b2 c43e
00000020: 1123 b6be d429 babe f3bd 623f e2aa d8bf
00000030: e4df 0a3e aee9 883d 3eb9 b03f d6eb 4c3d
00000040: 17bf 02bf 72bf 353f 5a30 16be 0c2b 18be
00000050: c17b f3be f4e7 b33f 96cf 3b3e 8a51 f9bf
00000060: ecaa c2bf f199 6f3f 0536 95bf 3793 a4bd
00000070: 85cf 5a3d 712a 073f ad63 a3bd 7dfd 9fbf
00000080: a851 6e3f 966f 6c3d e0bf d23f bcbc 50bf
00000090: 98d9 ad3e fba9 eabe 5123 73bf 946b 603d
000000a0: 910d 2f3f 5d72 903c d5c0 b53e 0e34 f63d
000000b0: 92fb 8cbf e9e8 313f 8b5f ac3d 7c2d babb
000000c0: fd37 2b3f c206 82be c3d2 203f 00c1 6ebf
000000d0: 3b5d abbf d2b9 dd3d 87c3 51bf ea7d 96bf
000000e0: 0eab cabe c368 c23f 6a3a 543e cdbb 973e
000000f0: 5c1f a3bf c7df 0dc0 ca54 edbe 143b f73e
00000100: d972 9cbf f86d 17bb d92b 1e3f 9e69 54be
00000110: 386f dc3e 398d 2ebf 37dd 03bf b4b8 fd3c
00000120: 3387 d73d bc47 6fbf ccd4 95bf 07d9 8f3e
00000130: c73c 04c0 36ad b03f 759a 8e3f bdde 6d3f
00000140: 371e 433f c5c2 5bbf 0331 ccbf 4654 6b3f
00000150: 6422 af3f db7d 18be 454f 92bf 2a78 233e
00000160: 33ad d03e fede f7be d902 a33e 1ed7 acbe
00000170: 5528 c73e 15a7 0c3f 42c3 4f3e 5bcf 733f
00000180: cac6 583f 51d4 7cbf 04fa 3b3f fc43 463f
00000190: d659 9dbf aa42 8bbf fd04 963c bc39 3a3f
000001a0: e1c1 2f3f 63ac 143f 6f89 50bf a277 de3e
000001b0: f612 763f c62e 483e b801 773c c300 253f
000001c0: 767e e8be 95d7 3fbf 99b2 aa3f 5f8d bdbe
000001d0: 8bb0 44bf 8337 863f d3cc a13e 89ce 63bf
000001e0: 8674 f4bf 0caa 903d 7bad 26bf bb64 0140
000001f0: db58 17bf 2d93 f6bf 9fbf 40bf a940 aebe
00000200: 5146 48bf b892 623f c71e 573e aaac 593f
00000210: ec88 87bf 0a58 1c3f 2d16 c9bf 4f48 343d
00000220: 370c 85bf c692 863f 2c17 9b3f 2ae1 aabf
00000230: 4a96 3b3f 8ade 1abd b336 883f 6d18 9abe
00000240: ca69 ddbf d17c 0640 df1f bc3f 5b8c 1f3f
00000250: 3bba 913f 6cab b1be f42b 49bf d543 8a3d
00000260: af6f 67bf 1ed1 61be e4e6 b33c 1fcb a53e
00000270: 4d0b aebe 4eaf 763f 93cc 81be 3c62 e1bf
00000280: 2a30 19bf 63e0 18bd 9df1 cbbe 86eb 36be
00000290: 321f bfbe 8547 6b3e fc07 0c3f dfc0 053f
000002a0: 0853 3fbf 7c41 eebf 5768 803f 525e 963d
000002b0: 2152 5abf ba93 633f a4dc d2be 0b0f 1dbe
000002c0: 41f5 cb3f fb09 33bf f5d3 e23f 3f64 4b3f
000002d0: 778b 2abd 6653 72bc 54ea 28bf ee7e 113e
000002e0: b8f5 11c0 cd70 05bf fe2c e0bd 2c44 54be
000002f0: 5d1b 493e ed9e e63d 1bd7 7e3f 8117 903f
00000300: a3f5 0abf 27e5 b83d d9f0 883e 23eb 5bbe
00000310: 0371 b53e 8dd7 72bf 7bd6 88bf 550b dc3e
00000320: 9cfe 9cbf 3b25 2abf d0e4 b83f 249b 68bf
00000330: 3666 b53d 3d80 96be 486a 4cbe 7e88 b4bf
00000340: 6539 503c ea61 1040 1308 413f 16ea 823f
00000350: 1f83 943f f357 8fbf a82f 643f 0c76 1fbf
00000360: db87 e5bf 6639 833f 5f9c c63e a729 9abe
00000370: 340a 67bf 41c7 4e3e b764 943f 7a4d 813f
00000380: 4bd3 80bf 6c54 493f c44f 103e 8051 07bf
00000390: f3bd 49be c9bc c33f 580c 1ebe a153 96bf
000003a0: 9610 a03f fb2c 2fbe 4b7d fabe 0fe0 a6bf
000003b0: 668f 10c0 84a3 c53e e4bf db3f b47e 67be
000003c0: ea18 f63f 2994 e93c 2842 2bbf d50b f73d
000003d0: 73eb 423f a346 dbbc 0727 8ebf 9540 f0be
000003e0: 62b7 8dbe 41fc b1be a6c5 053f fdbf d1bd
000003f0: ac04 a63f f12a e0bf 6477 873f 495b 033e
0.9729253 -0.33724177 2.3089638 2.1430178 -0.1876735 0.001688911 -0.8733038 0.38417497
-0.3557363 -0.36360037 0.8857109 -1.6927149 0.1356197 0.06685196 1.3806531 0.0500296
-0.5107283 0.7099525 -0.14666882 -0.14860171 -0.47555354 1.4055161 0.18340907 -1.9478009
-1.5208411 0.9359427 -1.165711 -0.080358915 0.053420562 0.52799135 -0.07977996 -1.2499233
0.9309335 0.057723604 1.6464806 -0.81537986 0.33955073 -0.4583281 -0.94975764 0.054790094
0.68380076 0.017632658 0.35498682 0.120216474 -1.1014273 0.6949602 0.08416661 -0.0056816917
0.66882306 -0.2539578 0.62821597 -0.93263245 -1.3387827 0.10826458 -0.81938976 -1.1757176
-0.3958363 1.5188221 0.20725408 0.29635468 -1.2743945 -2.2167833 -0.4635375 0.4828726
-1.2222549 -0.0023106318 0.61785656 -0.20743415 0.43053603 -0.6818424 -0.5150942 0.030971862
0.10523834 -0.9346883 -1.1705565 0.28095266 -2.0662096 1.380286 1.1140887 0.92917997
0.7621798 -0.8584407 -1.5952457 0.91925466 1.368237 -0.1489176 -1.1430441 0.15963808
0.4075714 -0.48412317 0.3183811 -0.3375787 0.38897958 0.54942447 0.20289329 0.95238274
0.8467833 -0.9876147 0.7342837 0.77447486 -1.2293041 -1.0879719 0.018312925 0.72744346
0.6865521 0.5807554 -0.8145971 0.43450648 0.9612268 0.19549093 0.015076093 0.6445429
-0.45408982 -0.7493833 1.3335754 -0.3702192 -0.76831883 1.0485691 0.3160158 -0.8898702
-1.909806 0.07063684 -0.6510846 2.021773 -0.5911996 -1.9263664 -0.7529239 -0.34033707
-0.78232294 0.88505125 0.21007834 0.8502909 -1.058866 0.61071837 -1.5709893 0.04401427
-1.0394353 1.0513542 1.2116446 -1.3349965 0.732762 -0.037809886 1.0641693 -0.3009676
-1.7297909 2.1013682 1.4697226 0.6232354 1.1384958 -0.34701097 -0.7858269 0.06751219
-0.9040479 -0.22052428 0.021960683 0.32381532 -0.33992997 0.96361244 -0.2535139 -1.7608104
-0.5983912 -0.037323367 -0.39832774 -0.17863283 -0.37328488 0.22976501 0.54699683 0.5224742
-0.7473607 -1.8613734 1.0031842 0.07342209 -0.8528157 0.8889729 -0.4118396 -0.1533777
1.593422 -0.69937104 1.7720934 0.7944984 -0.04163691 -0.014790392 -0.65982556 0.14208576
-2.2806225 -0.52125245 -0.109460816 -0.2072913 0.19639345 0.112607814 0.99546975 1.1257173
-0.5428106 0.09028082 0.26746252 -0.21476416 0.35437784 -0.94860154 -1.0690454 0.42977396
-1.2265201 -0.6646306 1.4444828 -0.90861726 0.08857386 -0.29394713 -0.19962418 -1.4104154
0.012708996 2.2559762 0.75402945 1.0227687 1.1602515 -1.1198715 0.8913522 -0.622895
-1.7932085 1.0251892 0.38791177 -0.30109903 -0.90249944 0.20193197 1.1593236 1.0101769
-1.0064481 0.7864444 0.14092928 -0.52858734 -0.19701366 1.5291988 -0.15434396 -1.1744272
1.2505062 -0.17107002 -0.48923716 -1.3037127 -2.2587523 0.38601315 1.7167935 -0.22606927
1.9226353 0.028513031 -0.6689782 0.12062804 0.76140517 -0.02676708 -1.110566 -0.46924272
-0.27678972 -0.34762767 0.5225471 -0.10241697 1.2970176 -1.7513105 1.058331 0.12827791

rnn.bias_ih_l0 f4 [256]
00000000: 2b8f 383f 5bcf 4f3f 5bc0 373f a298 753e
00000010: 2689 d13e ce5a 253f ec78 3f3e b869 893f
00000020: ee73 ea3e 246f df3d 4554 193f 3b90 133f
00000030: fa11 b73e d4fc 8b3e 3663 8d3e eb29 703d
00000040: 6256 adbd 622f c83c 6bd0 45be 8480 7a3e
00000050: 58d8 a83e f352 963e fbae 763d b2f1 113f
00000060: 62f5 493e 3814 833d 3392 4d3f 40df 5f3f
00000070: ad2e 023f d49f e3be c7e3 ef3d adb4 003f
00000080: 3d59 28bc 1114 8f3e 5afa f33e ccdc 8d3e
00000090: 9fc6 843e c925 cc3e 1059 a83e 0a0a 9c3e
000000a0: 1bc2 a33e 25ef ff3e f476 603e 9d04 cb3e
000000b0: 782d cf3e 1413 1e3e e2c2 023f f5a7 1b3e
000000c0: f4ce 873f 8915 a23e d4e3 fe3e 584f 813d
000000d0: 19a8 3d3f 6812 233e b336 303f 32ce 8f3e
000000e0: 7865 9abd 20ba 73be 0623 193f f202 aa3e
000000f0: 81d9 ff3e 0c2e f73e a266 e93e a0be b8bc
00000100: baf8 f03e 762b 653e a815 c43c 9bf5 b73b
00000110: b9b7 3a3e d8e5 063f fd7a 213e 09d6 c03e
00000120: 9683 443e 1963 9abd 647a 2e3e 9222 393f
00000130: 62bc 55be 8a3e 30bd 5f7b d8be 0e75 87be
00000140: 0ccd 3ebc 0b22 363f 97b8 853e 31dd c4bc
00000150: 0082 c13e 1523 823e 0ff2 a23e f93b 303f
00000160: 0a13 15be 1546 b33e ddd1 c0be 12a2 f63d
00000170: 7de3 db3e 61a8 b53d 6da3 ee3e 0a14 b73e
00000180: 7c0b 983f b155 4a3e 8323 cc3e b7e3 c63e
00000190: 79cb 923e e5f2 403e e373 a5be 1065 e4bd
000001a0: dac3 02bf 955b 4a3d 7e8f 99be 5807 753d
000001b0: 2e3e 50be e200 b83e 017a 723e 0915 453e
000001c0: 1b78 d4bd c349 c5bd 443b c93e 54b2 a3be
000001d0: a5d3 8cbe c2fa 08bf 6b76 03bf afbc 67be
000001e0: 671b a5bd 38aa 343f b82e 7ebe 80d5 b93c
000001f0: cde2 58be f85f 253f 83c6 acbd 1dbe 1cbc
00000200: 5adc 02bf 4ba2 a3be 5568 333e 5493 8cbe
00000210: 841a 8ebf 33ab 743f 9821 9bbe 8eda 2abf
00000220: 2bb3 113f b21e a3bd d715 2cbf 19b5 1e3c
00000230: 5690 fa3d 656d a2be 1cb4 543b 815a 16be
00000240: 897e 413f 8a4f 6a3f 8d4c 103e 55c6 24bf
00000250: 0a01 633f 9d88 803f 6833 25bf 1ec0 39bf
00000260: eb9e 0bbe 5aab d83e d14e 3abe d063 c73e
00000270: f61e 143f 8eed c33d 86bb d33e 070a 0fbf
00000280: 3fc0 183f ed36 833f 9bfe 93bc 5e6a 3f3e
00000290: 3f8a 833d 093a 02be 0054 943e 4381 fbbe
000002a0: 7254 0c3f ae39 223f 401d e53e 7e9e 033f
000002b0: f705 053d 7b09 193f ae29 ca3d 372b 68be
000002c0: 3d8c 4d3f b325 b33e 735c a93f 9e90 b03d
000002d0: d3cf 493f 734f 8dbf 97b9 11bf d752 65be
000002e0: f377 013f 7c63 84bf 0b70 e6bd bf3c 063f
000002f0: 8605 e93e c1c2 5dbf 67b1 373e 7c00 093f
00000300: 37f0 a63d 9062 e73e 6938 5f3d 1911 093e
00000310: bea3 61be ddc8 9bbe c5a3 b9be eec1 bfbe
00000320: 8aef 283e 60eb 293f cbd8 013f 0fd0 ae3e
00000330: a43b c43e 0308 773e 867f d33e 4048 9c3e
00000340: 2493 1abe 2cd2 b83e 631e afbd 87a8 d23e
00000350: 5fe8 9b3c f01c 02be e947 813e ba19 d8be
00000360: c727 a93e 8b53 04be 3188 3c3f 4fd9 183f
00000370: 2672 17be a95b 4d3f 8ea1 713e f095 0f3e
00000380: 2b4e 8dbc bc9b 053f d714 063f d677 463e
00000390: 004b 7b3f 64b0 a9bc b4db 763e 9a53 2a3f
000003a0: 2e1d 873e c4f2 483e 0b11 b93e 0f34 323f
000003b0: 8e6a c1bd df79 253e d7a0 62be 2bbd 0f3f
000003c0: b637 b13e b178 d5be ac4b 263d 81df 3a3f
000003d0: 1d82 1ebe b737 093f bd51 9ebd 50c5 ddbd
000003e0: f5a0 893e c163 c43e 4f7f d7be f6fc b73e
000003f0: 4797 0d3f 7daf 973d 0b91 043f 1f63 6c3e
0.72093457 0.81175774 0.71777886 0.23984006 0.40924948 0.6459168 0.18698472 1.0735388
0.45791572 0.1090987 0.5989421 0.57641953 0.35755903 0.2734133 0.27614754 0.058633726
-0.08463742 0.024436656 -0.19317786 0.24463087 0.32977557 0.2936016 0.060225468 0.5700942
0.19722512 0.06400341 0.8030121 0.8745003 0.5085247 -0.44457877 0.11713367 0.5027569
-0.010275182 0.27944997 0.4765194 0.27707517 0.25932786 0.39872578 0.3288045 0.3047641
0.31984028 0.4998714 0.21920377 0.39651957 0.40464377 0.15436965 0.5107862 0.1520079
1.0610032 0.31657055 0.49783194 0.06313962 0.7408462 0.1592499 0.68833464 0.28087002
-0.07538885 -0.2380147 0.59819067 0.33205372 0.4997063 0.48277318 0.45586115 -0.022551835
0.47064763 0.2237986 0.023936108 0.0056139953 0.18234147 0.52694464 0.15769573 0.37663296
0.19190821 -0.07538433 0.17038876 0.72318375 -0.20872644 -0.043028392 -0.42281625 -0.26456493
-0.011645567 0.71145695 0.26117393 -0.024031254 0.37794495 0.2541739 0.318253 0.6884151
-0.14558044 0.35014406 -0.37660113 0.12042631 0.42946997 0.08870006 0.4660906 0.35757476
1.1878505 0.19759251 0.39870843 0.38845608 0.28670862 0.18842657 -0.32314977 -0.11152089
-0.51080096 0.049403746 -0.29992288 0.059821457 -0.2033622 0.35938174 0.23679353 0.19246306
-0.10374471 -0.096332096 0.3930303 -0.3197199 -0.27505222 -0.53507626 -0.51352566 -0.22630571
-0.08061867 0.70572233 -0.2482251 0.022684813 -0.21180268 0.6459956 -0.084363006 -0.009566811
-0.5111748 -0.31959757 0.17520268 -0.27456152 -1.1101842 0.9557373 -0.30299067 -0.6673974
0.56914014 -0.07964839 -0.67220825 0.009686732 0.12234561 -0.31724086 0.0032455986 -0.14682962
0.755837 0.91527617 0.14091702 -0.6436513 0.8867346 1.0041691 -0.64531565 -0.7255877
-0.13634841 0.4231823 -0.18194129 0.38943338 0.5785974 0.09566794 0.41354007 -0.55874676
0.59668344 1.0251137 -0.018065741 0.1869292 0.06422853 -0.12717451 0.28970337 -0.49122056
0.54816353 0.6336926 0.44748878 0.51413715 0.03247639 0.5978009 0.09871231 -0.22672735
0.8029211 0.349897 1.3231338 0.086213335 0.7883274 -1.1039871 -0.5692381 -0.22394882
0.50573653 -1.034286 -0.11251839 0.5243644 0.45512027 -0.86625296 0.17938767 0.53516364
0.08151286 0.45192385 0.054497156 0.13385428 -0.22035119 -0.30426684 -0.3625776 -0.37452644
0.16497627 0.6637478 0.50721425 0.3414311 0.38326752 0.2412415 0.4130823 0.30523872
-0.15095192 0.36097848 -0.08550718 0.411442 0.019031702 -0.12706351 0.25250176 -0.42207128
0.3303816 -0.12922494 0.7364531 0.59706587 -0.14789638 0.8021799 0.23596784 0.1402204
-0.017249187 0.52190757 0.5237555 0.19381651 0.98161316 -0.020713992 0.24107248 0.66533816
0.2638945 0.19623858 0.36145815 0.69610685 -0.09444152 0.16159771 -0.22131668 0.5614802
0.34612817 -0.41693643 0.04059951 0.7299729 -0.15479322 0.5360064 -0.07730434 -0.1082865
0.26880613 0.38357356 -0.42089316 0.3593518 0.55308956 0.074065186 0.5178382 0.23084687

rnn.bias_hh_l0 f4 [256]
00000000: c71d 273f c793 3a3f 690e 1e3f 130f 423d
00000010: bc99 9f3e 6d84 343f 924e a43d 2209 8b3f
00000020: 70f7 ce3e 5cbb 2b3e b5a5 023f 9a13 af3e
00000030: 8528 e53e a638 5d3e 4a38 943e fa8f c2bd
00000040: 3b36 943c 77bb 61bd bbb9 adbd 52e6 e73e
00000050: a31a f63e d2d2 1e3e 1578 be3d ee3f 1d3f
00000060: d90d 0b3e 066b d2bc 9744 413f 7eab 5f3f
00000070: ccc7 0b3f 4452 bbbe f56c 253e a607 bc3e
00000080: 00ca 63be 6c61 d03e 90ce 203f 91a2 a03e
00000090: c71d da3d 744d 0b3f a150 b23e 619d 703e
000000a0: 8410 d53d 8561 f63e 9f37 b03e 2138 df3e
000000b0: 1451 9e3e 77a1 513e f885 093f 754c 7ebb
000000c0: 7e82 5c3f f8ef f53e 4495 f03e 3b68 56bc
000000d0: c137 1b3f d955 fb3d d29f 3b3f 97a1 843e
000000e0: 64f8 43be 9b40 90be 0c83 1a3f 1af3 973e
000000f0: 70f2 103f e9b5 b43e 81e9 963e 1e0d 733b
00000100: 61d3 9f3e 7b1f 423e 390e 013e 1f37 92bd
00000110: a110 273e 1bb9 dc3e ca72 103e e754 8f3e
00000120: 2f11 893e fc0d 3fbe 8162 b73c 4478 353f
00000130: 47e6 20be 08e5 3a3c be71 d6be 3fab ccbd
00000140: ae2a 48be a514 5b3f bba2 793e 59f3 9f3d
00000150: 0664 9c3e a8ea 7c3e cb5f a83e 4117 593f
00000160: 0d94 90be 4468 0e3f c0d0 83be c83b 833d
00000170: 60f2 023f 0a0b 833e 3aa3 183f ab89 813e
00000180: 619d 9b3f 24c4 c93d 546f 0f3f e6c4 0f3f
00000190: ea91 443e 2fe6 063d 6caa bebe bd5e febd
000001a0: 83b6 91be a7eb e8bd 174b c0be 9412 e53d
000001b0: 7b62 c3be ac6a af3e 7d54 e43d 41f0 cf3d
000001c0: 184f 8cbd 856f f9bd 17f1 c33e 40d7 55be
000001d0: aeff 97be a9cb adbe 1f3d f1be 2974 7cbe
000001e0: f593 003e 647c 043f 3883 abbe c1d6 2aba
000001f0: 9f4f 55be da97 093f 704c babd 5dc3 b4bd
00000200: 4b5b 10bf b83a 92be 8903 563d 362f 42be
00000210: 79bc 9cbf a5f5 4d3f 91ab 07bf a4f8 1ebf
00000220: d870 1d3f 4ac1 b53d d444 18bf 1e72 3b3d
00000230: 2249 473d 8fed d3be fa31 0e3e a1ad 1fbe
00000240: 14ff 213f b5fa 533f 61d2 643e 595c 22bf
00000250: 729d 293f 517d 8e3f db07 2cbf bcfe 10bf
00000260: 0de8 1fbe f24c 173f 7216 3ebe 66c4 6a3e
00000270: 67c4 333f 5f0e a63d 9d20 8b3e a432 07bf
00000280: 9ee3 ea3e d0fa 773f 1529 2c3d 1e63 d03e
00000290: 0984 8e3d b0b8 80be 1376 ae3e cf3c 02bf
000002a0: 339f dc3e 095f 213f 2538 ba3e b304 f53e
000002b0: c999 57b9 8c7f 2c3f ef9c 413e d3cc 3cbe
000002c0: 8d9f 2f3f 7f27 e53e 4cd2 a93f 704b 503e
000002d0: f4fd 3e3f da40 7dbf 30f9 15bf ecd7 bdbd
000002e0: 3884 083f de9d 94bf c5de 0dbe ef67 113f
000002f0: 6c01 ab3e 8b82 3bbf cdc1 093d bb23 113f
00000300: 6e17 5c3c 8210 0b3f 130f 023d ceac 233e
00000310: ef58 0dbe 3da2 c7be 4f42 cebe cf4b 50be
00000320: 8de8 113e e6be 283f 65dc 0d3f 92fd 2f3e
00000330: 4bfd c73e 235b 763e a0e1 ce3e 8641 dc3e
00000340: b298 e4bd 6de5 3f3e aa7f 2ebe 0cfc e93e
00000350: f3ca 623e fb55 7fbd d361 8d3e 36ec bcbe
00000360: b70a 2a3e d653 11bd 5284 233f aaee 223f
00000370: 7517 85be 3141 373f 6c1d 523e 9fc8 423e
00000380: 3342 2ebe 9879 e53e e876 3e3f c37f 433e
00000390: 20d8 873f 62a0 0e3e e4fe 5e3e 3a29 1d3f
000003a0: b38b bd3e fa45 643e 41b2 813e 67e1 443f
000003b0: acd8 f4bd 1f2a fe3d 3e32 33be 527c 0b3f
000003c0: 224e a63e fe29 bcbe 7666 233e e332 513f
000003d0: a78b 48be 54f8 ce3e 266e bcbd d4e9 ebbb
000003e0: 4a26 3f3e d76e e23e 9855 07bf 1f45 a13e
000003f0: 7f59 203f 169d cebd 1fab ce3e cdf3 b13e
0.6527981 0.7288174 0.6174074 0.047377657 0.31171978 0.70514566 0.080227986 1.0862162
0.40423155 0.1677069 0.510341 0.34194642 0.44757476 0.21603641 0.28949195 -0.095001176
0.018092265 -0.05511042 -0.08482691 0.45292908 0.48067197 0.15510109 0.093002476 0.61425674
0.13579501 -0.025685798 0.75495285 0.8737105 0.5460174 -0.365862 0.16154845 0.36724585
-0.22245026 0.40699327 0.6281519 0.31374028 0.10650211 0.5441506 0.3482714 0.23497535
0.10403541 0.48121276 0.34417436 0.4359751 0.30921233 0.2047175 0.53720045 -0.0038802896
0.86136615 0.48034644 0.4698888 -0.013086374 0.6063195 0.122722335 0.7329074 0.25904533
-0.19137722 -0.2817429 0.6035621 0.2967766 0.5661993 0.35295036 0.29475024 0.0037086676
0.31215957 0.18957321 0.12603082 -0.0713942 0.16314937 0.43109974 0.14106289 0.27994463
0.26770923 -0.18657678 0.022385838 0.70886636 -0.15712844 0.011407144 -0.41883653 -0.099936
-0.19547531 0.85578376 0.24378483 0.07810087 0.30545062 0.2469889 0.32885584 0.8480111
-0.28237954 0.55627847 -0.257452 0.06407887 0.51151085 0.2559436 0.59624064 0.25300345
1.2157403 0.09851864 0.5602925 0.5615982 0.19196287 0.032934364 -0.37239397 -0.12420414
-0.28459558 -0.11373072 -0.3755729 0.11185184 -0.38161072 0.34261072 0.11148927 0.10153247
-0.068510234 -0.12179474 0.38269874 -0.20882893 -0.29687256 -0.33944443 -0.47116944 -0.24653687
0.12556441 0.51752305 -0.3349855 -0.0006516986 -0.20831154 0.5374733 -0.090966105 -0.08826325
-0.563893 -0.28560424 0.052249465 -0.18963322 -1.2245017 0.8045295 -0.52996165 -0.62098145
0.6150031 0.088747576 -0.59480023 0.045763128 0.04865373 -0.4139218 0.13886252 -0.15593578
0.63279843 0.82804424 0.22345878 -0.6342216 0.6625587 1.1131994 -0.67199486 -0.56638694
-0.15615864 0.59101784 -0.1856325 0.22926483 0.7022156 0.0810821 0.2717332 -0.52811646
0.45876783 0.96867085 0.042031366 0.4070062 0.069587775 -0.25140905 0.34074458 -0.50874037
0.4309021 0.6303564 0.3637096 0.47855148 -0.00020561287 0.6738212 0.18907522 -0.18437509
0.6860283 0.44756696 1.3267303 0.20341277 0.7460625 -0.9892708 -0.58583355 -0.092696995
0.5332675 -1.1610677 -0.13854511 0.56799215 0.33399522 -0.7324607 0.03363209 0.56695145
0.01343332 0.54322064 0.031752657 0.15983889 -0.13803457 -0.38990965 -0.40284964 -0.20341419
0.14248867 0.6591629 0.5541442 0.17186573 0.39060435 0.24058203 0.40406513 0.4301874
-0.11161937 0.18739863 -0.17040887 0.4570011 0.22147731 -0.062337857 0.27613696 -0.36898965
0.1660565 -0.035480343 0.6387378 0.6364542 -0.2599446 0.7158385 0.20519036 0.19021843
-0.1701744 0.4481933 0.74400187 0.19091706 1.0612831 0.13928369 0.2177692 0.6139103
0.37020645 0.22292319 0.2533131 0.76906437 -0.119553894 0.12410378 -0.17499635 0.5448657
0.32481486 -0.36750787 0.15957054 0.8171827 -0.19584523 0.40423834 -0.09200697 -0.0071995053
0.1866695 0.4422519 -0.5286498 0.31498048 0.6263656 -0.100885555 0.4036493 0.34756318

rnn.weight_ih_l1 f4 [256, 64]
00000000: 61d8 ea3e b344 ab3e 63e8 dabe 8e99 7c3f
00000010: 6288 62bf 2320 0940 fc34 853f d146 123e
00000020: 6830 69bf 5332 eebe c2e9 563f d8f6 483f
00000030: 152c 97bf 6bd8 cfbe dfd8 c23e 39cb d8be
00000040: adbf 903e a4dc 483f 4de2 80bf bd8c 1ebf
00000050: b0fb 49be d102 e03f acc1 fbbe bb04 22bc
00000060: bd98 dbbe cadc cebe 7d5e 89bf 2dcc 743f
00000070: aed5 b9be 5a78 6e3e e84c cd3f b3c4 003e
00000080: a2a4 6e3e d526 983e cd23 263f 0697 6bbf
00000090: 4082 233f 2732 0f3e 997d aebf 43bb cd3e
000000a0: 492a 0f3d 5005 93bf 6ea8 d73e 463e d2be
000000b0: 5d06 d93d e99f 4c3f 112f 3f3f 8dbc 7a3f
000000c0: e48b 7dbf e997 843d 88f5 df3e 6d69 333f
000000d0: e98f 623f 339d 3cbf 2866 b43f 9eb5 44bd
000000e0: c095 833f f8b6 2ebe 2597 3b3f f4d5 02bf
000000f0: b1b9 d33f 7318 803f b3dc 9b3f f00f 143f
00000100: 3ce0 54be b512 acbc 544e 87bd 31f4 7c3d
00000110: b040 03bd eb80 553d e130 20be ca0c fdbd
00000120: 38ff 583e 5df9 f8bd eae2 923c e95b a43c
00000130: 6c95 4fbd f88c 67be 039a 95bc be63 cbbd
00000140: 7a80 a43d 0d81 543e 81ea 0c3e 3417 e4bd
00000150: 056b 5a3e 73d5 3cbd 30ca a6bd 0d9f 3ebe
00000160: 0395 4dbe e805 4b3e 790f b93d 660f bdbd
00000170: d1dc 703d c44f 943c fd3d af3d cb5e 46bd
00000180: ba12 5e3b bab0 113d 7cf6 4e3d 40d5 e4b9
00000190: 13e2 943b 04b4 943c 8825 c2bd 1053 ddbd
000001a0: a268 5ebc ff3b 0a3e 71fb 1fbe bb4f 383d
000001b0: 3f22 0d3d 4559 5a3e b413 313e a5ed 00be
000001c0: 40c2 623d a471 b63c f20a d63d ce6a 143d
000001d0: a4c2 393d 4948 debd cf63 b5bc a82d 48ba
000001e0: c344 c43c f365 7bbd 523d 85be 4d8d 3c3d
000001f0: 7eb0 3dbd d659 b8bd 1428 a1bd 4f24 c33b
00000200: ab7d 4fbf fbde 8f3e cd58 cabf f8dc 9bbf
00000210: 996c f3be e13b 30be 6bee bd3e 280c eb3e
00000220: 8107 45be 4681 50bf 39b8 253f 384e 893f
00000230: 33b8 f93e e135 d0be f961 41bf cfef 473e
00000240: 3754 66bf d984 453e d47b 9e3e 5633 dcbe
00000250: 449b 0340 4958 81bf 6ad5 733f 9ced 383f
00000260: ed5e 103f d3f6 0f40 9f82 553f c156 3b3f
00000270: c9f8 dd3e b696 50be 15eb 943f 1528 233f
00000280: 64b1 4a3e d1ef e73f fd23 383f 52cd 4abf
00000290: f7fd 003e 712c 56be 4986 fdbe 0c4f 1abf
000002a0: f7df 2a3f 7c3a de3e 2eb2 543f 80d9 d13e
000002b0: f9f6 593e 9776 693f a5fe 54bf ff70 143d
000002c0: cb13 1c40 a3a9 073f ff91 c73e 9431 fcbf
000002d0: f86a 013f bb0b 8cbe f628 12bb 45f6 eabf
000002e0: 7cec c03d bd3a 533f 6f04 b53f e23d 9b3f
000002f0: 7abf d93f 4d1f 813f a3c3 9a3f 9f6a a53c
00000300: 1fc0 70be 641f ca3c b12e 693d e62f a43e
00000310: e7fd 5a3d 0b50 1dbd fdd1 913d aa8f 0fbd
00000320: 6b72 cebd 320e 4bbc b526 163e 9df4 453d
00000330: e463 93be 2282 a2bd 79bc 733b 9a9c dbbd
00000340: 3289 f03c d85f aa3d cea3 c03d aa1d 36be
00000350: ef23 ae3d 077e bd3d e6a7 c7bd 6f31 e93c
00000360: 9b44 a7bd 7dd1 c93d 4b9d df3c 04d2 a4bc
00000370: 9452 2d3e 4465 303e b8d4 2b3e 1ce5 55be
00000380: 66e3 c13c b981 f6bc 30cc 143e 9429 563d
00000390: c872 b13d 1f0b 4dbe c091 7d3e 8a8d 33be
000003a0: 0cd8 963d 7b2c 473d e474 28be ce16 1d3e
000003b0: 14d5 15bd 168a 463d 95c0 f53d 63bf 03bd
000003c0: 615e 673e da9a 323d dae1 383e 3da4 6d3e
000003d0: b8e7 febd fb66 ca3c 0908 a73d 50f5 303d
000003e0: b713 b23d 1cda 38be 7a25 c6bd 81ad 043e
000003f0: 57d3 61be 257c 25be 9be3 533d 72ba 903d
0.4586821 0.3345085 -0.42755422 0.98671806 -0.88489354 2.1425865 1.0406795 0.14284827
-0.9108949 -0.4652277 0.83950436 0.78501654 -1.1810328 -0.405948 0.38056085 -0.42342547
0.28271237 0.7846167 -1.0069062 -0.619335 -0.19724917 1.750086 -0.49171197 -0.009888823
-0.42889968 -0.40402824 -1.073196 0.9562405 -0.36295837 0.23288098 1.6039095 0.12575035
0.2330499 0.29717126 0.6489838 -0.9202732 0.6387062 0.13983975 -1.3632079 0.40181932
0.034952436 -1.1485996 0.4212069 -0.41063136 0.10596917 0.79931504 0.7468119 0.97943956
-0.9904158 0.06474287 0.43742013 0.7008274 0.8850084 -0.73677367 1.4093676 -0.048024766
1.0280075 -0.17061985 0.73277503 -0.51107717 1.6541044 1.0007461 1.2176727 0.5783682
-0.20788664 -0.021005014 -0.06606737 0.061756317 -0.032044113 0.0521249 -0.15643646 -0.12355955
0.21191108 -0.12156937 0.017930467 0.020063357 -0.05067961 -0.22612369 -0.018261915 -0.09931134
0.080323175 0.20752354 0.13761331 -0.11137238 0.21329887 -0.046102 -0.08144033 -0.1861536
-0.20076375 0.19826472 0.09036154 -0.09231453 0.058804337 0.018104441 0.08556745 -0.048430245
0.0033885674 0.03556893 0.050528035 -0.00043646432 0.0045435517 0.018152244 -0.09479815 -0.108068585
-0.013574751 0.13499449 -0.15623261 0.044997912 0.034456488 0.21323116 0.17292672 -0.12590654
0.055361032 0.022270985 0.104513064 0.03623467 0.04535164 -0.10853631 -0.022142319 -0.0007636198
0.02395857 -0.061376523 -0.26023346 0.046033192 -0.046310894 -0.0900151 -0.078689724 0.005955256
-0.8105113 0.28099808 -1.580835 -1.2176809 -0.4754379 -0.17210342 0.3709596 0.45907712
-0.19241144 -0.81447256 0.64734226 1.0726995 0.48773345 -0.40666106 -0.7554012 0.19525073
-0.8997225 0.19288959 0.30953848 -0.43007916 2.0563517 -1.0105067 0.9524752 0.72237563
0.56394845 2.24944 0.83402437 0.7317925 0.4335387 -0.20369992 1.1634241 0.63733035
0.19794232 1.8120061 0.71929914 -0.79219544 0.1259688 -0.2091539 -0.49516514 -0.60276866
0.66747993 0.43403995 0.8308438 0.40986252 0.21285619 0.9119658 -0.83201057 0.036240574
2.438708 0.5299322 0.38978574 -1.970263 0.50553846 -0.273527 -0.0022302247 -1.8356405
0.09420106 0.825115 1.4141978 1.212826 1.7011559 1.0087677 1.2090954 0.020192442
-0.23510788 0.024673171 0.056929294 0.32067794 0.053464796 -0.038406413 0.0712013 -0.035049118
-0.10080417 -0.012393521 0.14663203 0.048328985 -0.28787148 -0.07934977 0.0037191196 -0.10723229
0.029362295 0.08319062 0.09406243 -0.17784753 0.085029475 0.092525534 -0.09748821 0.028465955
-0.08167382 0.0985441 0.027296683 -0.020119675 0.16926032 0.1722613 0.16780365 -0.2088818
0.023668002 -0.030091153 0.14531016 0.052285746 0.08664471 -0.20023774 0.2476263 -0.17534462
0.073654264 0.048626404 -0.1645084 0.1534073 -0.03658016 0.048471533 0.11999623 -0.032164942
0.22594596 0.04360471 0.18054906 0.23207183 -0.124465406 0.024707308 0.081558295 0.0432027
0.086951666 -0.18051952 -0.09675117 0.12956811 -0.22053276 -0.16160639 0.051730733 0.070668116

rnn.weight_hh_l1 f4 [256, 64]
00000000: 3f2f a1bf ab02 013d be2e aabf a1a8 02bf
00000010: 0e1c 9bbe faa7 e63e 3625 7c3e 644d d4bd
00000020: d16e 273f 4edd 663e 6592 a2bf ece9 333a
00000030: a92a be3e 7991 b43f ddb1 a8bf 4981 0d3e
00000040: e7ba b5bd d0da cd3f 08cd 973f a77e dc3e
00000050: 73c6 7b3f d36d 843f 8151 6d3f 375e 423f
00000060: d1fc fb3c 8c0d 973f acf0 76bf 4217 56bf
00000070: 83c7 55be 8278 803f bde2 19bf fcd0 7abf
00000080: baaf 093f 4999 33be f090 3b3e ede0 1d3f
00000090: ae0e 16c0 651c ae3d 9931 413e 81f3 b0be
000000a0: c1de 6d3e 6c74 0f3f 5094 1e3f cf9d b8bf
000000b0: 03de 1cbe c1bf 05be 02dc 8cbf 4f93 57bf
000000c0: 9dc6 30be 8f83 28bf b0f7 bd3b 92dc a43f
000000d0: 982e c33f 0bb4 39be c214 a1be 2d29 7dbf
000000e0: 9049 b5be 89db 2140 8d08 9b3e a1cd 93be
000000f0: 5181 e43d 0d28 03be 614f 5a3f 1792 983f
00000100: 77ba 22bd 1a43 4c3c 2eea 23be b5aa a43d
00000110: 97f3 be3c 0065 303e 8d13 4dbe 6c53 1fbe
00000120: 9dee 3bbe f78d 03be ee37 943d d97d 593e
00000130: 74ee 083d 9790 133c b106 5dbe 952b 59bd
00000140: 57cc 823d 39e3 a3bd 0c3f 9e3c 307a acbd
00000150: 92f0 4ebe d4ab 393e adc3 193e 7693 a3bd
00000160: e2e2 613c e1b3 873a d2ff 99bd 6bbf be3c
00000170: cb6f 0f3e 591f 563e e751 65bd 3922 f33d
00000180: 74fa 283e 71e6 cebc bbed 0bbd 1d1d d6bd
00000190: 2b32 bfbd 3669 883d 001b 0c3c 3339 48be
000001a0: 301e 0b3e 0a9f bfbc ad21 d9bd 76c3 a03d
000001b0: 33b7 803d 81e4 03be d7b5 36bd 7098 f3bd
000001c0: 2c6b 0f3e 2771 03bd b364 4fbe f5fc aebd
000001d0: 3363 253b 9a47 f0bd bc83 293d 2fc6 5abd
000001e0: bb7d 4ebe 4f8d d13d 3d32 8f3b 2ad2 463e
000001f0: b092 fbbd 2640 693d eec7 d13c d26b 4fbe
00000200: 5f0a d1bf adc5 9e3f a9cc 4b3f c2d8 873f
00000210: ec10 cb3e bdb6 50bf 5240 873e 401e 1f3f
00000220: efac 25bf 1bac 0d3f 7399 a9be c690 3ebe
00000230: 6d00 0140 810d e13d 1876 58bf 1213 1bbf
00000240: 5ac9 72bf 63ba babd fd09 e5bc f212 2a3f
00000250: e5c6 31bf 0aa8 8abe 66d6 823f fd4e e1bf
00000260: 29e8 07bd e4ee 9bbe b3cc 86bf e3af 9fbf
00000270: fc48 463e fbd2 3c3f 28e7 053f e789 523f
00000280: e1c1 cabe ef12 9b3f 4813 1240 aed2 0cbf
00000290: 0ff2 15bf b4d4 a63f 03cb 81bf 516a 9dbe
000002a0: 34a9 8f3f c478 fc3e 84c4 d0bf b036 6f3e
000002b0: 0ec9 933f 7a5b ec3e 76ce 853f dd60 eabf
000002c0: 664e 30be a89f 223e a36f 043f cae9 ff3e
000002d0: a4ef 95bf 4be8 ca3f 07cf 48bf 98d7 c3bf
000002e0: c1ba 48bf 95fb 2ebf e47c 073d 8ae5 9f3d
000002f0: a191 bbbe ef32 ab3f 739a 89be a96f 83be
00000300: eddf 003b 91f2 eabd ee99 f23d 4bd8 8f3d
00000310: 2329 783d ced5 a8bd e773 bcbd 83b8 1cbe
00000320: 7fbe 36bd 11b9 3fbe 8c67 04bb 6663 1e3e
00000330: 4428 143e fbc1 863d e62e 12bd aed3 ca3d
00000340: b9c1 463e cb31 90bd c359 2dbe 738c d2bc
00000350: 8026 30be 095c 523e 4cd2 cb3d 8c14 a2bd
00000360: 7a7d 08bd 1c0a a3ba b98d 51be d861 2d3d
00000370: 29c5 db3d dab5 483e 583a f53d 7c5e ff3d
00000380: 013d 1b3e d921 073d 3032 0e3e 6c16 113c
00000390: 4cfc 78bd de32 f63d 4983 273b e3a8 4bbd
000003a0: 1112 d43d 0f60 a13c 45b5 efbd 22ed fe3d
000003b0: 9e71 a7bb a2bb 0cbe 39fb 43bd 6ef7 63be
000003c0: b543 2c3d 7c89 5fbe 4d38 47bd c6ff b8bd
000003d0: 7835 4a3d c573 36bc e428 053e ba1b 98bc
000003e0: 5456 9bbd d1e0 c93c aab8 133e b76e 643e
000003f0: 82fc 21be e185 27be fd46 283e 3ea3 80be
-1.2592543 0.031496685 -1.3295515 -0.5103856 -0.30294842 0.4505003 0.2462357 -0.103663236
0.6540347 0.22545359 -1.2700926 0.0006863165 0.37141922 1.4106895 -1.317928 0.1381885
-0.088735394 1.6082401 1.1859446 0.43065378 0.98349684 1.0346016 0.9270249 0.7592501
0.0307602 1.1801009 -0.96460986 -0.8362924 -0.20876889 1.0036776 -0.601116 -0.97975135
0.5378376 -0.17538942 0.18317008 0.61671335 -2.344646 0.085015096 0.18866576 -0.3456078
0.23229505 0.5603702 0.61945057 -1.4423159 -0.15319066 -0.1306143 -1.1004641 -0.8420915
-0.17263265 -0.6582574 0.005797349 1.2879813 1.5248594 -0.18135087 -0.3146115 -0.98890954
-0.35407686 2.5290244 0.3027996 -0.2886782 0.11157478 -0.12808247 0.8527737 1.1919583
-0.039728608 0.01246717 -0.16007301 0.08040372 0.023309512 0.17226028 -0.2002699 -0.15559167
-0.18352742 -0.12847124 0.0723723 0.21239413 0.03343053 0.009006641 -0.21584584 -0.05302008
0.06386631 -0.08002324 0.019317172 -0.08421743 -0.20208958 0.18131953 0.1501605 -0.0798711
0.013787003 0.0010353291 -0.07519497 0.023284635 0.1400749 0.20910396 -0.05598631 0.11871762
0.1650179 -0.025256367 -0.034162264 -0.10454772 -0.09335741 0.066606924 0.008551359 -0.1955307
0.13585734 -0.023391265 -0.10602126 0.07849781 0.062849425 -0.12880136 -0.04460701 -0.118943095
0.14005727 -0.032090332 -0.20253257 -0.085443415 0.002523613 -0.11732407 0.041385397 -0.05341166
-0.2016515 0.102320306 0.0043700025 0.19416109 -0.12283838 0.056945942 0.02560803 -0.20255974
-1.633129 1.2404076 0.7960916 1.0613024 0.39661348 -0.81528836 0.2641626 0.6215553
-0.64717 0.5534074 -0.33124885 -0.18609914 2.015651 0.10988904 -0.84555197 -0.60575974
-0.9483849 -0.09117582 -0.027958864 0.6643516 -0.69444114 -0.2708133 1.0221679 -1.760223
-0.03318039 -0.30455697 -1.0531219 -1.2475551 0.19363779 0.7375943 0.5230584 0.8224167
-0.39601043 1.2115153 2.2824268 -0.5500897 -0.5857248 1.3033662 -1.0140079 -0.30745175
1.1223512 0.49310887 -1.6309972 0.23360705 1.1545732 0.4616354 1.0453632 -1.831081
-0.17217407 0.15881217 0.51732844 0.49983054 -1.1713758 1.585214 -0.784409 -1.5300169
-0.78409964 -0.68352634 0.03307809 0.07807453 -0.36634544 1.3374919 -0.26875648 -0.25671127
0.001966472 -0.11472047 0.11845766 0.070236765 0.060586106 -0.08243905 -0.09201794 -0.1530476
-0.044615265 -0.18722941 -0.002020332 0.15467605 0.14468485 0.065799676 -0.035689257 0.09903656
0.19409837 -0.07040747 -0.16928773 -0.025701737 -0.17202187 0.20542921 0.0995222 -0.07914075
-0.03332279 -0.0012438926 -0.20464219 0.04232964 0.10730965 0.19600621 0.11974019 0.12469193
0.1515999 0.032991264 0.13886333 0.008855443 -0.060787484 0.12021421 0.002556043 -0.04972161
0.103550084 0.019699125 -0.11704496 0.12447573 -0.00510998 -0.13743451 -0.047847006 -0.22262356
0.042056758 -0.2182979 -0.048637677 -0.0903316 0.049367398 -0.011136 0.1300388 -0.018567909
-0.07584825 0.024643334 0.14425912 0.2230786 -0.1581898 -0.16359664 0.1643333 -0.25124544

rnn.bias_ih_l1 f4 [256]
00000000: 7573 613e 21df a63d b743 be3e 8f33 393e
00000010: d05b 4e3e bc87 e5bb 687e c63e d473 403e
00000020: 5d35 653e 7ebb 28be 398d e53d a2e1 103e
00000030: 7943 8c3e 3966 963e f991 7a3e 4a16 9d3d
00000040: 90ec 073e acac 8a3c de16 943e 00b8 54be
00000050: 20d9 cb3d 6f3f 103e c421 a93d 510c 4e3e
00000060: 5c06 333e b64b 7b3d 636a 4d3d 9c07 e03c
00000070: b8aa 933d d7b0 1a3f b34e 3bbe 3ed2 293e
00000080: fc1c 14bd 5a07 2a3e a311 d03e 3837 9cbd
00000090: f307 183f f402 933e 6bf9 513e 4b69 cd3c
000000a0: d253 1bbe 095b 8f3c c302 943e 966b 0a3c
000000b0: 96e4 6e3e cc5f 393e fd90 da3d 95a0 7cbd
000000c0: f850 fc3d 906d 33bc 1e6c d3bc 4c49 bdbe
000000d0: 3c45 9a3e ebb4 913d bfe2 d83e 24cb 093f
000000e0: 94b9 09be bb99 5a3e c71e 17be 6973 083e
000000f0: 9bcd f43d e6d2 003f e686 d43e e9cf c93e
00000100: 6ad1 60be b17d 873d a9a2 afbd 06d0 ec3d
00000110: bfcb 853e bed0 4e3d d84b 61be af82 5b3e
00000120: f50e 63be 19ff 603e d89f e03d 2033 643e
00000130: 8913 e0bd 3efe 6ebe 3405 3c3e 3276 ea3d
00000140: 4689 0c3e adcf 0a3e 6df2 33be 90bf e83d
00000150: b700 a33e 5772 e73d d644 38bd 44e6 273e
00000160: 5102 303e 155f c03d f7b6 0c3e 0de6 2e3e
00000170: 17b8 cc3d 7eec 913e cba0 b43e 8aa7 05bd
00000180: 286c 433e 2afd 313e 82e4 1dbd 8916 8fbd
00000190: 5708 fdbc 54a3 0e3f d001 723e 98e3 1d3d
000001a0: 0625 cabd 3346 0b3e d22b cb3d c1a5 2a3e
000001b0: 955e cb3d aece 3f3e 5693 683d aeab 533e
000001c0: c284 10bd 5d1d 223d 96c4 c13d 58a7 04bf
000001d0: 2c4b 91bd 4102 ab3d 39a7 2fbe 2c5d 3bbd
000001e0: 0b63 c1bd f5d5 3f3e bf1e f33d 4525 b33d
000001f0: 1b1e 833e 55d5 80bd 25c7 a2be 2ec7 403d
00000200: 444b 4d3d c0de 183d 8d37 983e 4cbf 943d
00000210: 0c63 353e c9b9 383c 4394 3abe 2814 24bd
00000220: 73c6 60be 0943 f1bd 2526 393e c5d6 3b3e
00000230: 468d 013f b10e bbbe ceb1 7cbe 13cc 133e
00000240: c7e9 0f3e cd29 99bd 2139 18bf 42cd c13c
00000250: 61f4 5a3b f54f 1e3e 0329 1f3e e008 65be
00000260: 09a4 04bf ea85 0f3e e3b2 f5bc dfd0 fa3c
00000270: 52e0 263e 507b 1b3f c5ff 5ebe 1802 483f
00000280: 7648 09bd 8cbc 21b9 c85a 133f 5c1c dc3d
00000290: ba5c c4be 1e2f e63e 9e47 1f3b e33e 14be
000002a0: 51a2 793d 48ea c63d ec0d 36be 1e22 653d
000002b0: 8ad3 3d3e 3c13 1fbe 93ad 94be e2c7 08be
000002c0: bef9 663d 84b6 86bd e4b7 9fbe 4500 d7be
000002d0: df35 283e eee8 f1bd 0157 193f f927 08bf
000002e0: 7dd5 c9be 0b76 373e b4ce 1a3f 3186 563e
000002f0: ebcb 27bf 42fd 6ebe dc6a f23e 4bf4 04bf
00000300: 78fa 65be a123 d9be 308d 9b3e 2ea0 ebbe
00000310: 454f 18be cfc8 f4bd f91a fe3d 56ac 0dbf
00000320: 5e6b 053f 7043 bb3e c4a3 2fbe 54e9 58bd
00000330: 4038 6a3e f0ba 2f3e 0593 9d3d 6368 9abd
00000340: 37e8 d3bd b318 0cbe 92cc 683e 4cbf 8cbe
00000350: 6417 e53e 9435 ccbe 698d c63d 9c3f 46be
00000360: 8676 0abf 90f5 e2be 77e9 19bf 9d0f dbbd
00000370: f5c4 0abf 0f19 823e a566 77be 26d4 39be
00000380: ad58 d7bd a4e4 9cbe 1131 243e 5737 11bf
00000390: 06af 003c f799 0d3c 92eb 57be 573f 363c
000003a0: c9d9 e1bd 4be8 863e 0646 c4bd d964 85be
000003b0: 6fa3 173e da56 2dbf 6f41 9ebd e224 9dbe
000003c0: 977b 253f 62e4 563e 6f18 dc3d 3c60 93be
000003d0: ca15 8c3e 75f6 64be 1ad2 8e3e 0400 ff3e
000003e0: 84f6 75be 5236 4abe 4628 4ebe 41a1 3ebe
000003f0: 3886 df3e a494 113f 5dac 17be 6939 7c3d
0.220167 0.08148027 0.37161037 0.18086074 0.20152211 -0.007004706 0.38768315 0.18794185
0.22383638 -0.16477773 0.11208577 0.14148572 0.27395228 0.29374865 0.24469747 0.07670267
0.13273835 0.01692804 0.28923696 -0.20773315 0.09953523 0.14086698 0.082583934 0.20121886
0.17482895 0.0613515 0.050150286 0.027347378 0.072102964 0.60426086 -0.1829174 0.16584107
-0.036160454 0.16604367 0.40638456 -0.0762772 0.5938713 0.2871319 0.20505302 0.025074622
-0.15168694 0.017499464 0.28908357 0.008448502 0.23329386 0.1810295 0.106721856 -0.06167658
0.12320131 -0.010951415 -0.02580839 -0.36969984 0.30130947 0.071145855 0.42360494 0.53825593
-0.13449699 0.21347706 -0.14757834 0.13325275 0.11953279 0.50321805 0.4150917 0.39416435
-0.21954885 0.066157706 -0.08575947 0.11563115 0.26132008 0.05049204 -0.22001588 0.2143657
-0.22173674 0.21972312 0.10967988 0.22285128 -0.10941226 -0.23339173 0.1836136 0.11448325
0.1372424 0.13555785 -0.17572947 0.11364663 0.31836483 0.113011055 -0.044987522 0.16396433
0.17188384 0.093931355 0.1374167 0.17079945 0.0999605 0.28500742 0.35278925 -0.03263048
0.19084227 0.1738173 -0.038548 -0.0698672 -0.030887766 0.5571797 0.23633504 0.03854713
-0.09870343 0.13600998 0.099204674 0.16664793 0.099301495 0.18731186 0.056781135 0.2067096
-0.035282858 0.039578784 0.09461324 -0.51817846 -0.07094416 0.08350039 -0.17153634 -0.045743152
-0.09442719 0.18733962 0.11871099 0.08747343 0.25608906 -0.0629069 -0.3179256 0.047064953
0.050120607 0.037321806 0.29729882 0.072630495 0.17713565 0.011274763 -0.1822062 -0.040058285
-0.21950702 -0.11780364 0.18080957 0.18343647 0.5060619 -0.36534646 -0.24677202 0.14433317
0.14054023 -0.07478676 -0.5946217 0.023657445 0.0033409821 0.15460189 0.15542988 -0.22366667
-0.518128 0.14015928 -0.029992526 0.030617176 0.16296509 0.60735035 -0.21777256 0.78128195
-0.03351637 -0.00015424396 0.57560396 0.107475966 -0.38351995 0.44957823 0.0024304162 -0.14477114
0.060945813 0.09712654 -0.17778748 0.05594074 0.18537727 -0.15534681 -0.29038677 -0.13357499
0.056390516 -0.06577781 -0.31194985 -0.41992393 0.164268 -0.11812006 0.5989838 -0.53185993
-0.3942069 0.17916124 0.60471654 0.20949627 -0.6554553 -0.23338798 0.47347152 -0.5193526
-0.22458827 -0.42409995 0.30381155 -0.46020645 -0.14873989 -0.11952364 0.124074884 -0.5534109
0.52116954 0.36574888 -0.17152315 -0.052956894 0.2287302 0.17161155 0.076940574 -0.075394414
-0.10347026 -0.13681297 0.22734287 -0.27489698 0.44744408 -0.39884627 0.096949406 -0.19360203
-0.540871 -0.44327974 -0.60121864 -0.10696337 -0.5420678 0.25409743 -0.2416025 -0.18147334
-0.105149604 -0.3064319 0.16034342 -0.56725067 0.007854229 0.008642665 -0.21085957 0.0111235
-0.11027867 0.263491 -0.095836684 -0.26053503 0.14808439 -0.6771065 -0.07727324 -0.30692202
0.6464171 0.20985559 0.10746848 -0.28784359 0.27360374 -0.22359641 0.2789467 0.498047
-0.2401982 -0.19747284 -0.2013255 -0.18616201 0.43657088 0.5686743 -0.14811845 0.061578188
