preTrained/CharRNN_reviews_64_3_0.2.pth (torch, 448408 bytes, 15 tensors)

embedding.weight f4 [71, 71]
00000000: df19 823f 5c66 583e 6af4 44bf c39b 503f
00000010: 9e5a 0dc0 5bb6 53bf f76d f53f b871 663e
00000020: 921a 8e3f 9c2a 5140 9f9a 6140 4a00 ee3d
00000030: 501f 9abf 1c73 33bf dfe2 de3f 9c19 4a40
00000040: 0556 e53e 4b9b bdbb b00d 8b3f 2b0d 93be
00000050: 2ee4 36c0 608c 353d 2abb b2bb aeca 0fc0
00000060: be58 e4bd 65df 4abe 1198 18c0 e37d a3be
00000070: 6213 7b40 95fb 0dc0 8ebb 82bf f942 b9bf
00000080: 5f06 ab3f 063f 0a3f 04a6 14c0 ba2b 503f
00000090: 22e5 05c0 a182 b0bf fdc4 f93d 9392 6c40
000000a0: 3bdb 0e3f 0ee4 a4bf cd66 b23f 97ca 0ec0
000000b0: fdef e73f 2bd6 dabf b1ac 033f d3ae 91bf
000000c0: d3c3 0cbf 3dee fcbf 2162 5f40 443d ff3e
000000d0: f9ca 2ac0 0ee2 74be 4a27 4540 c920 393f
000000e0: 888b 66c0 2859 1fc0 76a1 98bf 3553 8c3e
000000f0: c4eb 2d3e 0374 9c3f 6457 723e f29f 93bd
00000100: 7115 f0bf 7feb 0340 ebc0 903f 3f15 73bf
00000110: dd79 7e3f c186 643e 6cf4 8040 8c24 3bbe
00000120: 91f1 0d3e c866 a7bf 42ef 553f 4734 0fbf
00000130: 512c f7be d859 a03f a6b9 05bf f2df 283f
00000140: bd82 e13f 86da 393f 9747 ecbf bb2a 23bf
00000150: aed9 1740 2088 1d3f e4d6 b73f 60ce 24c0
00000160: ccad 79be 0c7f 3fc0 3f9c 59c0 fe11 08be
00000170: eea3 a4bf 59f8 d33e 63c7 34bf 166e 2f3f
00000180: 687a 63c0 ad66 d43f b489 39be c3ca 8ebf
00000190: a845 6dbf 8ec2 553f 4476 e0bf 008b aa3f
000001a0: d7c9 2b3f 460b 4cbe 4ad7 01bf 17a5 7f3f
000001b0: 7657 c93e bd6f 67bd 2885 5c3f 87b3 5440
000001c0: 99e1 babf fed3 8d3e 6575 18bf 67c8 bcbf
000001d0: 8b17 5dbe 3418 9cbf 1c0c 0ac0 bef5 ae3e
000001e0: b6a4 9ebc f794 1c40 cce2 0740 c05b 123f
000001f0: 50a3 c33f 3160 b33f 949c 5f3f a199 0dc0
00000200: 65bc 53bf afd9 b83f 14a9 0740 84b9 44bf
00000210: 037c 833f fb6b 7a3c 2e6a 593f 4cbc 093f
00000220: aa4d aabe 7d52 8840 4a7f 313f b659 0440
00000230: cb4e 90be ae7a d83d 593a 203f 5503 4540
00000240: 1449 1840 93da fcbf 3921 ddbf 7712 65bf
00000250: 5041 15bf b38a 07be d623 3340 4760 cb3f
00000260: 74f9 cc3f dc8d 1540 dd58 423d eeff 61bf
00000270: 8289 0940 e084 6b3f f085 a5be cda7 843f
00000280: 0eb3 113f 4d4f adbe 8b95 00c0 34ba 90bf
00000290: 1291 e3bf 7597 d4bf ba55 2b3f b6c9 f23f
000002a0: 5f3d 03c0 a246 6740 f529 6840 4c92 55bf
000002b0: dac0 ffbe 09b1 1cbf 1491 ccbf 6eea e73f
000002c0: 9255 f73f 4f36 8d3e 971b f43f 9ea9 dc3f
000002d0: ea02 0b40 90a8 4240 1f86 28c0 ddf7 a0be
000002e0: 8f3b 4540 d0be 2d3e bc35 6b3f e776 05c0
000002f0: eb6b 2cbf f8c4 c73e 2b40 2e40 ad9f 27c0
00000300: 1820 1cbf ca75 09c0 e7e7 87bf abde 703f
00000310: ddd2 17bf 15d3 fcbf 3623 efbf f9bc babf
00000320: edf9 1f3f 27dd fdbf 46bd 10bf 4352 473e
00000330: fb02 bebf f724 b03e 8b85 2740 17ca 213f
00000340: 8163 9fbf 3b8e bebd dc24 86bf e3a4 f1be
00000350: c870 ba3f 3da5 4940 ee15 0bc0 61c5 a23f
00000360: 7368 683f b4d9 2cc0 c83c 653f 613d a03f
00000370: cf3d 5ebe 3491 9e3f 9a60 4c40 a057 b6bf
00000380: a6a1 cbbf b63a 913f 7236 063d a33b dfbf
00000390: 676f dc3f eaea 40c0 42a1 563e a342 a53d
000003a0: 1c28 f83f 53a0 263f a6cd 0dbf 8377 4a3f
000003b0: d780 8bbf 0e59 e63f 0c51 36bf a58f fcbf
000003c0: e805 bc3f 82ed 0a3f 7148 febe 9946 63c0
000003d0: 761d a5bf 9afd a43f d2f9 1d40 5e95 1f40
000003e0: eaed b03f 396b d03e d268 4d3e f57c a7bf
000003f0: bf92 853e bb90 583e d339 d5bc 73ff 993f
1.0164145 0.21132797 -0.76935446 0.81487674 -2.2086558 -0.8270013 1.9174184 0.22504318
1.1101859 3.2682257 3.5250623 0.11621149 -1.2040806 -0.7009752 1.7412986 3.157813
0.4479219 -0.0057863346 1.0863552 -0.28720984 -2.857677 0.044323325 -0.0054544406 -2.2467456
-0.11149739 -0.19811781 -2.3842814 -0.3193198 3.923058 -2.2184803 -1.0213487 -1.4473563
1.3361319 0.54002416 -2.3226328 0.8131672 -2.0921102 -1.3789865 0.12195776 3.6964462
0.5580327 -1.2882097 1.3937622 -2.231115 1.8120114 -1.7096609 0.5143538 -1.1381477
-0.54986304 -1.9760205 3.4903643 0.4985143 -2.6686385 -0.23914358 3.080523 0.7231565
-3.6022663 -2.4898167 -1.1924274 0.27407232 0.16984469 1.2222904 0.2366615 -0.072082415
-1.8756543 2.0612485 1.1308874 -0.94954294 0.994047 0.2231703 4.0298367 -0.1827566
0.13861682 -1.3078241 0.83568203 -0.55939144 -0.48275998 1.2527418 -0.522364 0.65966713
1.7618023 0.72599065 -1.8459347 -0.63737077 2.372661 0.61535835 1.4362454 -2.5750961
-0.24382704 -2.9921293 -3.4001615 -0.13288113 -1.2862527 0.41400412 -0.7061674 0.6852735
-3.554346 1.6593834 -0.18118936 -1.1155628 -0.9268441 0.8349999 -1.7536092 1.332367
0.6710486 -0.19926175 -0.5071913 0.9986128 0.3932454 -0.056503046 0.8614068 3.3234575
-1.4600097 0.277008 -0.5955413 -1.4748658 -0.21591012 -1.2194886 -2.156989 0.3417186
-0.01936565 2.446592 2.1232176 0.5717125 1.5284214 1.401373 0.87348294 -2.2125018
-0.8270934 1.4441432 2.1196947 -0.76845574 1.027222 0.015284534 0.8492764 0.53802943
-0.33262378 4.2600694 0.6933485 2.0679755 -0.28185114 0.10570274 0.6258903 3.0783284
2.3794603 -1.9754204 -1.7275764 -0.894813 -0.58302784 -0.13236503 2.7990623 1.5888757
1.6013627 2.3367834 0.047448028 -0.8828114 2.1490178 0.91999626 -0.3232875 1.0363709
0.5691384 -0.33849564 -2.0091274 -1.1306825 -1.7778647 -1.6608721 0.66927683 1.8967807
-2.0506208 3.613686 3.6275609 -0.83426356 -0.49951822 -0.61207634 -1.5981774 1.8118417
1.9322989 0.27580497 1.907092 1.7239263 2.1720529 3.0415382 -2.633186 -0.31439105
3.0817602 0.1696732 0.9187887 -2.0853822 -0.6735217 0.39017463 2.7226665 -2.6191208
-0.6098647 -2.1478143 -1.0617646 0.94089764 -0.59306127 -1.9751917 -1.868262 -1.458892
0.6249073 -1.9833115 -0.5653881 0.19464974 -1.484466 0.34403202 2.6175258 0.6319899
-1.2452241 -0.09304472 -1.0479999 -0.4719611 1.4565668 3.1507103 -2.1732135 1.2716485
0.90784377 -2.7007875 0.8954587 1.2518731 -0.21703266 1.2388062 3.193396 -1.4245491
-1.5908706 1.1346042 0.032766767 -1.7440075 1.7221497 -3.014338 0.20959952 0.080693506
1.938724 0.65088385 -0.5539192 0.7908861 -1.0898694 1.7995927 -0.7121742 -1.9731337
1.4689302 0.5426866 -0.49664643 -3.551184 -1.2899616 1.2889893 2.4683728 2.4934916
1.3822606 0.40706804 0.20059517 -1.3085009 0.2608852 0.2114896 -0.02602855 1.2031082

rnn.weight_ih_l0 f4 [256, 71]
00000000: d6d8 bcbd b34d 9cbd e183 3fbe ed84 e73e
00000010: cab8 fc3e 7a3e b73d 429a 9b3e 7dd3 463e
00000020: 828a ca3e 74c2 ef3e db88 c63e 3514 b0bf
00000030: 8b4a 3dbc dffd 2abe 40ed 16bf 3fbd dd3d
00000040: caf6 f53d 0356 c2be 0a19 d0be d2b6 bd3e
00000050: cd94 5bbd 92de 9fbe a243 86be 3f44 0bbd
00000060: cb42 04bf d2ea d2bd c708 573f c2a3 20bf
00000070: cb4f 2abf 1d3b 42bf ad66 b2be b0ab 0bbd
00000080: fc4b 21bd 823c 973e 6cc8 493e 6219 ba3e
00000090: daec b23e db41 cb3f 20a5 59bf fb64 87bd
000000a0: fde8 dcbe 0538 10bf eb73 10bf 3f23 26bf
000000b0: 4edb 63bf 3988 7ebe cb7f 913e b626 e8be
000000c0: 20ca 82bd 31d1 1ebe 7d8c a03e 7e6a fdbe
000000d0: 9531 aa3f 434b febd dc8a 103f a206 3fbe
000000e0: fb1e 8e3f a875 d63d 28d5 1ebe ee6c a23f
000000f0: cfbe d4be fa21 713f e67f e9be 94f2 a23d
00000100: 1cfc 0abf 9b67 18be efec e03e 888a 523e
00000110: a5d4 193e 9bd1 85be 9379 aebf 45ce 39bf
00000120: 1e66 5a3f 4c7d 853d 0062 523e 3bc4 373f
00000130: c68f c9ba 16ad 883f bbc3 e7bd 1946 d0bb
00000140: b445 883e e6a5 173e 58b7 0abf 0e7e 87bf
00000150: 1632 2ebd cff6 a93f bfe6 6cbe afd6 0c3f
00000160: 333c fe3e d023 293f 6e62 2d3f 8164 d33e
00000170: 8cdb 12bf 576d 76bf 20df 81be 793d 12be
00000180: 07b2 58be 413d 70be 4e45 5c3e 6e35 93bf
00000190: ea09 5bbf c80b 173f b7f9 40bf 6502 cbbd
000001a0: 478b 7fbf 09c6 013f 00b7 373f 3c85 593f
000001b0: ca59 823f 313b e1bc a325 2c3f afd6 e93e
000001c0: 61b0 c43e 24b3 be3d e547 8d3d cdfe 8cbf
000001d0: d8dc 60bf 8251 b5be 7254 e23d d152 c1bd
000001e0: 3162 30bf d878 753c 426f 85bd 4b86 6f3f
000001f0: dc25 063f fbf6 8d3e 66fe 72be 4e7e b1be
00000200: 7522 883f bdb7 7e3f 523a e63b 626a a03d
00000210: 07ed a8be 4579 193e b58f 37bf 67ef 5fbf
00000220: 1a11 30be 18ba a83f de0b 88bd 6606 e93e
00000230: db96 13bd e203 d0bc 4cf9 413f cc8d 233e
00000240: 562f 49be d8cc 863e c575 6a3e 7046 473d
00000250: 40fb 4e3d e875 433f 8054 f3bd 59bc aebd
00000260: 85f8 843e 4b49 1cbe d8e7 733f ee63 8a3f
00000270: 99df 073f e09a 8abe b1a1 cc3d 53d6 953e
00000280: cdad 42bf 8af1 27bf fa17 fdbe c297 ee3e
00000290: 0187 dfbe 7559 7fbe d133 65be c206 583d
000002a0: e6ad 183d d47e f7bd 8124 5a3e f5ec 4fbe
000002b0: d7b2 d3bb 76ee 37be f54c cfbd 387b eb3e
000002c0: 5d93 59bf 6fc1 1abf 6b52 98bd dd70 093f
000002d0: 16d1 ca3e 30ed 4abf addf 063f 6bf5 76bd
000002e0: c6d3 d83e d593 43be 1fa7 2cbe 090d d63e
000002f0: 967f 1abf f48b d8be 832a a33e a269 3bbf
00000300: 5a45 3c3e 5252 7e3e 5a33 0cbe 990b 733e
00000310: 54de ae3e d98e d7bf 964f 773e 877d cebb
00000320: 44fd 42bf 26d0 393e ea61 14bd d99e f23e
00000330: c338 8fbe a0bd ba3e d72d a8be 3c60 b23e
00000340: 4a9c 7fbe 582e 143e 31c4 b8bd 85d5 293d
00000350: 50ed 85be 3f86 b2bd b952 0c3d 16e6 cd3c
00000360: 76e2 9d3d 019b bc3c 88fe 0bbd f6cc 27bd
00000370: 7457 3c3c af39 99bd cc6d 8c3d 7492 1a3e
00000380: 18cd 96be 1e0d 0f3e 2f7d 353e 2833 a5bc
00000390: 637a 793d 10f9 12be 48cf 243c 5e85 2bbe
000003a0: 393a 213d e2c4 58be e90f 23be 773c 963d
000003b0: 6c02 5fbe 40bd a6bd f0e4 edbd 5bda 4bbc
000003c0: 123d 5fbc cc9d 383d 8911 2f3d f127 59be
000003d0: 3475 1dbe a7a6 23bc d882 4abd 07ef 52bd
000003e0: 2a17 473d 4c9e 3c3e ec01 843e efaf 383e
000003f0: fec4 413d 6225 083e 059c 54be 76b2 c63d
-0.09221046 -0.076320074 -0.18702652 0.45218602 0.49359733 0.08947463 0.30391127 0.19416614
0.39558798 0.46828043 0.38776287 -1.3756167 -0.011553417 -0.16698407 -0.58955765 0.108271115
0.12009962 -0.37956247 -0.40644103 0.37053543 -0.053608704 -0.31224495 -0.26223475 -0.03400063
-0.5166442 -0.10298695 0.8399777 -0.62749875 -0.66528004 -0.7587145 -0.3484396 -0.03409928
-0.039379105 0.2953835 0.19705361 0.3634749 0.34946328 1.5879472 -0.85017586 -0.06611057
-0.43146506 -0.5633548 -0.56426877 -0.6489753 -0.8900651 -0.24856652 0.2841781 -0.45342034
-0.063862085 -0.15509488 0.31357184 -0.4949531 1.3296381 -0.12416699 0.5646188 -0.18654874
1.1103204 0.1047166 -0.15511 1.2689493 -0.41551825 0.9419247 -0.4560539 0.07956424
-0.5429094 -0.14883272 0.43930766 0.20560658 0.15022524 -0.2613648 -1.3630852 -0.7258037
0.8531207 0.06518039 0.20545197 0.717838 -0.0015377931 1.0677822 -0.113166295 -0.0063560125
0.2661568 0.14809379 -0.5418601 -1.0585344 -0.042528234 1.3278445 -0.23134898 0.5501508
0.49655303 0.6607027 0.67728317 0.41287616 -0.5736625 -0.9626059 -0.25365543 -0.14281262
-0.21161662 -0.23460867 0.21510813 -1.150068 -0.85562 0.5900235 -0.75381035 -0.09912566
-0.99821895 0.506928 0.7176361 0.84968925 1.0183651 -0.027494045 0.6724493 0.45671603
0.38415816 0.09311512 0.068984784 -1.1015259 -0.8783698 -0.35413748 0.11051263 -0.09439624
-0.6889983 0.014982425 -0.06515361 0.9356429 0.5240152 0.27727494 -0.23729858 -0.34666675
1.0635515 0.9949911 0.0070259953 0.07832791 -0.32993338 0.14987667 -0.71703655 -0.87474674
-0.17194024 1.3181791 -0.066428885 0.45512694 -0.03603254 -0.025392476 0.7577102 0.1597206
-0.19646963 0.26328158 0.22896488 0.04865116 0.05053258 0.76351786 -0.118813515 -0.08532018
0.25970855 -0.15262334 0.9527564 1.0811746 0.5307556 -0.27071285 0.09991778 0.2926508
-0.7604645 -0.65602934 -0.49432355 0.46600157 -0.43657687 -0.24936469 -0.22383048 0.05274082
0.037275217 -0.120847374 0.21302988 -0.20305236 -0.0064605284 -0.1796206 -0.101221 0.45992446
-0.84990484 -0.60451406 -0.07437595 0.5368784 0.39612645 -0.7926817 0.5268505 -0.060292643
0.4234907 -0.19099362 -0.16860627 0.4180682 -0.6035093 -0.42294276 0.3186837 -0.7320806
0.1838583 0.2483609 -0.13691464 0.23734893 0.34153998 -1.6840469 0.24151453 -0.006301585
-0.761677 0.18145809 -0.03622619 0.47386816 -0.27972993 0.36472797 -0.32847473 0.34839046
-0.24961963 0.14470804 -0.090217955 0.041463394 -0.26157618 -0.08717012 0.034258578 0.025134128
0.077092096 0.02302313 -0.034178287 -0.04096695 0.01149546 -0.074817054 0.068568796 0.1509493
-0.2945335 0.13969848 0.17723535 -0.020165995 0.060907733 -0.14352822 0.010059185 -0.16750094
0.039362166 -0.21168855 -0.15924038 0.073357515 -0.21778268 -0.08141565 -0.11615932 -0.012442197
-0.0136254 0.04507236 0.042741332 -0.21206643 -0.1537674 -0.0099884635 -0.04944119 -0.051497485
0.048606075 0.1841976 0.25782716 0.18035863 0.047307007 0.1329551 -0.20762642 0.097020075

rnn.weight_hh_l0 f4 [256, 64]
00000000: e7fe b73f b94b 933e 8d57 3ebd d462 df3e
00000010: 2e9c d8be 7ab5 07c0 fb97 493e c355 55bf
00000020: ff52 90be 38ba b03d 2023 ca3f f0f0 1e3f
00000030: fe2b 1c3f 70c7 b13e 63c2 04c0 282d 01bf
00000040: 4c92 91be 2d9b 183f c159 ce3f 1327 743c
00000050: 660e 4c3e 365c 18bf e688 a0bd 842e ff3e
00000060: d3e1 8c3f 2371 8ebe 8a14 ec3e 3017 44bf
00000070: 7208 3abc 1590 163e ac8b f43e d33f 6a3f
00000080: a6ed bf3d 1964 0040 f6da 03bd 8e45 843f
00000090: 7033 12c0 e616 72bd 0c68 fb3f 68b3 193f
000000a0: 6399 14bf 7428 0e40 dda5 ff3f 0aa4 c93e
000000b0: fafa 1e3f 10dc 04bf 32fb 49bf 14c7 42be
000000c0: 2701 103d 818d 063e 8c60 c1bf d792 26be
000000d0: 05dc d4bf 631e d9bf dc7d d3be d485 a13f
000000e0: 0b26 8740 eee8 a73e d12c 97bf 800b c4be
000000f0: 5111 27bf e779 80bf 7d7d 913f 7f97 adbf
00000100: 25cd 8abc a90b 873e 4d15 82bf 762f 47bf
00000110: 7bb1 5c3f dd6a 08bf bdb0 33be 8565 e13e
00000120: 6e0f 963f c8f8 233e eab6 843b 9138 e23e
00000130: cb24 28bf 0691 1b3f 0a70 a4bd 1eba ddbe
00000140: b7f6 8c3f b394 12bf fca7 45be 6133 3f3d
00000150: a00c 0a3e a164 70bf 5451 183f 26a2 c33f
00000160: 9581 6e3e 0ecd 85bd 1693 be3f 0a8b 02bf
00000170: 83ae a4bd 9576 56bf a83f 3abd f485 1d3f
00000180: 810d cc3e fc77 7f3f b393 0dbf a9dc 2bbf
00000190: da54 d7bf 3002 c8bf b543 a53e b007 7dbe
000001a0: 260a c33f 1d6b 253f fba0 7cbf fde3 1a3f
000001b0: 3dbf c2bf 86e9 d0be f5f4 a3bf b841 debf
000001c0: fd2e efbe 6a78 cbbe 0038 d03e 8f00 32bf
000001d0: 610e 57bf 2b77 d1bf 9eaf e03f b274 d03f
000001e0: 95dd 333f e4b9 803f 22ca 36be 2dbf de3f
000001f0: 9f28 c53f 83d1 57be 0807 fa3e 7a3b b3be
00000200: 44df 1dbf b920 8c3f 0665 84bf 7d7c e63f
00000210: 02f4 673f 6777 c33f e760 0cbf c2fe e8bc
00000220: 4791 10bf a840 b73e 195e 14bf 9bad 443f
00000230: 20a2 7abd 9f51 1f40 5a88 ffbe 40d8 953e
00000240: a2c1 25bd 0ece 003e 311d 13bf aa17 7e3f
00000250: 53f0 1e40 0e6e f7be 998a 3a3f 97d4 e63e
00000260: f382 323f d7d8 873f 3a7c 84be e516 98bf
00000270: e8d6 5cbf e64c 71bf 9ded 0e3e 69f1 013e
00000280: 090f 5fbf 38e1 9abf 4b70 ac3d c656 383f
00000290: c1b4 aebf 69b7 47be 4ba9 af3f e502 e83e
000002a0: dc49 91bf ca76 223f 3b8d 1b3f 054c 1c3e
000002b0: dc05 de3f b50b fcbe e7cb 3dbf cfba 3a3e
000002c0: 6adb 9cbc 4355 efbe 3157 c83f 35a2 3abf
000002d0: 035d 9d3f e6ca 133f 4b24 04bf 61b6 bc3f
000002e0: d3d0 5c3e bbd2 05bf fe96 bfbe ffae 283d
000002f0: 2272 81be bedb b33e 9f46 bc3d 79c8 9d3f
00000300: 11a8 b53d 73e7 163e 17de 32bd b21a 523e
00000310: 0111 87be 63f6 1abe 8e13 22be 7f0b a4be
00000320: a494 b9bd ee20 003e 6afb 9b3d 2a0e a43e
00000330: c057 1bbe c98a 673e 549b 2fbd 0a54 3bbe
00000340: 50a4 eabe c6f3 753e cb39 a2be 85d7 40be
00000350: cbda d2bd ffc2 683e 3a78 283e cbbb 6d3e
00000360: 9752 013e c2f7 8bbe 7cc9 983e 03bb c8bd
00000370: a862 df3d 2af7 f9bd 108c b93c bbde 12bd
00000380: 281a 3cbd 35ef 8dbe d2de a7be 9323 593e
00000390: c399 a6bd 8e43 a4be fc84 d93e dc97 b0be
000003a0: a26d c43e 0e68 4e3e b39c 363d e470 9dbe
000003b0: c74c 173e c939 43be c652 9cbe 1c42 87be
000003c0: 917c 843d 950f c7bd 7173 183e b8c7 f53d
000003d0: 8c62 18be eca0 b73d 037a 39be 6fa2 0e3e
000003e0: fab7 5f3e ff1d 3dbd 46fd 7fbe 5a68 9cbd
000003f0: 9720 53be 06d9 c2be fabd 14be 34bb 36be
1.4374665 0.2876871 -0.046470214 0.43630087 -0.42306656 -2.1204515 0.19686882 -0.83333987
-0.2818832 0.086292684 1.5791969 0.6208639 0.61004627 0.3472247 -2.0743644 -0.5045953
-0.28431928 0.5961178 1.6121141 0.014901894 0.19927368 -0.595157 -0.07838611 0.49840176
1.1006416 -0.2782069 0.4610942 -0.7659788 -0.011354553 0.147034 0.4776281 0.9150364
0.093715 2.0061095 -0.03219124 1.0333726 -2.2843895 -0.05910387 1.9641128 0.6003938
-0.5804655 2.221219 1.9972492 0.39382964 0.6210171 -0.5189829 -0.7889892 -0.19021255
0.03515735 0.13139917 -1.5107589 -0.16266952 -1.6629645 -1.6962398 -0.4130696 1.2618966
4.223394 0.327949 -1.1810552 -0.38290024 -0.652608 -1.0037202 1.1366421 -1.3561858
-0.016943524 0.26376083 -1.016275 -0.77806795 0.86208314 -0.5328806 -0.17547889 0.44022766
1.1723459 0.16012871 0.0040501254 0.44183782 -0.6568114 0.60768163 -0.08029182 -0.4330606
1.1012791 -0.57258147 -0.19302362 0.046679858 0.13481379 -0.9390355 0.59499097 1.5283859
0.23291619 -0.06533252 1.4888637 -0.50993407 -0.08041098 -0.8377469 -0.045470864 0.6153252
0.39854053 0.99792457 -0.55303496 -0.67133576 -1.682277 -1.5625668 0.3227822 -0.24709964
1.5237472 0.64616567 -0.98683137 0.6050413 -1.5214611 -0.40803164 -1.280913 -1.7363806
-0.46715537 -0.39740306 0.40667725 -0.695321 -0.84006315 -1.6364492 1.7553594 1.6285613
0.7025998 1.0056729 -0.17850545 1.7402092 1.5403022 -0.21076016 0.4883349 -0.35006315
-0.616688 1.0947486 -1.034333 1.8006741 0.906067 1.5270814 -0.5483536 -0.02844179
-0.56471676 0.35791516 -0.5795608 0.768274 -0.06118977 2.4893568 -0.49908715 0.29266548
-0.040467866 0.12578604 -0.5746642 0.9925486 2.4834182 -0.48326153 0.72867733 0.45084068
0.6973106 1.0613049 -0.25876027 -1.1881987 -0.8626542 -0.9425796 0.1395783 0.12689747
-0.87132317 -1.2099981 0.08419856 0.72007406 -1.3648912 -0.19503559 1.3723539 0.45314708
-1.1350665 0.6346251 0.60762376 0.15263374 1.7345538 -0.49227682 -0.74139255 0.18235324
-0.019147594 -0.46744737 1.5651609 -0.7290376 1.229401 0.57731473 -0.5161788 1.4743158
0.21564035 -0.52274674 -0.37419885 0.041182514 -0.2528239 0.35128587 0.091931574 1.2326804
0.08869947 0.14736728 -0.043668833 0.20517996 -0.2638016 -0.15133052 -0.15827772 -0.3204002
-0.09061554 0.12512562 0.07616313 0.32042056 -0.15170193 0.22611536 -0.04287274 -0.18293777
-0.45828485 0.24018773 -0.31684718 -0.18832214 -0.10295638 0.22730635 0.16452113 0.23216169
0.12629162 -0.27337462 0.2984122 -0.09801295 0.10907489 -0.12205346 0.022649795 -0.035856944
-0.045923382 -0.27721563 -0.32787186 0.21204977 -0.081347965 -0.3208279 0.42484272 -0.3449086
0.38364893 0.20156881 0.044583034 -0.3075019 0.14775382 -0.19065012 -0.305319 -0.26417625
0.06469072 -0.09719769 0.14887787 0.12000984 -0.14881343 0.0896624 -0.1811295 0.13929151
0.21847525 -0.046171185 -0.2499896 -0.07637091 -0.20617901 -0.380562 -0.14525595 -0.1784485

rnn.bias_ih_l0 f4 [256]
00000000: c923 133f b45b a43d cb69 48bb 74fe b33e
00000010: b109 0dbc a841 40be 31c7 743d 0275 ea3d
00000020: 0f9c f43d 8c50 ff3d 1f5d 073e ecbe 503e
00000030: 1987 173f bf05 a33e 4fba 9d3d 161d f03e
00000040: c88f 9c3b 9e4d db3e ec62 583e 5cac 8d3d
00000050: e03c d9be dde9 273e 37f1 f73e d005 dd3d
00000060: f81c f43e 91bd 3b3e b5dc 023e d674 7a3e
00000070: df7d b63e 59e9 e43e b17d bb3e 2aeb ed3e
00000080: 0238 b43d fdf2 1d3e af00 20be d209 f23d
00000090: 95c8 043e 6812 413f 229b 6d3e b266 0e3f
000000a0: 6938 2b3f 9de9 0ebd 795d 973e e2f1 823e
000000b0: 08c2 f73e 0a8c 563d de7a 3f3f 0d11 303e
000000c0: f73b 663c 8e95 fd3d 9121 3e3e 5287 9a3e
000000d0: ac20 7bbc 5032 24be 7e8d 153e 35a6 423e
000000e0: b20f 963e 7ac5 a03e 9a22 173f c875 f73c
000000f0: b74e 3d3d 62a4 673e 3758 913e c5d7 173f
00000100: 3a58 f8bd 2610 0ebe 9b2c 90bd 6570 2d3e
00000110: 54d5 2b3e 54b8 1e3e 8388 0c3f 8846 903e
00000120: 5463 b7bd 9620 3a3e 1b32 da3d b9ce 3f3e
00000130: 3438 eb3a 8101 773d 31b6 943c 3e83 153f
00000140: ddba 083e 00e2 28be a81c a43d 782a 6c3e
00000150: e107 3abd 2182 b73e 1693 d83e d497 413e
00000160: b8ab 823e b051 393e a032 9e3e df44 83bb
00000170: 873a 6b3e 48d9 b83d d754 d63e 9fd5 90be
00000180: 61ab ca3e 0be9 ef3d c48d c23e c2cb 233f
00000190: 4f3f cf3e 22cc c03d 08f0 37be 0c7d 64be
000001a0: 5839 cebc b8e3 41be 6d7a 3e3f 2732 b6be
000001b0: 1711 8f3e 7bc2 683e 8530 f03d f7ec fc3d
000001c0: c955 2abf 9dd5 953e 719a 473e 5447 4b3d
000001d0: 4334 983e 93dc 42be 20b0 ed3e d297 003f
000001e0: 8553 91be 108e 50bd 31f6 52be daf8 b83d
000001f0: f273 913e 67f9 2d3f e03a 143f 9f0f 07bd
00000200: e05a 733e d752 55bd 1dd5 6f3e 091e 84bc
00000210: 6c03 55be dfa2 3ebf a4b8 18bf 16eb d5bd
00000220: 31b0 e2be ff83 ae3d fdf1 6c3d c244 f43d
00000230: e237 abbe 2ad6 8abd e81b 52be a10d 17be
00000240: a281 00bd 6c9e 2dbd 19c3 f8bc e9a2 a0bd
00000250: 7206 a23e 99ca c93e badd 203f 69c0 3e3e
00000260: aff6 1b3f 6d82 88be 3dbc 993e 175d a7be
00000270: 8822 203f d6fc 7b3d a076 f43e a307 d1be
00000280: f5f8 87bf a032 61bd 9633 37bf 2777 ca3e
00000290: 30ee c7bd c2b0 62be 4605 bb3e da57 23be
000002a0: 9a95 7f3d 3057 283e d1d0 bb3e 4238 3bbe
000002b0: 55f9 5e3e 75b4 95bd 66f9 2bbe 1bce 8ebb
000002c0: b7ac ccbe bd45 c0be ef37 ef3e ae5d 1bbc
000002d0: 807e 43be 7443 e93e 1d4e 47bf 59d3 6fbe
000002e0: 0329 d13e a141 b63e 148b 8bbe 9842 c4be
000002f0: c6bf 2abf 5232 1abf 7df5 64be 5913 69be
00000300: 7157 3f3d 7fc1 063f 4b41 733e 203f cfbe
00000310: 8ad3 bdbe 8436 ba3e 14cb 91be d466 dcbe
00000320: b910 713e 53f8 b1be a505 733e 939e 10bf
00000330: 8e15 83bd 01f9 b03e babf 61be 793a b6bb
00000340: df04 a4bd 06be fa3e 11f4 ab3e bb34 0a3f
00000350: 5030 96bb 0726 aa3e 21e1 5fbd 973c c03e
00000360: 2071 8e3a e272 f1bd 0e5a 1cbf cbfc 393e
00000370: 453c a13e db98 12be c129 263e 70c9 923e
00000380: 869b 053c 0be6 27bd 190f 183d e355 8a3e
00000390: bb80 8abe 3537 2a3e e32f 0e3f efce 1b3f
000003a0: 8c4d 5f3e e711 443c 4b44 efbd b20a 033c
000003b0: 768f 423f 5dc2 61be e2a5 1d3e ade9 613e
000003c0: a377 8f3d 7e9d 313e 9e30 22be 2101 4d3d
000003d0: aac3 863e 9822 08be 7ebb ad3a 4b27 953e
000003e0: 1a96 c5bd d733 573e e34c 913c f447 fd3e
000003f0: 3432 1c3e fbc0 b03e 05f4 87bc 37ce 503e
0.5747648 0.080253035 -0.0030580636 0.3515507 -0.008608268 -0.18775046 0.059760276 0.11448099
0.11943828 0.12466535 0.13219117 0.20385331 0.5919052 0.3184032 0.07701551 0.4689719
0.0047778822 0.42832655 0.21131486 0.069176406 -0.42429256 0.16397806 0.4842622 0.10792124
0.4767835 0.18334033 0.12779506 0.24458632 0.35642907 0.4470928 0.36619332 0.46468478
0.08799745 0.15424724 -0.15625261 0.11818279 0.12967141 0.7541871 0.2320371 0.5562545
0.6688295 -0.03489076 0.295635 0.25575167 0.48390222 0.052379645 0.74796855 0.17194004
0.014052383 0.12382041 0.18567492 0.30181366 -0.015327614 -0.16034818 0.14604756 0.19008715
0.2930885 0.31400663 0.5903717 0.03020753 0.046217646 0.22621301 0.28387615 0.59313613
-0.12126203 -0.13873348 -0.07039758 0.16937406 0.16780597 0.15500003 0.548958 0.2817881
-0.08954492 0.18176493 0.10654088 0.18731202 0.0017945827 0.06030417 0.018153282 0.58403385
0.13352533 -0.16492462 0.08013278 0.23063076 -0.04541767 0.35841468 0.42299718 0.18905574
0.25521636 0.18097568 0.30898 -0.004006013 0.22971545 0.09025818 0.41861603 -0.2828798
0.39583877 0.11714371 0.37998784 0.63982785 0.40477988 0.09413935 -0.17962658 -0.22313327
-0.025173828 -0.18934524 0.74405557 -0.35585138 0.27942726 0.22730438 0.11728004 0.12349885
-0.6653715 0.29264536 0.19492508 0.04962857 0.29727373 -0.19029455 0.46423435 0.5023166
-0.28384033 -0.05091673 -0.20601727 0.0903184 0.28408772 0.6795868 0.57902336 -0.03297388
0.23765135 -0.052080955 0.2342114 -0.016127603 -0.20802087 -0.7446727 -0.5965674 -0.1044523
-0.44275048 0.0852127 0.057847966 0.11927177 -0.33441073 -0.0677913 -0.20518458 -0.14751293
-0.031373627 -0.04238741 -0.030366467 -0.07843573 0.31645542 0.39412382 0.6283833 0.18628086
0.60923284 -0.26662007 0.30026427 -0.3268821 0.6255269 0.06152042 0.47746754 -0.4082614
-1.0622851 -0.05497992 -0.7156309 0.3954403 -0.097622275 -0.2213774 0.3652746 -0.15951481
0.06239853 0.1643951 0.36682752 -0.1828318 0.217748 -0.0730981 -0.16794357 -0.004358066
-0.3997552 -0.37553206 0.4672236 -0.009482784 -0.19091225 0.45559275 -0.77853566 -0.23420466
0.40851602 0.35596946 -0.27254546 -0.38332057 -0.66698873 -0.6023303 -0.22359271 -0.22761287
0.04671425 0.52639 0.23755376 -0.40477848 -0.37075454 0.36369717 -0.2847525 -0.43047202
0.23541535 -0.3475977 0.23732622 -0.56491965 -0.064005956 0.34564975 -0.22045794 -0.0055611697
-0.080087416 0.489731 0.33584645 0.5398671 -0.004583396 0.33232138 -0.05465806 0.37546226
0.0010867454 -0.1178949 -0.6107491 0.18162839 0.31491295 -0.14316122 0.16226865 0.2866931
0.008154755 -0.04099087 0.037123773 0.2701865 -0.2705134 0.16622622 0.5554182 0.6086263
0.21806926 0.011967159 -0.11682948 0.007998155 0.76000154 -0.220468 0.1539531 0.22061796
0.07005241 0.17345235 -0.15838858 0.050049905 0.26321155 -0.13294446 0.001325473 0.2913154
-0.0964777 0.21015869 0.017736858 0.49468958 0.15253526 0.34522232 -0.01659585 0.20391165

rnn.bias_hh_l0 f4 [256]
00000000: 6537 0e3f 9ee0 823e d08b 3f3d f4a7 b33e
00000010: 126e 023e 0abb 00be 714f 7e3e a4a8 2a3e
00000020: 45b4 ac3e 3198 e0bc a4d3 053e fb64 963d
00000030: 4c35 0e3f efba 5d3e b602 a03d 3e9e c73e
00000040: 08bb 533e 21a0 a43e 078d 6d3e 149f 2dbc
00000050: 2a90 8bbe b86b a63d 988e f53e 4082 32bd
00000060: 217e ab3e 307e 6d3e 3714 233e 1728 3f3e
00000070: e392 b23e f0da 943e a2f7 1f3e 2c94 243f
00000080: 73c8 003e 80d8 06bd f26b 65be 57d1 b13e
00000090: 0874 e3bc 11a9 273f fc8e 833e d179 093f
000000a0: ab1e 403f 14be 13be e56d b43e 3ea3 a23e
000000b0: b2c7 063f 523d bc3d 947d 313f 11ff 4b3e
000000c0: aa04 36bd 3ad3 d83d 2447 933e 79e5 4d3e
000000d0: 129c b13d e385 193d ed19 203e c68e 213e
000000e0: 7678 773e d702 853e d35a e23e 12a3 e03d
000000f0: b0a4 573e 4ef5 0c3e c23d 8a3e 91be c33e
00000100: ef2e c7bd 1c69 0bbe 3be2 073e e644 043e
00000110: 3ae9 9e3e c024 b93e 87b7 c83e 3e76 aa3d
00000120: 8d7e 26be b501 d43d 9860 8c3d 9279 b83e
00000130: 0ab1 853d 9015 d53d 5957 133d f5c4 1d3f
00000140: 1239 763e 00d1 95bd 2de3 233e 0038 113e
00000150: e8f1 01be 31c7 a33e da33 ac3e 714a 923d
00000160: 50b7 d63e bc61 853e daa6 903e 31c3 c2bc
00000170: ef16 8b3e bdd1 053d 79f0 f83e 2acf d6be
00000180: 7035 913e 6111 f93d 5874 e13e 6f25 0e3f
00000190: 928b 623e 4d66 04bd e618 e2bd 13b8 67be
000001a0: adbd 71bc 0ffb 61be 3894 153f 7874 abbe
000001b0: 2e7d c33e d804 5d3e 07ad 593e c0e8 873e
000001c0: 2dbd 1abf 3c87 843e d777 1b3e fa1e 08bd
000001d0: ec85 ba3e 4520 4abd 7597 913e 1744 a13e
000001e0: ec24 5dbe e960 92bd fa6e 1abe b77a dfba
000001f0: c35b f13e e235 2b3f 3b8e d13e 8604 1f3e
00000200: ebfa c03d 8e39 e4bd ffaf 6a3e cef5 813d
00000210: e282 52be 9222 25bf d4cd 05bf 89e3 bebc
00000220: 2042 0dbf 9ded 263e 8363 76bd 2730 413e
00000230: 6d37 29be c0ab 8dbe 349f 1dbe 751b a5be
00000240: eb25 35be e3a7 7cbc 9137 31be 81dd 7ebb
00000250: 565a 8b3e bf99 c43e 01a0 2d3f 89da bb3d
00000260: f8fb d83e a2fe 41be aefd f43d c548 84be
00000270: c34a 2e3f 9bfb 3cba f865 b33e f9bd e7be
00000280: 71c6 7dbf 130a 35be 8df5 32bf 874b e33e
00000290: 09a5 30be 48a0 4ebe 311a 5a3e 4adf 96be
000002a0: ea46 373e 9817 1c3e dd07 083f 1897 edbd
000002b0: 89ca be3e 943c a0bd 90a7 5dbe 0c8f 36bd
000002c0: 3f5c 02bf 2cc3 dbbe 6f97 f83e 8a24 563d
000002d0: 023b bbbd 5d4b 923e bab9 46bf 676f 80be
000002e0: d469 cd3e b8ec a43e ff05 50be fc9e 09bf
000002f0: 3f06 28bf 364e 4cbf 9f85 85be 1fde d3be
00000300: 11e9 8abb 9a0a f93e 1adc bb3e 760e d2be
00000310: 5998 c0be 9804 403e d21e 27be 2f85 c5be
00000320: 5f44 103e c1cc 8bbe cd2c 993c 152c 04bf
00000330: 25d9 85bc 7450 dc3e d94e 59be 2dfc 70be
00000340: b3a2 903d 3e57 133f b288 b93e 707b 1a3f
00000350: fd31 0c3b efe1 633e f2e7 e1bd 0fff 7f3e
00000360: 4fd4 7d3d 44cf eebd 499d 1abf 6c5e b73e
00000370: 6b3c 8f3e 12fc ef3a eb57 923e 530d 833e
00000380: 3427 733d 9cc2 7fbd 1a51 5a3e b66a 803e
00000390: 8390 88be 5817 0c3e ea7a 1d3f beaf 0f3f
000003a0: 61db 333e 9171 39ba 0906 f6bd d96e 69bd
000003b0: a3fa 373f aaee 2cbe 780c 4f3d b0e0 583e
000003c0: f305 b53c 4b62 4e3e 68a1 a6bb 0762 083d
000003d0: c272 b63e 6bd5 a9bd 15ee 76bb 1bbb a53e
000003e0: 33f7 75be b073 833e eea3 703c 368f f23e
000003f0: 98f0 9c3d f8af 953e 27e7 b1bd 038e ba3e
0.55553275 0.25561994 0.046764195 0.35089076 0.12737301 -0.1257135 0.24834992 0.16665894
0.33731285 -0.02741632 0.13069016 0.07343479 0.55550075 0.21653341 0.07813017 0.38987917
0.20676816 0.3215342 0.23198329 -0.010597009 -0.27258426 0.081260145 0.47960353 -0.043581247
0.33494666 0.23192668 0.1592568 0.18667637 0.3487769 0.29073286 0.15621808 0.6428859
0.12576465 -0.032921314 -0.22404459 0.34730026 -0.027765289 0.6549235 0.25695026 0.537015
0.75046796 -0.14427978 0.35240093 0.3176517 0.5264846 0.091913834 0.6933224 0.19921519
-0.04443804 0.10587163 0.28765213 0.20107068 0.08672346 0.0374812 0.1563489 0.1577712
0.24167046 0.2597873 0.44209918 0.10968603 0.21058917 0.13765451 0.27000242 0.38231328
-0.09725749 -0.13614315 0.13269894 0.12916908 0.31037313 0.3616085 0.3920252 0.08323334
-0.16259213 0.10351888 0.06854361 0.3603025 0.06527908 0.10404503 0.035971973 0.6162866
0.24045208 -0.07315254 0.1600463 0.14181519 -0.12689936 0.31987908 0.3363331 0.07143105
0.4193673 0.26051128 0.28252298 -0.023774715 0.27165934 0.032670725 0.48620966 -0.4195493
0.28361082 0.12161518 0.44034076 0.5552587 0.22123554 -0.032324124 -0.11039905 -0.22628812
-0.014754695 -0.22068428 0.5842929 -0.33487296 0.38181442 0.21583879 0.21257411 0.26544762
-0.6044491 0.25884426 0.15182434 -0.033232667 0.364303 -0.04934718 0.28435865 0.3149726
-0.21596116 -0.071473904 -0.15081397 -0.0017050122 0.4714032 0.66879094 0.40928826 0.1552907
0.09422859 -0.1114379 0.229187 0.06345712 -0.2055774 -0.64505875 -0.52267194 -0.023301857
-0.55179024 0.1630158 -0.060153496 0.18866025 -0.1652505 -0.27670097 -0.15392762 -0.3224751
-0.17690246 -0.015420887 -0.17306353 -0.003888935 0.27217358 0.3839855 0.6782227 0.09172542
0.42379737 -0.18944791 0.11962448 -0.2583677 0.6808283 -0.0007209123 0.35038733 -0.45262125
-0.9913092 -0.17679624 -0.6990593 0.4439356 -0.17250456 -0.2017833 0.21299054 -0.2946723
0.17898145 0.15243375 0.53137 -0.116010845 0.37263897 -0.07824054 -0.21645951 -0.044570014
-0.50922006 -0.42922342 0.48553035 0.05228094 -0.09142114 0.28573123 -0.77627146 -0.25084993
0.40119803 0.32211852 -0.20314787 -0.53758216 -0.6563453 -0.7980684 -0.26078507 -0.41380402
-0.0042392095 0.486409 0.36691362 -0.41026658 -0.37616232 0.18751752 -0.16320351 -0.38578174
0.14088582 -0.27304652 0.01869812 -0.51629764 -0.016338894 0.4303013 -0.21221484 -0.23533697
0.070622824 0.57554996 0.36237103 0.603446 0.00213921 0.22254156 -0.11030568 0.24999641
0.06197005 -0.116606265 -0.6039625 0.35814226 0.27975783 0.0018309376 0.285827 0.25596103
0.05936356 -0.062441453 0.2132 0.25081414 -0.26672754 0.1368078 0.61515677 0.56127536
0.17564155 -0.00070741127 -0.1201287 -0.05699048 0.71866816 -0.16887918 0.050549 0.21179461
0.022097563 0.20154683 -0.005085159 0.03329661 0.35634428 -0.08292659 -0.003767853 0.32369313
-0.2402008 0.256742 0.014687521 0.47374886 0.07663077 0.29235816 -0.08686667 0.3643647

rnn.weight_ih_l1 f4 [256, 64]
00000000: 7b23 e83c f776 b83d 8c5c 17bd b6f9 193e
00000010: aa40 f8bd 6bc0 0ebe c8bc 24be 2efe 3cbe
00000020: 581c e53c ff59 b93c c351 d73d 39c9 7dbd
00000030: 47b9 8cbc 883a 133c fae5 813d a9b1 a0bd
00000040: 4347 33be aefe f6bc dd1d 123c 831c a73c
00000050: d33f 913d 7232 6e3d ffcb 8fbd 28cb bb3d
00000060: 00ce 75bd 72ed c43c edb3 993d cb12 0bbd
00000070: b03e 0a3e d677 7e3d 72fd 1a3e ef09 a83d
00000080: 574d 44be 97a8 babd 6fec 87bd 2218 f23d
00000090: c0f4 e1bd f5f0 cebd 4d64 0c3c 90cd d3bd
000000a0: 6a75 dcbc 4d69 083e 32d3 023e 0173 0ebe
000000b0: 5e73 b93d 019f 823d 9b7c a8bd debd 11be
000000c0: 7b45 adbc 3df0 833d 9af2 a1bb ef45 dabc
000000d0: 7a54 a1bc 755f bf3c fdf2 2bbb 9672 eabd
000000e0: a980 d1bc 1ac6 083e 40ea cbbd 33aa 79bb
000000f0: c62a c5bd 7e13 343d fe71 20bd dd1a 0ebe
00000100: 5b56 403d fffa c53c d641 a4bd 7b72 cc3d
00000110: cab1 e8bc 7740 d13c f0ab 77bd 59b0 0fbe
00000120: ff48 3ebd d20f d03d 0afc f43d 26b6 2e3e
00000130: 838c 9ebd cd67 fd3d 6cf8 9d3d 1a6b 933a
00000140: 6fb1 2ebe 4dc9 153d 80f9 1dbe 561b 36be
00000150: ebca 253d 64eb d83d c239 6abd f860 293e
00000160: f799 9c3d e8db 473d f578 f63c c68b 713d
00000170: c325 f0bc 1556 99bc d95e a6bd 5696 a3bd
00000180: 7dda 7abd 468c f53c 1a83 17be ab60 243e
00000190: ea2c 33bd 4cad c6bd 33c8 5f3c 4d2e 30bd
000001a0: 5dbf 223e b203 063e 1288 1e3e b053 81bd
000001b0: b7dc 3abd e086 b8bd 7bf7 713d cf24 d5bd
000001c0: 4de3 5cbc 2bf0 9abd d88f e03d 3b48 69bd
000001d0: 7cee b73c 802a 9e3c ca5a 923d 91e5 6cbd
000001e0: 8368 94bc 5400 3e3d 4935 2dbd 2710 96bd
000001f0: 921a 8b3c 6ae3 56bd a7ee 1dbc 60ec a0bd
00000200: f314 d6bc ced4 073e 2a02 fb3d f912 293e
00000210: 7ae7 32bc 7546 63bd 7b70 983c 43d9 4dbe
00000220: 0289 063e 5be8 bd3d 87f8 d73c 1069 853c
00000230: ac33 273d ea07 72bd 53a8 debd a253 2ebe
00000240: 6243 30be 8613 fc3d f892 41be bdc4 cdbd
00000250: 8ebe 7c3d 9dec a13a b052 2a3e 7aaa 063e
00000260: 32eb ab3d 94f5 39be e7c3 063e d90e 15be
00000270: d846 c73b 1064 033d 3078 263d 393c 6cbd
00000280: cb5e d7bd da32 42be 0a48 efbd 5d6a 2b3e
00000290: 7f91 ecbd a45f a03d c215 2a3e 20a3 c6bd
000002a0: 6a9e 0f3e 4f96 ee3d 2a37 7d3d 580d bc3d
000002b0: 03a9 ef3d 5561 09be 3618 3ebe 500b 9fbc
000002c0: 2174 2ebe 2d29 39bc b82e 283e 6485 8f3c
000002d0: 706f 0dbe 7a86 ae3d 0146 0fbe c23c 34be
000002e0: 57d5 1c3e cdf5 9bbd 808b b0bd 7d6e 1ebe
000002f0: f00a 32be 838e 073d f3ff d8bd 34f9 f4bd
00000300: 29ef 093e 322b 353c 81b6 cbbd 942b f43d
00000310: 5fc1 3cbd f4cf 2a3d d6e1 023d 6528 babb
00000320: 716d 28bd 8b2f 833c 6aa1 8a3c f7a2 7fbd
00000330: ac09 e7bb 676d 003e e111 1cbe 057e 263d
00000340: 9c61 cabd 079b 16bd 69f4 be3c 9a09 26be
00000350: 8dd5 2f3d 8084 0d3e b8c3 de3d 177f 0d3e
00000360: 2fe0 9ebd 0692 1cbe 56a0 7d3d e3fa 08be
00000370: 4a18 46bd 1f7d 9cbd 7d41 ac3d e0c8 a6bd
00000380: 5b2b 8b3d f20e 973c 1aa2 6b3d 2974 fa3d
00000390: f4b8 f3bd a10e 1bbc a6ff ecbb 0700 edbd
000003a0: 91d2 24bd 12c5 4a3c f0dd 8dbd d5df 1bbe
000003b0: 7b7a a13d d3b3 09be 1b3b 05be 129a 413b
000003c0: 9746 e7bc f03b 1dbe d80d 04bd 499b 593d
000003d0: c830 b23d 58e6 30bd 56aa 0abe 0f78 dabc
000003e0: fddf b4bd 2afc 00bc c5b7 1ebd 1c39 11be
000003f0: cdf9 91bd 5a72 083c 5ff2 0b3d 680f f0bd
0.02833723 0.09007066 -0.036953494 0.15036663 -0.12121709 -0.13940589 -0.1608764 -0.18456337
0.027967617 0.022625921 0.10513642 -0.06195948 -0.01717819 0.008986123 0.06342693 -0.07846386
-0.17507653 -0.030150738 0.008918253 0.020399338 0.07092252 0.058153577 -0.07021331 0.09169608
-0.06001091 0.024039004 0.07505021 -0.03395347 0.13500476 0.062126003 0.15135744 0.0820502
-0.19170128 -0.09114187 -0.06636893 0.11821009 -0.110330105 -0.10104553 0.008568835 -0.10341942
-0.026911456 0.13321419 0.12775877 -0.13911058 0.09055208 0.06377984 -0.082268916 -0.14232585
-0.021151295 0.06442306 -0.0049422504 -0.026644675 -0.019693602 0.023360947 -0.0026237362 -0.11447637
-0.025574045 0.1335682 -0.09956789 -0.0038095831 -0.09627299 0.0439639 -0.03917121 -0.13877435
0.046957355 0.024167536 -0.0802037 0.09982773 -0.028405089 0.025543435 -0.060466707 -0.14032115
-0.046456333 0.101592675 0.11962135 0.17061672 -0.07741644 0.12373314 0.07713398 0.0011247129
-0.17059873 0.03656893 -0.15427208 -0.17783865 0.04047672 0.10591772 -0.05718399 0.16540897
0.07646554 0.048793703 0.030086974 0.05897119 -0.029314881 -0.018717805 -0.081235595 -0.07987659
-0.061243523 0.029974114 -0.14796105 0.16052501 -0.043744005 -0.097010225 0.013658571 -0.043012906
0.15893312 0.13087347 0.15481594 -0.0631479 -0.045620646 -0.090101 0.059073906 -0.10407411
-0.013481927 -0.0756534 0.10964936 -0.05695365 0.022452585 0.019307375 0.07146223 -0.05783612
-0.018116241 0.04638703 -0.042287145 -0.073272996 0.016980443 -0.052462973 -0.009639419 -0.07857585
-0.026133036 0.13264772 0.12256272 0.16511144 -0.010919446 -0.055487115 0.018608322 -0.2010241
0.13138202 0.09272834 0.026363624 0.01628545 0.040820763 -0.05908958 -0.10871949 -0.17024091
-0.17213205 0.12308411 -0.1890372 -0.100472905 0.061705165 0.0012353841 0.16633105 0.13150969
0.08394469 -0.18160087 0.13160668 -0.14556445 0.0060814433 0.03207785 0.040641963 -0.05767462
-0.10516127 -0.18964711 -0.11683662 0.16739793 -0.11551189 0.07830742 0.16609862 -0.096990824
0.14025274 0.11649763 0.061820187 0.091822326 0.11702158 -0.13416035 -0.18563923 -0.019414574
-0.17036487 -0.011301321 0.16424072 0.01751966 -0.13812041 0.08521743 -0.13991548 -0.17601302
0.15315758 -0.07615242 -0.086203575 -0.15471835 -0.17386985 0.033094894 -0.105956934 -0.11961594
0.13470139 0.011057662 -0.09946919 0.11922374 -0.04608285 0.041702226 0.031953655 -0.005681085
-0.041119996 0.016013881 0.016922671 -0.062411275 -0.0070507135 0.12541734 -0.15241195 0.040647525
-0.09881899 -0.03676894 0.023309903 -0.162146 0.042928267 0.13820076 0.10877174 0.13818012
-0.077576034 -0.15290079 0.061920486 -0.13376956 -0.048363008 -0.076410525 0.084109284 -0.081437826
0.06795379 0.018439744 0.05752764 0.12229187 -0.119005114 -0.009463937 -0.007232624 -0.11572271
-0.040239874 0.012376087 -0.06927097 -0.15222104 0.078846894 -0.13447504 -0.13010828 0.0029541296
-0.028231902 -0.15354896 -0.032239765 0.053126607 0.087007105 -0.043188423 -0.1354154 -0.026668577
-0.08831785 -0.007872621 -0.038749475 -0.14181942 -0.07127724 0.008328045 0.03416669 -0.117216885

rnn.weight_hh_l1 f4 [256, 64]
00000000: f975 1ebd 51f1 e5bc 9f70 c4bd f693 dbbd
00000010: 2747 873d dade a23c df2e eb3d 5bca edbd
00000020: 6ef4 d43d 74de 9d3d 87c1 f73d 67e3 9d3d
00000030: c2b7 123d 6a81 acbd 92b1 a03d 38d7 0ebe
00000040: 744d d43b 60a1 45bc 0fd5 d7bd c732 103e
00000050: d344 37bd f7b3 d4bd ad9d 67bd 3ffe e53d
00000060: ba14 c4bd d5bd b2bd 30ee af3c 40f9 bf3d
00000070: c1f3 7cbc ac75 4bbd 56da 80bd a801 0fbe
00000080: 6d70 203c 67a3 063d 9744 5fbd 0c25 edbc
00000090: 27d3 88bc 577a 343e 4d75 7fbd adae 253e
000000a0: 85ce 9cbc 1f67 d23c 0cb8 bd3d 4641 ccbd
000000b0: 6fa5 d53c 5871 5bbc 2013 103e 10af 623d
000000c0: 0b5b 023d 7d19 d0bb 151f 9dbc caa3 9a3d
000000d0: 6885 bb3c 1409 d43d a977 13bd d752 8ebd
000000e0: 12bc adbb 3223 8dbb 970f 9cbd 9065 c6bc
000000f0: 7601 31be 2cbf bebc 8850 40bc 6bee 22bc
00000100: bc54 123e ea6b 8ebd c63a e53c 4285 503c
00000110: 807e 8ebd 5d94 653d 8d68 fc3c 0e54 2dbd
00000120: b2da 93bd 17ee 9bbd f88f df3d f19c c3bd
00000130: 924f ff3d ecf9 1cbe ea88 993d d6ba 87bd
00000140: 9491 bb3d 96da 123e 6d6e 6fbd 36f2 6f3d
00000150: 866f d9bc 1058 b33d 2b63 05be 2b21 d63d
00000160: 6024 813d a34f 58bd 03c2 99bc 8e4e 523d
00000170: ea74 693c 9256 823d 3791 643d 2eb8 3dbe
00000180: 4bb2 0abe 1617 66bd 5ccc d03d c0d2 94bd
00000190: 1ea3 d83a 0ef2 753d 1ff5 07be c208 c03b
000001a0: 462a 21be 2087 2dbe c7a9 e83d 105c 5b3d
000001b0: fc0c 6abc 4fe5 eabd 950c d33c 9bd3 17be
000001c0: 66e0 b63d 28cc 123d a601 1bbc fc31 ebbc
000001d0: 03ad 1ebd 1e3d b83d b422 1c3d f3cd 163e
000001e0: 1ce5 93bd ff3b 8e3d a2fe bcbc 2d69 96bd
000001f0: a7a1 98bd e0d6 0dbc ad18 123d 956f a83d
00000200: 3eb6 cfbb 840d 6bbc d68b 773c 8387 b1bd
00000210: ede3 b5bd 5284 2cbd 15f3 39bd a26f 48be
00000220: 78d3 0d3d 2093 76bd fc7b ca3d 4540 21bd
00000230: 4f00 73bd 0ea2 45be e281 2dbe 0cbd 033c
00000240: 5e91 c53d 1298 3d3e a69b 4fbe 492b 973d
00000250: 3a9c ee3b 9e05 143c 2e1f 88bd 0cc5 dcbc
00000260: 2f87 e0bd fd4e 17bd 49b0 623d 91cd d3bc
00000270: ed8f 90bd c096 b13d 0415 143e ebbe 80bd
00000280: 53d4 9dbd ca47 013d 1a1c 38bd 145c 8fbd
00000290: 4067 f53d c931 0e3e 18e9 16be f5f3 02bd
000002a0: 017f 983c b3bf 26be 78e1 e43d 4747 b6bb
000002b0: 2d92 323e cf07 bdbd 675e af3d 63da 74bc
000002c0: 1c35 783d 084e a6bc 4f72 583e 3eb2 ecbd
000002d0: 31f4 7d3d ef93 4dbc 74ba ed3c c448 7bbc
000002e0: 65b8 e53d bcb0 323d 8ccd 2e3d 5b7a a63d
000002f0: 0c09 09be b957 fe3c cf89 873c d9f0 173e
00000300: 5bf1 fdbc 61cf 903d 6178 eb3c 2a28 b2bd
00000310: 8da9 763c 62a6 4bba 84a9 f0bc 7349 b7bc
00000320: 7872 14bd 26dd e33d 2f7e b0bd 1c08 e8bd
00000330: de8c 193e 1e71 81bd c06f 3cbd d610 abbd
00000340: 8a74 093e 822a 8f3c 1997 9dbd 9b32 3fbc
00000350: 8f59 333d 2462 753c e8d8 6d3c 8bf0 f93d
00000360: 85db dd3c 8a47 75bd 88c7 96bc e2b0 193e
00000370: 1e4f c5bd 2e4a edbc 673b 0f3e 88c5 12be
00000380: 81e9 08be b700 d13d f3a5 e73c 7e4c 45be
00000390: 1155 34bd ff66 c33d 5b8c 343d 331c b73d
000003a0: 1db7 aebc 7345 adbd 09c4 1f3e 3c98 9f3d
000003b0: c1f4 903d 733c f6bd 5a02 e23d 0590 293d
000003c0: 56f6 89bd d8bd 54bd 0c2c 873c f843 0bbc
000003d0: 9ebf 003e 1bc4 e53d 2429 40bd 6ec3 13bd
000003e0: d9ac 80bc 7b11 a63c e65a 033d 9410 203d
000003f0: 119e 03be 20fd e1bc 8614 ae3c 423d 40bd
-0.038686726 -0.02806917 -0.09591793 -0.10721581 0.06605368 0.019881655 0.11483549 -0.11610862
0.10398184 0.07708445 0.12097459 0.07709389 0.035819776 -0.08423121 0.07846369 -0.13949287
0.0064789597 -0.012062401 -0.105386846 0.1408187 -0.04474337 -0.10385888 -0.056546856 0.11230134
-0.09574266 -0.08727614 0.021475881 0.093737125 -0.015438975 -0.049672768 -0.06291644 -0.13965476
0.009792429 0.032870676 -0.05450877 -0.02894833 -0.016702248 0.17624794 -0.062367726 0.16179915
-0.019141445 0.025683938 0.0926362 -0.099733874 0.026079861 -0.0133937225 0.14069796 0.055342734
0.031825107 -0.0063506947 -0.01917986 0.075507715 0.022890761 0.10353294 -0.03600279 -0.06949394
-0.0053019607 -0.004307174 -0.07620161 -0.02421835 -0.17285714 -0.023284517 -0.01173795 -0.009944539
0.14290136 -0.06954177 0.027982127 0.012727084 -0.06957722 0.056049693 0.030811572 -0.04231649
-0.07219447 -0.076137714 0.10916132 -0.095514186 0.12466349 -0.15329713 0.074968174 -0.06627433
0.09158626 0.14341196 -0.05845492 0.0585806 -0.026542436 0.08757031 -0.13026111 0.10455545
0.06305766 -0.052810322 -0.01876927 0.051344447 0.014249066 0.06364168 0.05580255 -0.1852729
-0.13544576 -0.05617436 0.101952285 -0.0726676 0.0016528105 0.060045294 -0.132771 0.005860419
-0.15738782 -0.16946077 0.113605075 0.053554595 -0.014285322 -0.114695184 0.025762836 -0.14826815
0.08929519 0.03583923 -0.009460842 -0.028710358 -0.038739216 0.08996032 0.038119033 0.14727001
-0.072214335 0.06945037 -0.023070637 -0.073442794 -0.07452708 -0.008657187 0.035668064 0.082244076
-0.0063388636 -0.014346484 0.015109023 -0.08668425 -0.08881364 -0.042118378 -0.045397837 -0.19573835
0.0346255 -0.060198903 0.098869294 -0.039367933 -0.059326466 -0.193001 -0.16944078 0.008040678
0.09646867 0.18515041 -0.20274219 0.07381303 0.0072818073 0.009034542 -0.06646572 -0.026949428
-0.10963284 -0.036940563 0.0553439 -0.025854858 -0.07058702 0.086713314 0.14461142 -0.06286415
-0.07706513 0.031562604 -0.044948675 -0.069999844 0.11982584 0.13886179 -0.14737356 -0.031970937
0.018615248 -0.16284065 0.11175817 -0.005562696 0.17438574 -0.09230005 0.08562928 -0.014944646
0.060597524 -0.02030088 0.21137355 -0.115574345 0.062000457 -0.012547477 0.029019572 -0.015337173
0.11216811 0.04362558 0.042676494 0.08128806 -0.13382357 0.031047689 0.016545204 0.1483797
-0.030998876 0.070708044 0.028743925 -0.08699067 0.0150550725 -0.00077686284 -0.029377706 -0.02237389
-0.03624198 0.11126165 -0.086178176 -0.11329672 0.14995143 -0.063204035 -0.04600501 -0.083528206
0.13423362 0.017476324 -0.07694835 -0.01166978 0.04378658 0.014977012 0.0145170465 0.12204083
0.027082214 -0.059882678 -0.01840569 0.15008882 -0.09634231 -0.028966036 0.13987504 -0.14333165
-0.13370325 0.102052145 0.028277373 -0.1926746 -0.04402644 0.09541129 0.044079166 0.089409254
-0.02132755 -0.08460512 0.15602125 0.07792708 0.07077933 -0.120232485 0.11035605 0.041397113
-0.06736438 -0.05193886 0.016500495 -0.008500092 0.12573096 0.11219045 -0.046914235 -0.03607505
-0.01570742 0.020272007 0.03206911 0.03907831 -0.12853266 -0.02758652 0.02125002 -0.04693342

rnn.bias_ih_l1 f4 [256]
00000000: 650c 1bbd 83b9 0bbd cfd5 ff3d 0117 a0bc
00000010: 802c ed3d 6c3a bdbc cabe 113e 8905 cdbc
00000020: e04e 413c 9cfb 633e f72c 85bd 9b01 b53d
00000030: a798 443c d548 3a3c 190e 6f3d e7a4 fa3d
00000040: e57a 1fbc f025 bc3d 41aa 083e f82d 8ebc
00000050: d327 68bc 3e2e 77bd 8a3b e3bc fe03 123e
00000060: c223 5f3d d3df 06bc eb48 223e 5b20 a7bd
00000070: 228c 143e 5c1b 4f3d 4a70 94bd 4c25 dc3d
00000080: 482a 1ebd a570 a13d 431f 143e 904b a3bc
00000090: 8250 94bd 38a1 963d 54c8 033e 826d ff3c
000000a0: 1981 81bd d95b 993d 9576 54bd b8f2 4b3e
000000b0: f693 f93d 50ce 703e 4411 01bc 3eb7 433e
000000c0: 2017 bf3d 90cd 653d 4175 893c 73c9 d63d
000000d0: fafa 0c3f ac3b 68bc 173a b33d 43c1 cfbc
000000e0: 201a 123e 5eb2 ff3c 31d0 d93d 497f 6b3e
000000f0: 259e 3a3d 1f42 963d 47a7 55bc 1ab4 37b9
00000100: 67d1 3e3e c76e 513e d786 2f3e ba70 2e3e
00000110: d3d4 143e 851b 1c3e 875c 063e 40b7 303e
00000120: f98b 293d ef37 b73d b072 333d d66e 333c
00000130: 27d2 173e 197f 1d3e 780c 923c d8a3 3b3e
00000140: 888e 30bb 5f41 173d 0a13 ec3d 2de5 513e
00000150: 6145 d7bc e3a9 f1bc 5424 a73d e824 0a3e
00000160: b86e d83d f6ca 5c3d 2d67 413d ca98 51be
00000170: 7b7a 8a3c bc64 973c 41c2 41be ff05 293e
00000180: 6601 923d d328 e83c 9f03 0b3e b588 293e
00000190: f100 89bd ba3a 38bc 8c71 bc3c 6e21 323e
000001a0: 62ea 103d cc67 093e 3ba9 143e 1a87 e93d
000001b0: 1ac6 913c 6e64 903d 73d5 023e 97ed 55bc
000001c0: 1813 1d3e 247c 213e ea5c e3bc cd7d 3e3e
000001d0: 0af2 cfbd 2e77 a73c 94ce 80bb 5ee9 033e
000001e0: d506 0e3e b464 553d a3b8 4bbe 142d d63c
000001f0: 16f8 8f3d 2b73 1b3e 4e80 883d 1f12 403e
00000200: 4fb9 073e 299b 113e 367b 28be 8062 60bd
00000210: 7420 7fbd 81fb 0d3e eae3 84be d848 88bd
00000220: 7534 043e baea 613e 2e93 a63d 2ee3 3ebe
00000230: 3dec 97bd a839 cdbd abbc 043d 1242 44bd
00000240: 66b9 353e 2138 093e 455b 54be a8af d9ba
00000250: 825e e23a 788e 9f3d 9be4 0fbe 30a6 f33c
00000260: 9458 323c 4204 33be 3f0f d03d 0599 663d
00000270: 3835 35be 0f0e 143e b18b 323e b6f9 66be
00000280: b3a7 1d3c 25a7 ed3c 7c0c bc3d f8d8 6bbc
00000290: 7267 183e 5470 113d f8a8 96bd 73a4 dfbc
000002a0: 27e6 923d d632 ddbd fa84 1cbd 25ca c23b
000002b0: ccca 213e 90ff d7be 1a0c 8e3e 2622 79bd
000002c0: e736 173e 87c7 263d aa50 ef3d c5aa 19be
000002d0: 0e50 3cbe 155b 2cbd 5b9b 873d 4023 263e
000002e0: db94 223e 8d79 1d3e 7e78 643d f4a5 853d
000002f0: 83fe 40bd 3693 d93c 4075 813d 44f4 913d
00000300: f615 0c3e d97b b1be 2336 c6bb b6f2 20be
00000310: 7afc 77bd e664 22be c010 893e 114b 2e3e
00000320: e301 4fbd b7d5 93be ea3a 543d 84bc a3bc
00000330: a1aa a2bd 9934 383e c0c3 95bd 78bb 903c
00000340: b2b9 d6be 860c 163d bb4d 07bf cfc9 e4bd
00000350: f67b 163d 4f3b d2be 7d2a 56bc 8cbc 9cbd
00000360: e4cf bdbd 45a8 28be e445 d53d ce0a 8f3e
00000370: 172e 9cbc 925d b2bc 3fab 28bc 36d2 af3e
00000380: 157b 8ebc 188e 723e 1f2f f9bd 4f57 0ebe
00000390: 7143 9ebe f22e 52be ec85 afbc ba62 d6bd
000003a0: 2656 b33c 6c91 fd3d b5a3 533d fd8c eebd
000003b0: 3969 433e 4bd8 adbd f368 8abe 58bc a9be
000003c0: e3b4 b73d 3353 dbbd ada3 9cbe 80ed 89be
000003d0: e07e 083f eeac ddbd 6ae5 62be 433a a2be
000003e0: 4843 c73e 96ac 96be dbeb 5d3b 337c b0bd
000003f0: eefb 8e3e b56c abbd 3297 a7bd b0da 4cbd
-0.037853617 -0.034112465 0.12491953 -0.01954222 0.11580753 -0.023099147 0.14232937 -0.025027053
0.01179859 0.2226395 -0.06502717 0.08838197 0.011999286 0.011369904 0.058363054 0.12238484
-0.00973389 0.091869235 0.13346197 -0.017355904 -0.014169651 -0.060346834 -0.027738351 0.14259335
0.05447746 -0.008232075 0.15848128 -0.08160468 0.14506581 0.0505632 -0.0724798 0.10749301
-0.03861454 0.07882813 0.1446505 -0.019933492 -0.07241918 0.07354969 0.12869388 0.031180147
-0.063234515 0.07488222 -0.0518709 0.19916809 0.121864244 0.23516202 -0.007877652 0.1911287
0.093305826 0.056104243 0.016779544 0.10487642 0.5507046 -0.014174383 0.08751314 -0.025360709
0.14267778 0.031212982 0.106354125 0.22997774 0.045560975 0.0733683 -0.01304037 -0.00017519333
0.18634568 0.20452414 0.17141281 0.1703519 0.14534311 0.15244873 0.13121234 0.17257404
0.041393254 0.08946215 0.043810546 0.010951718 0.1482626 0.15380515 0.017828211 0.1832422
-0.0026940424 0.036927577 0.11527069 0.2049758 -0.0262782 -0.029499954 0.08161226 0.13490641
0.10567993 0.053904496 0.047217537 -0.2046844 0.016904106 0.018480651 -0.18921758 0.16506194
0.07129173 0.028339779 0.135756 0.16556056 -0.06689633 -0.01124447 0.023003362 0.17395565
0.035379775 0.13418502 0.14517681 0.11402722 0.017794657 0.070504054 0.12776737 -0.013057134
0.15339315 0.15770012 -0.027754266 0.18602677 -0.10153587 0.020442571 -0.003930876 0.12881991
0.13869794 0.05209799 -0.19894652 0.026144542 0.070297405 0.15180652 0.06665097 0.18756913
0.13254283 0.14219345 -0.16453251 -0.054781437 -0.06228681 0.13865472 -0.25955135 -0.06654519
0.12910636 0.22062197 0.08133541 -0.1864135 -0.07418106 -0.10020763 0.03240649 -0.047914572
0.17746505 0.13400318 -0.20737942 -0.0016608136 0.0017270597 0.07790846 -0.1405205 0.02974233
0.0108853765 -0.17482093 0.10159158 0.056298275 -0.17696083 0.14458488 0.174361 -0.22556195
0.009622502 0.029010365 0.09182069 -0.014394991 0.14883211 0.035507515 -0.07356447 -0.027300095
0.07172804 -0.10800712 -0.038212754 0.0059445077 0.15800017 -0.42187166 0.27743608 -0.060823582
0.14767037 0.040717628 0.11685307 -0.1500655 -0.18389913 -0.04207905 0.066214286 0.16224384
0.15877096 0.15378399 0.055778973 0.06525794 -0.04711772 0.026559453 0.06321192 0.07126668
0.13680252 -0.346648 -0.006048934 -0.15717587 -0.060543515 -0.15858802 0.26770592 0.17020823
-0.05053891 -0.2887399 0.051813997 -0.019987352 -0.07942701 0.17988814 -0.07312727 0.017667517
-0.4193855 0.036633037 -0.5285298 -0.111713044 0.036739312 -0.41060874 -0.013071653 -0.0765315
-0.092681676 -0.1647044 0.10413721 0.2793793 -0.019064946 -0.021773133 -0.0102947345 0.34340066
-0.017392674 0.23687017 -0.12167191 -0.13900493 -0.3091083 -0.2052572 -0.021426164 -0.10468049
0.021891665 0.12381253 0.051669795 -0.11647985 0.19083108 -0.0848852 -0.27033195 -0.33151507
0.08970048 -0.10709228 -0.30593625 -0.2693901 0.53318596 -0.10823999 -0.22157827 -0.31685075
0.3891852 -0.29428548 0.0033862505 -0.08617439 0.27926582 -0.083703436 -0.08183135 -0.050013244
