preTrained/CharRNN_reviews_64_2_0.2.pth (torch, 314968 bytes, 11 tensors)

embedding.weight f4 [71, 71]
000000 2d 5b c0 bf 85 8e 96 be 52 17 db bf ec 4c aa bf
       -1.5027825 -0.2940561 -1.7116492 -1.3304725
000010 07 68 a6 3e 0f cb 3c bf 6c 1f 20 c0 40 06 cc 3f
       0.32501242 -0.7374734 -2.5019178 1.5939407
000020 d3 1f 55 be c2 bd 86 be b2 be 4e 3f a7 7d ab 3b
       -0.20812921 -0.2631665 0.8075973 0.005233485
000030 6a 0a 64 3f 71 b3 0f 40 0d bf f5 3f 64 4e a6 3f
       0.8907839 2.2453272 1.9198929 1.2992673
000040 6b ec 05 bf 24 69 5b c0 cb 17 10 bf 6e 5b ee bf
       -0.5231387 -3.4282923 -0.56286305 -1.8621652
000050 a9 84 dc 3f ec 3d 5d bf 14 14 28 3e 94 3f bd 3f
       1.7227985 -0.8642261 0.16413909 1.4785028
000060 f8 d3 65 3f 73 b1 46 40 a8 e3 b4 3f 7e 26 a9 be
       0.89776564 3.1045806 1.4131975 -0.3303718
000070 33 8e c6 bf 8e 8e d4 be 2e f7 14 be d2 3a d3 3f
       -1.5512146 -0.4151501 -0.14547417 1.6502326
000080 b5 1b c8 3f 5b 01 24 bf 8f 51 17 c0 7a 8d 7c 3f
       1.5633456 -0.6406457 -2.364353 0.98653376
000090 95 0f 12 bd 6d 37 15 40 26 f1 55 c0 ed 32 4c 3f
       -0.03565939 2.331508 -3.3428435 0.79765207
0000a0 bf 29 26 be e3 4d 35 3f 6d 18 77 40 94 c9 16 be
       -0.16226862 0.7082197 3.8608658 -0.14725333
0000b0 6d 41 7e 3f 49 1a 0e bf 61 88 a2 bf a2 e9 c7 3f
       0.9931858 -0.5550886 -1.269787 1.5618174
0000c0 d3 f0 fe bf c3 96 03 40 14 8d ea 3e 46 58 d8 bf
       -1.9917244 2.0560768 0.4581076 -1.6901939
0000d0 2a b9 0a 40 d1 84 2e 40 8c f0 1f c0 c1 35 96 bf
       2.1675515 2.7268565 -2.4990568 -1.1735154
0000e0 68 1d e1 3e b7 1f ba bf 4f 95 30 40 6c 8a 79 40
       0.43967748 -1.4540929 2.759113 3.8990736
0000f0 70 53 66 c0 0b 73 26 40 f2 40 22 40 37 e7 2c 3f
       -3.5988426 2.6007717 2.535214 0.67540306
000100 b5 e8 07 3f 74 2f 45 c0 cc 31 e7 3f ee 84 00 40
       0.5308946 -3.0810213 1.8062072 2.0081134
000110 29 74 e7 3f f5 9b db bf 43 17 c1 be 00 e8 1a 3f
       1.8082324 -1.7156969 -0.3771306 0.60510254
000120 3a 8c 67 3f c4 2e e9 be 95 f3 b1 bf 87 21 1f 40
       0.90448344 -0.45543492 -1.390246 2.4864213
000130 5c b0 c0 be 04 de 2e 3e b0 e7 12 bf e8 4c d2 bf
       -0.37634552 0.1707688 -0.5738478 -1.642972
000140 e3 b5 e9 bf ca 2d 05 3e 7b 32 27 40 dd cf 2a 3f
       -1.8258632 0.13005748 2.612456 0.66723424
000150 e0 1e 00 3f 32 a1 d2 be 8f 8f da 3e 5c cc e6 be
       0.5004711 -0.41138607 0.42687652 -0.4507779
000160 1d e6 9a bf 16 51 8d 3f 46 be 17 bf b1 d1 70 bf
       -1.2101475 1.104037 -0.5927471 -0.94069964
000170 dc 1f 9a 3f 02 79 81 bf 85 1a 58 3d 66 80 4a bf
       1.2040973 -1.0115054 0.052759666 -0.7910217
000180 c2 76 cf 3f b0 22 d9 bf 3b d3 2e 3e f6 9f af bf
       1.6208117 -1.6963711 0.17072766 -1.3720691
000190 bc 12 f1 bf 51 d9 0d 40 28 b9 ab 3d 33 3f 04 be
       -1.8833842 2.216389 0.08384925 -0.12914734
0001a0 84 a5 67 3f 82 9d 39 bf c2 d5 f4 bd 81 71 da bf
       0.9048693 -0.7250596 -0.119548336 -1.7065889
0001b0 8f 35 c3 be d5 5e f4 be 80 aa 53 bf 95 5d 0f bf
       -0.381268 -0.477286 -0.8268204 -0.5600217
0001c0 0c 5e f7 bf 11 54 97 bd de d8 20 c0 a4 5a 0b 40
       -1.9325576 -0.07389081 -2.5132365 2.1774073
0001d0 34 73 12 c0 46 1f ca be 90 eb bf 3e 16 b6 4c bf
       -2.2882814 -0.39476985 0.37484407 -0.7996534
0001e0 7e 75 25 bf 45 1a c0 bc aa b4 18 c0 89 95 88 3f
       -0.64632404 -0.023450026 -2.3860269 1.0670635
0001f0 a1 ef 3e 3e e4 77 2a 3d 3a 5b 1e bf 27 2f 0b 3d
       0.18646099 0.041618243 -0.6185795 0.033980515
000200 b6 f2 94 3f 91 25 44 40 93 8c d3 be fb e3 40 bf
       1.163657 3.0647929 -0.41318187 -0.7534787
000210 99 d7 90 be 62 a5 47 3f 8d e8 1a bf cc 6f 55 3f
       -0.28289488 0.7798673 -0.60511094 0.83373713
000220 9b 79 a4 3e 68 c1 56 3e 99 aa cd 3f 6b f8 a6 3f
       0.32124028 0.20972216 1.6067687 1.3044561
000230 d3 76 00 bf a9 a2 b6 bf cf b8 34 3f 78 34 8e be
       -0.5018131 -1.426839 0.70594496 -0.27774405
000240 b1 15 99 be 66 47 0a c0 32 39 40 c0 20 b3 76 bf
       -0.29899362 -2.1606078 -3.003491 -0.96367073
000250 da 55 ce 3f 5d 59 71 3f c1 8e 4b 3f c1 a1 9a 3e
       1.611995 0.9427698 0.795147 0.30201533
000260 a9 c5 28 c0 d9 20 ac bf fe 85 0f 40 dd 11 54 be
       -2.6370642 -1.3447524 2.2425532 -0.2070994
000270 a2 13 0c c0 89 1d f3 3f 4f d2 55 c0 18 ad af bf
       -2.1886983 1.8993388 -3.3409612 -1.3724699
000280 04 a7 44 bf b4 aa 92 bd 59 df ad 3f e7 f2 ce bf
       -0.76817346 -0.07161465 1.3583785 -1.6167878
000290 79 5d 77 3f be e2 84 bf 7b 4f f2 3e b3 53 91 3f
       0.96627 -1.0381696 0.47326264 1.1353668
0002a0 4b 08 69 40 ce 7d 8c c0 f7 62 3c 3d fa af cd 3e
       3.6411312 -4.390357 0.045992818 0.40173322
0002b0 b4 80 b6 bf 46 4c 10 40 12 70 94 3f f7 cd b1 3f
       -1.4258027 2.2546554 1.1596701 1.389098
0002c0 9e 42 ab bd 33 c8 24 c0 e6 d1 80 3f a0 58 2e 40
       -0.083623156 -2.5747192 1.0064056 2.7241592
0002d0 c3 6e e6 bf d7 99 5d 3f 9d 5a 31 3d 39 fa 3d 3e
       -1.8002552 0.86562866 0.043299306 0.18552484
0002e0 05 f2 9f bf 5b be 20 40 f0 6c 3e bd 6a 19 04 3f
       -1.2495733 2.5116184 -0.04649061 0.5160128
0002f0 f4 34 50 c0 ef fd e4 3e c8 46 af 3e 30 c2 41 bf
       -3.253232 0.44724986 0.3423369 -0.7568693
000300 e2 f4 28 3f db bd af bf 5d aa dc bf bb bc 92 3f
       0.6599866 -1.3729814 -1.7239491 1.1463846
000310 fe 01 2b bf 27 75 4c bf d5 51 33 3f d7 b3 4e 3f
       -0.66799915 -0.7986626 0.7004674 0.80743164
000320 9b 96 74 bf 77 63 1d 3f f8 39 29 c0 7f 64 85 3f
       -0.95542306 0.61479896 -2.6441631 1.0421294
000330 7a 7e 1a 40 4d 30 da bf 18 28 91 3d 46 05 29 40
       2.4139695 -1.704599 0.070877254 2.6409469
000340 4a 5f 4d c0 cf d8 cc 3e 60 55 bf bf 5d 4b f9 bf
       -3.208941 0.40009162 -1.4947929 -1.9476124
000350 79 6c ac bf 7a 1b cb be ec 65 07 c0 c9 1c 09 bf
       -1.3470603 -0.396694 -2.1155958 -0.5355955
000360 9e 0b 5d c0 f7 68 53 bf ec 60 51 3f d6 6f fa bf
       -3.453834 -0.8258204 0.81788516 -1.956538
000370 f3 3d 5a 3f 91 01 33 40 55 f1 e3 bf c1 f1 10 c0
       0.85250777 2.7969706 -1.7808024 -2.2647555
000380 17 a1 e7 be 47 4a 0b 40 a9 7b b3 be 19 1c 26 c0
       -0.4524009 2.1764085 -0.35055283 -2.595465
000390 a2 52 ac 3f 29 0c 4b bf df ed f8 3f e6 7f 06 c0
       1.3462718 -0.7931543 1.9447592 -2.1015563
0003a0 ab e1 0b c0 63 d3 32 c0 82 52 c1 3e 52 46 75 be
       -2.1856487 -2.794152 0.3775826 -0.23952606
0003b0 6b 4e 2b 3e 00 05 aa be 90 33 0a 3f 82 be 58 3f
       0.16729133 -0.3320694 0.5398493 0.8466569
0003c0 8d 67 ca 3f 6b b9 27 c0 c9 79 5c 3f 3c eb 4b 3e
       1.5812851 -2.620692 0.8612333 0.19913954
0003d0 b5 88 c8 3f fd db 14 40 3b 3d 77 bf e7 24 75 bf
       1.566672 2.325927 -0.96577805 -0.95759434
0003e0 a7 43 58 c0 bd e0 ff 3e 5e d3 d4 3e 42 de 4b c0
       -3.3791292 0.4997615 0.4156751 -3.1854405
0003f0 ac f6 0b c0 2e d9 ed bf 2b f9 d0 bf a9 2b db 3f
       -2.1869307 -1.8581903 -1.632604 1.7122699

rnn.weight_ih_l0 f4 [256, 71]
000000 f3 d9 a8 be b3 03 7e be 6d 3a 81 3e 1d 6e b8 be
       -0.32978782 -0.24806099 0.25239888 -0.3602151
000010 62 94 99 3f c2 9a b4 3d 1f f6 b0 bf 38 f7 41 3f
       1.1998408 0.0881858 -1.382511 0.7576785
000020 87 23 da be 27 a1 ad 3c f2 8e de be d7 d7 34 bf
       -0.4260523 0.021195007 -0.43468434 -0.70641845
000030 e6 48 4a 3f b9 f3 7d 3d 82 e1 40 3f cb 6b 31 bf
       0.79017484 0.06200001 0.753441 -0.69305104
000040 1d 36 bc 3e 0d d4 46 bf 8b 97 dd be c7 4a 80 bf
       0.36760035 -0.77667314 -0.4327968 -1.002282
000050 a8 64 71 bf 96 6e 4b bf 2d c1 a9 be 32 33 2f 3f
       -0.94294214 -0.79465616 -0.33155194 0.6843749
000060 ad 1b d7 bf cf a5 42 3f 17 65 c0 3f fe d9 2b 3e
       -1.6805321 0.76034254 1.503085 0.16782376
000070 f0 8a 4c bf 24 63 80 3e b9 90 b3 3e 47 ed 12 3f
       -0.798995 0.25075638 0.35071352 0.57393306
000080 b4 ac 57 3c 64 ee 2d 3f a2 95 cf 3e 9b 67 8e bf
       0.013163734 0.6794188 0.40543848 -1.1125368
000090 35 57 91 bf 3a 1c 19 3d 2a 39 b2 bd de 75 50 be
       -1.1354738 0.037380435 -0.087023094 -0.20357463
0000a0 64 50 1e 3d 42 48 86 3e fc e9 d7 3d a3 1d 69 be
       0.038650885 0.26227003 0.10542676 -0.22765212
0000b0 8b 88 49 be a0 b5 8e bf 51 98 7c bd 36 32 b2 be
       -0.19680993 -1.1149178 -0.061668698 -0.34803933
0000c0 c5 37 02 3f 76 98 87 be 65 87 a2 be b6 13 8e 3f
       0.5086635 -0.26483506 -0.31743923 1.1099765
0000d0 76 64 87 3f 28 b6 cc be 92 43 6e 3f d4 3a 2e 3f
       1.0577533 -0.39982724 0.93071854 0.68058515
0000e0 e7 51 3f 3c 15 83 db bd 04 9f e5 3c a5 fe 97 be
       0.011677242 -0.10718361 0.028029926 -0.29686466
0000f0 77 35 1d bf ac 75 9d 3c 3d 9e 0c bf 4f b6 87 be
       -0.61409706 0.01922115 -0.5492895 -0.26506278
000100 75 ee 17 3d fa 42 ea 3e 1e df c7 be b3 64 46 3f
       0.037092645 0.45754224 -0.39037412 0.77497405
000110 e8 d7 73 be d9 5e 0a 3f 62 ce 99 3f 3a f6 8f 3e
       -0.2381283 0.54050976 1.2016108 0.28117543
000120 e7 7c d6 be 77 75 0a 3f 2d 23 83 3f 29 99 99 3d
       -0.41892168 0.5408549 1.024511 0.07499916
000130 f7 02 57 3e 3d 3d de 3c 23 cb 78 be 2e e8 3a 3f
       0.20997225 0.02712881 -0.2429624 0.7301053
000140 43 73 c3 be f2 06 6c bf 1f 84 2c 3e bc 7e e6 3e
       -0.38173875 -0.921981 0.16847275 0.45018566
000150 cf 60 3d 3f 04 46 0b bf 62 33 a5 be 02 8e f1 be
       0.73975843 -0.5440371 -0.32265764 -0.47178656
000160 b5 a5 0c be ab 92 1a 3e 6f 97 97 3c d1 bc 80 bf
       -0.13735087 0.15095012 0.018504826 -1.0057622
000170 75 18 fb bc 0b 45 fb be 83 1f 4b 3f 9a 69 14 bf
       -0.03065131 -0.49076113 0.7934496 -0.57973635
000180 08 4e c0 3d 96 10 fd 3e d7 3f 42 3f 16 59 de 3e
       0.09389883 0.49426717 0.7587866 0.43427342
000190 f6 72 c1 3c d6 82 a4 3e 08 be 88 bd a4 21 9e 3e
       0.023614388 0.3213107 -0.066768706 0.3088504
0001a0 34 53 e6 be f7 38 48 be 50 cb ea be a7 ec 68 3f
       -0.44985354 -0.1955298 -0.4585824 0.909861
0001b0 27 c0 0a bd 14 43 31 3f 27 8e c4 be 5a 17 cc be
       -0.033874657 0.6924298 -0.38389704 -0.39861566
0001c0 ea b5 ed 3e 58 c3 97 bf 66 71 98 3e f6 7a bc be
       0.46427852 -1.1856489 0.29774016 -0.36812562
0001d0 d2 3f 9e 3d 55 bf a3 be 0e 59 2c 3f b7 1b 47 bf
       0.077270165 -0.31981912 0.67323387 -0.77776664
0001e0 53 7a 4c 3e 5e 20 96 3e bf c4 2a bf 33 c4 c4 be
       0.19968538 0.2932157 -0.6670646 -0.38430938
0001f0 5f 74 dd bd a0 ce 12 3f 40 1e 03 3f 37 75 e0 be
       -0.10813212 0.57346535 0.5121803 -0.43839428
000200 73 da c8 3e 24 d1 f7 3e 97 ac 48 3e 1b f3 a3 be
       0.39229164 0.4840175 0.19597088 -0.32021412
000210 df fe 82 3e 5d 87 ba 3d 2b 9c 80 be b6 30 7d be
       0.25585076 0.0910785 -0.25119147 -0.24725613
000220 16 d9 28 3f 77 dc 13 3f f7 b3 7b be 93 83 8a 3f
       0.65956247 0.5775828 -0.2458037 1.0821403
000230 f7 08 a8 3e d6 bb fc 3d 40 2f b1 3d f0 f6 bf 3e
       0.3281934 0.12340514 0.0865159 0.37493086
000240 b2 f3 d4 be e1 c9 12 3e a4 c9 d2 bc 06 04 a9 3d
       -0.41592175 0.14334823 -0.025730915 0.082527205
000250 85 05 86 3e f9 be 0b be ea 65 c1 3d 8f 5e b8 bd
       0.26176086 -0.13647069 0.09443267 -0.090024106
000260 32 39 e8 bc c9 63 18 3e 35 2e c7 3d e3 1b a4 bd
       -0.028347585 0.14881815 0.0972561 -0.080131315
000270 b4 fe c9 bc 7f ab 73 bc e0 cf 0a be 04 62 db 3d
       -0.024657585 -0.014872431 -0.1355586 0.10712054
000280 b7 d0 7f 3d 3f cf 51 bd ce f5 2a bc 97 14 89 3d
       0.062454905 -0.051223036 -0.010434581 0.0669338
000290 1c a3 aa bd aa 4e 8b bd 19 0f fb bd 38 e1 22 be
       -0.08331892 -0.06802113 -0.12258739 -0.15906227
0002a0 d9 2d 62 be 0b 06 83 bc 24 04 2e 3d 70 28 b1 bc
       -0.22087802 -0.015994092 0.042484418 -0.021625727
0002b0 44 84 72 bb 4a 53 67 bd e5 8b 13 be 83 cc fd bc
       -0.0037005106 -0.056475915 -0.14408834 -0.030981308
0002c0 7e 38 33 3e 85 f0 2d 3e 3c 1f a2 3e 95 cd 4c be
       0.17502019 0.16986282 0.31664455 -0.20000298
0002d0 e8 20 09 be f6 35 cb bd e3 fa 6f bc a1 36 77 be
       -0.13391459 -0.099224016 -0.014647218 -0.24141933
0002e0 32 c8 20 bd 46 51 35 3d 92 12 83 3e d1 33 2f be
       -0.03925342 0.04426696 0.25600106 -0.1710961
0002f0 57 54 44 be 03 89 17 3e 0f 90 89 bd a5 40 a0 3d
       -0.19172798 0.1479836 -0.0671693 0.0782483
000300 94 e0 ec 3d 95 5c 61 be 29 cf 86 3e a6 36 2c 3a
       0.115662724 -0.22007973 0.26329926 0.00065694225
000310 bf 8d dc 3e b3 3a 3d bd a2 55 0f be 87 ff 8f 3c
       0.43076894 -0.046198558 -0.1399751 0.0175779
000320 5e a0 4f bd 19 81 5b 3d 08 d0 70 bd f6 1a 21 3d
       -0.050690047 0.053589914 -0.058792144 0.039332353
000330 c3 42 8b bd 96 6c 54 be f2 d5 32 3e 38 fa 95 be
       -0.06799843 -0.20744547 0.17464426 -0.29292464
000340 48 94 2d bd e4 b9 c4 bd bd 48 eb bd f9 9e a5 3d
       -0.04237774 -0.09605768 -0.11488483 0.08086962
000350 ec 6b 37 be f1 e9 05 be 52 f1 b9 3f 70 ad 89 be
       -0.17912263 -0.13077523 1.452677 -0.26890135
000360 bd 9f 97 bf f5 46 13 3c cf 3f 1c bf 4c 56 4f bf
       -1.1845623 0.008989085 -0.61034864 -0.80991054
000370 5e ee 69 bf 31 73 04 bf 97 06 16 bd 94 85 bb 3f
       -0.91379344 -0.5173827 -0.03662738 1.465014
000380 aa 4c da 3e 5e 9c d7 3e 67 6c aa be 1e cd 8c 3e
       0.42636615 0.42111486 -0.3328583 0.27500242
000390 56 6a 04 3e 1d 12 84 3f 11 fc 0c bf 40 46 4f 3e
       0.12931189 1.0318028 -0.5507212 0.20241642
0003a0 db a1 f1 bd 34 1a 3c 3f 4e 27 d7 bc 53 16 33 3f
       -0.117984496 0.7347748 -0.02626386 0.6995594
0003b0 1b 4c 84 bc 76 78 11 be b6 a9 00 be 32 fb 8a bf
       -0.016149571 -0.14206108 -0.1256474 -1.0857909
0003c0 e5 b8 58 bf 36 d0 2d bf b6 5f a2 bf 6c 66 0a 3e
       -0.84657127 -0.6789583 -1.2685459 0.13515633
0003d0 ca 07 4c be 73 f6 7a 3f 4c 46 76 3f 21 58 fd bb
       -0.19924846 0.980323 0.96201015 -0.007731453
0003e0 2c da 34 3f 2d 78 e2 be 20 4b 90 bf ec 82 24 be
       0.70645404 -0.44232312 -1.1272926 -0.16065568
0003f0 d9 f9 36 3f 26 00 e2 3d 3c 70 a8 3d 9b c2 0c 3f
       0.7147499 0.110351846 0.08224532 0.54984444

rnn.weight_hh_l0 f4 [256, 64]
000000 bd 21 44 bf 1a e8 4f bf f5 07 5f 3f 7c e3 d2 3f
       -0.7661398 -0.81213534 0.87121516 1.6475673
000010 06 32 b5 3e 27 99 c2 3e 96 f0 92 3f 62 ec 2f be
       0.35389727 0.3800747 1.1479671 -0.17180017
000020 62 23 64 bf a5 9b 49 40 38 17 47 bf 4d 61 b5 3f
       -0.8911649 3.1501248 -0.77769804 1.4170319
000030 d5 87 2b 3d 6f ea 38 3e 87 f3 83 3f c5 9f b3 bf
       0.041877586 0.1805818 1.0308694 -1.4033133
000040 6c fe 56 3f 34 09 e3 3d 03 58 33 3e cf fd 39 c0
       0.83981967 0.1108574 0.17514043 -2.9061162
000050 64 9f 14 3f 4f 87 1c bf 56 46 76 bf 52 78 8b bf
       0.5805571 -0.61143965 -0.96201074 -1.0896094
000060 1a d7 50 3e af f9 80 3f f7 7d 76 bf ac 8e 0b bf
       0.20394555 1.0076197 -0.9628596 -0.54514575
000070 1f 94 c6 3f 20 e6 f7 3e 84 2d 50 bd f4 6f c9 bf
       1.5513953 0.4841776 -0.050824657 -1.573729
000080 9f 22 e8 3f a0 f8 55 bf 1e 8e 59 3f 56 de 62 3f
       1.8135566 -0.83582497 0.8498248 0.8862051
000090 b7 ea ab 3d 2b 01 aa bf 0e f0 fe 3e f2 a4 dc 3e
       0.08394378 -1.3281606 0.49792522 0.43094593
0000a0 6b b9 d0 be 3a 48 a8 3f 64 7e 59 bf 62 38 78 bf
       -0.40766463 1.3147042 -0.8495848 -0.96961033
0000b0 49 e1 25 3f 70 b3 04 bf 24 d3 2f 3f 80 3a 5b bf
       0.6479688 -0.518363 0.6868155 -0.8563614
0000c0 9c d7 c1 3e 36 ca f9 3e d7 d1 74 3f 3d 93 7f 3f
       0.3785981 0.48787087 0.9563269 0.9983404
0000d0 cf 49 09 bf 26 5a ae 3f 2e d5 b8 3e 43 89 52 3f
       -0.5362825 1.3621261 0.36100143 0.82240695
0000e0 86 21 ba 3f 0b 81 44 3f 63 02 39 bf 1f 38 2e 3f
       1.454148 0.76759404 -0.72269267 0.68054384
0000f0 5d ab 3d 3f 78 5d 01 be f5 fc 5c bf bd b8 4a bf
       0.74089605 -0.12633312 -0.8632348 -0.7918814
000100 7a d4 e8 3f ae d3 13 c0 a6 20 1c be 67 9e d7 3e
       1.8189843 -2.309795 -0.1524683 0.4211304
000110 4c ce d2 3f 34 26 0a 3e a3 15 2d 3f 6d 8c af 3d
       1.6469207 0.13491136 0.6761114 0.08571706
000120 9f bd 05 40 61 0e 8d 3e 1c c3 aa 3d e9 fe e2 ba
       2.0896986 0.27550033 0.083379954 -0.0017318401
000130 dd e4 f7 3f f6 bc 5c bf a3 3e 7a bf ec da 8e bf
       1.9366719 -0.8622583 -0.97751826 -1.116056
000140 53 56 88 3f b7 40 ae be 63 6c 04 3f bf 88 c0 3c
       1.0651344 -0.34033749 0.51727885 0.023502706
000150 35 3d 80 bf 79 65 4d 3e 49 ce 5d 3d 6f b1 b1 3e
       -1.0018679 0.2005824 0.054151807 0.34705684
000160 c7 fe b7 3f 85 bf 6d bf fe c1 9b 3f bc 91 4e bf
       1.4374627 -0.9287036 1.2168577 -0.80691123
000170 c8 9d a0 3f 84 51 0a c0 b2 dc 6c 3f d4 dc 85 3f
       1.2548151 -2.1612253 0.92524254 1.0458016
000180 de 57 5b 3f eb c3 49 3e b5 0d 9f 3e fb 5f 14 3f
       0.8568095 0.19703643 0.31065145 0.57958955
000190 e3 6f 16 40 2a 55 d9 bd d0 61 92 be 49 e7 8e 3f
       2.350579 -0.10611947 -0.2859025 1.1164333
0001a0 cd f0 22 3f b1 ea c2 be e7 d9 17 bf e4 85 17 3f
       0.6364868 -0.3806968 -0.5931687 0.59188676
0001b0 e4 cc 5d 3f 01 01 bd bc 25 20 b1 3f b3 b9 9e bf
       0.86640763 -0.023071768 1.3837935 -1.2400421
0001c0 ac c1 85 bf 40 9e 9d be 09 af d1 3f d6 56 37 bf
       -1.0449729 -0.30784798 1.6381541 -0.71616876
0001d0 6c ea bc bf 18 00 91 3f 80 93 b9 3d 57 5c ab bf
       -1.475904 1.1328154 0.090613365 -1.3387555
0001e0 0f 5b 46 bf c7 d6 17 be f1 09 86 bf fa 55 37 bf
       -0.77482694 -0.14828025 -1.0471784 -0.71615565
0001f0 ca 8c 84 3e 6b 5d 10 3d 8b 24 a5 3e b3 f5 0f be
       0.25888664 0.03524534 0.32254443 -0.1405857
000200 d5 b7 2b be 2a 42 2a 3e c2 58 e0 3c 82 28 a8 3d
       -0.16769345 0.16626802 0.027386073 0.08210851
000210 97 0f 35 3e d0 1a 49 3e 58 0d ef bc 11 0e a5 bb
       0.17681728 0.19639134 -0.029181167 -0.0050370772
000220 d9 e0 55 3d 52 42 3b be 66 99 36 be de 55 09 3d
       0.052216385 -0.18287018 -0.17831954 0.033529155
000230 8c ac 34 be 93 31 0a be 75 61 4e bd 18 d3 24 be
       -0.17643946 -0.13495474 -0.05038591 -0.16096151
000240 bc 20 17 be 1a 09 b4 3c de 78 05 3e f5 8e 00 bd
       -0.14758581 0.021976996 0.13034388 -0.031386334
000250 03 c7 92 bd e3 98 65 3d 5e b0 f2 bd e0 cd e3 bb
       -0.07166865 0.056054007 -0.118500456 -0.0069520324
000260 8a 62 93 3e 2a 55 a1 be 4f 1f dd bc 50 fe 5d 3e
       0.28786117 -0.31510288 -0.026992468 0.21679044
000270 57 f4 a0 bd 33 fa 0e be 3e ec f6 3d 33 76 16 3e
       -0.07859104 -0.13962631 0.12056778 0.14693527
000280 1c 14 a4 bd a2 16 84 be ef 35 b4 be 67 1a b5 3d
       -0.08011648 -0.25798517 -0.35197398 0.088429265
000290 66 32 33 3e c3 31 4b 3e 0e 73 9e 3d 4e a8 aa 3d
       0.17499694 0.19843201 0.07736789 0.08332883
0002a0 db 62 26 3e e5 f8 8a be 2f a8 56 be d2 11 91 bd
       0.16248648 -0.27143016 -0.20962594 -0.07083477
0002b0 f9 8d 46 be 90 eb 0f bd 8e e9 ca 3e 27 37 27 3e
       -0.19390096 -0.03513676 0.39631313 0.16329633
0002c0 4e 64 e8 ba 47 4c 47 bd 44 1e a8 3a a3 c7 af 3e
       -0.0017730088 -0.048656728 0.0012826403 0.34331998
0002d0 0e 8d 35 3e 79 61 3a bd dc ef 83 3d 38 c9 97 bd
       0.1772959 -0.045503113 0.06442234 -0.07411426
0002e0 22 4c 5e 3d da 98 3b 3e 02 1a 19 be 23 cd e5 3d
       0.054271825 0.18320027 -0.14951327 0.11220767
0002f0 2a 21 10 be 75 35 61 be 98 95 99 be c0 09 fa bd
       -0.14075151 -0.21993048 -0.29996943 -0.12208891
000300 14 29 a0 3e 67 02 91 3f 5c 5a 23 bf 14 a5 c8 3f
       0.3128134 1.1328858 -0.6380975 1.5675378
000310 46 a0 c7 3d 42 0f 97 bf 46 4d 90 bf 83 15 fe be
       0.097473666 -1.1801531 -1.1273582 -0.49625787
000320 ea ea b3 bf b4 cc 13 3f e1 37 df 3e a9 3a e6 bf
       -1.4056065 0.5773423 0.4359732 -1.7986652
000330 9a 38 11 40 31 2f f9 3d b6 30 04 3f 9f eb 32 3e
       2.2690797 0.12167204 0.51636827 0.17472695
000340 74 b5 a7 3e 76 25 99 bc ef eb c5 bf 28 e2 94 3f
       0.32755625 -0.01869462 -1.5462626 1.1631517
000350 99 4e bc 3f 0a af e6 be 18 2c 7a bf 7b 32 aa be
       1.4711486 -0.4505542 -0.9772353 -0.3324164
000360 36 ff 9f 3e 2a 88 59 3f 86 70 0c 3e 83 64 01 bf
       0.31249398 0.84973395 0.137148 -0.50543994
000370 a3 86 01 3e 39 be a9 bf 55 ba fa 3f ab 4e d3 3f
       0.12649016 -1.3261176 1.9588114 1.6508383
000380 43 e1 fa 3d 03 b9 9f bf fd 64 9a bf e8 75 2c bf
       0.122499965 -1.2478336 -1.2062069 -0.6736741
000390 df 24 fc be dc 04 ea be d9 42 e1 3e ee b6 07 3f
       -0.4924688 -0.45706832 0.43996313 0.53013504
0003a0 90 f0 fe be ef f5 38 3f 01 9a 1d 3c 82 09 1d 3f
       -0.4979291 0.72250265 0.009619237 0.6134263
0003b0 27 65 ba 3f 7e c2 2a 3e 7c 12 d9 3f 6c 49 0c be
       1.4562119 0.16675755 1.6958766 -0.13699883
0003c0 bd 93 69 3e ac 0b 86 bd 16 dc f1 bf b7 df 07 3c
       0.22810264 -0.06545195 -1.889529 0.008293084
0003d0 41 34 00 3e 27 28 73 be ca 53 27 40 01 63 ee 3e
       0.12519933 -0.23745786 2.614489 0.4655991
0003e0 15 43 0c bf 57 3f 8e 3f f2 a9 af 3e f0 ec e3 3e
       -0.5478986 1.111308 0.34309345 0.44516706
0003f0 9b bb 00 3f 8c 37 05 bf f1 78 cb bf d6 3f 1f be
       0.50286263 -0.5203788 -1.5896283 -0.15551695

rnn.bias_ih_l0 f4 [256]
000000 a0 82 3d bc b2 58 2c 3f ff 22 39 3e 2e e1 5a 3f
       -0.011566788 0.6732284 0.18079756 0.85499847
000010 fa b3 15 3f f6 e3 ae 3e ca b9 9e be 1b c3 46 3d
       0.5847775 0.34158295 -0.3100112 0.04852591
000020 07 71 45 3d 76 9b f9 3c 96 bc c2 3e 73 a8 4c 3f
       0.048203494 0.030469637 0.38034505 0.79944533
000030 f2 d1 a8 3e 52 99 55 3e c0 6a 7a 3e a0 d5 dd bd
       0.32972676 0.20859268 0.24454784 -0.10831761
000040 a6 d4 42 3e b3 8b 09 3f 01 31 99 3e 54 90 2f 3f
       0.19026431 0.5372879 0.299202 0.685796
000050 9c d2 1d 3f 9b ef fa 3e a6 4d fb 3e 84 73 07 3f
       0.6164949 0.4901093 0.4908268 0.5291064
000060 79 38 b6 3e fe b6 78 3f 07 d9 4c bb 4f 8c 77 3e
       0.3558996 0.97154224 -0.0031257288 0.24174617
000070 d2 13 b8 3e ad ac 4b bd 6d 9f 21 3f 93 5f 20 be
       0.35952622 -0.049725223 0.6313389 -0.15661459
000080 79 bf 33 3f 1c 61 27 3e 3c 5d b4 3e d2 5a 5f 3e
       0.7021404 0.16345638 0.35227382 0.21811989
000090 d5 9f b0 3e 68 de 86 3e 44 d0 08 3f 9c 32 64 3e
       0.34496942 0.26341558 0.5344279 0.22284931
0000a0 08 bf 38 3f 88 2e 14 3f 0e 41 03 3f a9 42 08 3f
       0.7216649 0.578835 0.5127114 0.53226715
0000b0 b4 5f 2f 3f 9b da 4f 3f 45 38 cf 3e c0 a6 a3 3d
       0.68505406 0.8119294 0.40472618 0.079907894
0000c0 85 3e e7 bd 93 f6 bc 3e 82 a4 95 3e 4e a1 f3 3e
       -0.112912215 0.3690687 0.29227072 0.47584003
0000d0 19 18 e7 bd cc 81 b4 3e c3 26 4c 3e e8 66 08 3f
       -0.11283893 0.35255277 0.19936661 0.5328202
0000e0 10 66 54 3e 7c ea 66 3e 02 5e a2 3d d7 4c 8a bd
       0.20742059 0.22550386 0.07928087 -0.06752937
0000f0 26 e0 11 3e 0d 69 05 3f f9 32 12 3d 76 a4 a0 3e
       0.14245662 0.5211342 0.035693143 0.31375474
000100 da eb e0 3e 6f 70 dd be c5 20 8b 3e 95 d5 b1 be
       0.4392994 -0.43249843 0.2717344 -0.34733263
000110 ab d4 95 be 99 a6 07 bc 58 29 89 3e f1 be 80 3e
       -0.29263815 -0.008279466 0.26789355 0.25145677
000120 0b 54 78 3d 4f fc 35 3e fd e9 b1 3e 45 aa 35 3e
       0.060627025 0.1777203 0.3474883 0.17740734
000130 3b c6 a6 be 11 0a 13 bd d3 9b 73 be 72 61 fc 3e
       -0.32573113 -0.035898272 -0.23789911 0.49293095
000140 5c 5d e5 3c 24 65 cb be f2 37 34 3d 03 2c c4 bc
       0.027998619 -0.39725602 0.043998666 -0.023946768
000150 e5 41 62 be 52 d5 10 3e 2f 1a 84 3d 2b c0 71 3e
       -0.2209545 0.14143875 0.064503066 0.23608463
000160 f3 5e c3 be 0e af 2a 3e 9a c7 a9 3e c9 cb fc 3c
       -0.38158378 0.1666834 0.33160096 0.030858891
000170 94 e1 4c be bf 8f a1 3d 27 aa d1 3d 77 c8 90 3e
       -0.20007926 0.078887455 0.10237532 0.28277943
000180 5f 4e e1 3e c4 c3 b0 3d 5e 1c 0d 3f e7 82 35 3e
       0.44005105 0.08631089 0.5512141 0.17725717
000190 59 73 bb 3e 2b 44 14 be 10 2d f2 3e 63 10 60 3e
       0.3661144 -0.14479129 0.47300005 0.21881251
0001a0 4a 20 32 bf c6 43 cc be 9e 47 d4 be c3 b6 34 bf
       -0.6958052 -0.39895457 -0.4146089 -0.7059137
0001b0 85 0d fd 3e 0a 3a a5 3e ac ce b7 be 80 65 c4 3e
       0.49424377 0.32270843 -0.35899866 0.38358688
0001c0 b2 11 f4 3e df 23 fd bd 2b c5 4b be ef 48 47 be
       0.4766975 -0.123603575 -0.19899432 -0.19461416
0001d0 6e bf 7e 3e 18 a7 5d 3e 1e 87 6e 3e 0f 46 a5 3d
       0.24877712 0.21645772 0.2329373 0.08070003
0001e0 b3 ea b2 3e d8 9b 66 bf 89 7e 74 3e 48 83 08 bf
       0.34944686 -0.9008155 0.23876394 -0.5332532
0001f0 e2 a2 d1 3e 3b 53 ac 3d 60 4d 96 3d 17 3b c4 bd
       0.40944582 0.084143125 0.07338977 -0.09581583
000200 70 79 e8 3e 63 16 3b be bc 17 b9 3b 58 8d 9f 3e
       0.4540515 -0.18270259 0.0056485813 0.31162524
000210 a3 d8 f5 3e c4 8b 9e 3d b8 13 cf be 54 69 70 bd
       0.48016843 0.07741502 -0.40444732 -0.0586942
000220 5e b4 22 3e da c7 21 3f 62 d4 96 3f 66 86 ef 3d
       0.15889117 0.63195574 1.1783564 0.11695556
000230 66 9f 8a 3f a2 e3 2a bf d0 45 1c bf 63 d4 84 3e
       1.0829895 -0.6675359 -0.61044025 0.25943288
000240 2d 5b 57 bf 6e 7a 88 3e 46 2c 03 3f 41 fb 16 bf
       -0.841235 0.26655906 0.5123943 -0.58977133
000250 3c cd 01 3f 27 3a 34 3f 2e 68 1a bf f3 aa fd be
       0.5070379 0.70401233 -0.60315216 -0.49544486
000260 36 da 02 3f f0 ea 8a bf d2 7d 06 be 9e 3c 1a be
       0.51114213 -1.0852947 -0.13133934 -0.15062186
000270 76 f6 7b bd 72 03 51 3c c9 28 07 3f 83 23 02 3f
       -0.06151434 0.012757169 0.5279661 0.50835437
000280 37 1f 84 3f 5d 9d 00 bf 2d 79 d6 be 3f 91 0b 3f
       1.0322026 -0.5024012 -0.41889325 0.545185
000290 32 4d ea 3e d8 d7 ab be f3 f0 37 bf c9 13 4c 3e
       0.4576202 -0.33563113 -0.71852034 0.19929422
0002a0 90 a5 17 3e f6 d3 18 be c5 cc ac be 33 e6 aa 3e
       0.14809251 -0.14924607 -0.33749977 0.33378753
0002b0 4b a1 71 3f 7e 83 76 bf d6 1a 3b 3f aa f3 6a 3f
       0.9438674 -0.9629439 0.73087823 0.9177805
0002c0 c1 33 97 be a0 5f 11 3f 28 2f f0 be 18 86 a5 be
       -0.29531673 0.5678654 -0.46910977 -0.32328868
0002d0 42 e6 0f 3f 82 7e 82 bf e6 35 8a 3f c5 c1 9b be
       0.5621072 -1.0194857 1.0797698 -0.30421272
0002e0 7c bb 96 3e 90 7f ad bd 8c 55 3b be a5 bf 1b 3f
       0.29439914 -0.08471596 -0.18294352 0.608393
0002f0 1d 45 c2 be 4b 43 25 bf ab 74 e6 bb ef 3e 40 bf
       -0.37943354 -0.64555806 -0.007032951 -0.7509603
000300 98 df d1 3d 04 ef bc 3e c0 82 99 3e c0 0c 2b 3f
       0.10247725 0.36901104 0.29982567 0.6681633
000310 9c 4d 02 3e b5 3b dd 3e 82 dd 63 3e b9 d8 0f 3f
       0.12724918 0.43209615 0.22252467 0.5619007
000320 c3 3e f0 be 3f 73 b2 be 96 68 ea 3e c7 49 7c 3e
       -0.46922883 -0.3485355 0.45782918 0.24637519
000330 72 20 00 3e 97 81 c6 3e a5 b8 04 bf f0 59 18 3f
       0.12512377 0.38770744 -0.51844245 0.59512234
000340 9b b8 de be 24 99 15 3f 12 25 64 3e 3b 84 58 3b
       -0.43500218 0.584368 0.22279766 0.00330378
000350 7f 3c 50 bd b3 d5 a3 3d 2d ad 49 3e 9d 1c b4 3e
       -0.050838944 0.07999744 0.19694968 0.3517808
000360 23 18 fa 3e a3 f3 4d be 72 39 a6 bd 69 2c 17 be
       0.4884654 -0.20112471 -0.081164256 -0.14763035
000370 d4 2e f9 3e a4 a4 29 be eb 4f 5a 3d 42 bc 55 3e
       0.4866854 -0.16566712 0.053298872 0.20872596
000380 fa ab 85 3e 98 d5 04 be 9e 33 22 3d b1 b9 31 3e
       0.2610777 -0.12972105 0.039600007 0.17355992
000390 46 ad 07 3e 19 f8 ca 3d b2 b3 48 3e d2 83 bb 3e
       0.13249692 0.09910602 0.19599798 0.36624008
0003a0 86 72 06 3f df 63 e1 be 80 a7 a5 3d fb 33 55 3f
       0.525185 -0.44021508 0.08088589 0.8328244
0003b0 3f e6 56 3e 09 97 81 3d cf a6 ab 3e 42 fe eb 3e
       0.2098627 0.06327636 0.33525702 0.4609242
0003c0 8f 70 fb 3e bf c4 af 3e 90 d0 8e 3d ac ce b5 3e
       0.49109313 0.34329793 0.06973374 0.3550924
0003d0 46 34 2b 3f c5 c1 ac bd 78 09 8d 3e 6c d5 00 3d
       0.6687664 -0.08435396 0.27546287 0.031453535
0003e0 b5 6a 66 3e b2 e3 19 3f de dc d8 bd e2 59 36 3f
       0.22501643 0.6011306 -0.10589002 0.712309
0003f0 99 bb b0 be f8 4d bd 3f a1 c7 2f be cc 8d 2c 3e
       -0.34518126 1.4789419 -0.17165996 0.16850966

rnn.bias_hh_l0 f4 [256]
000000 68 8d 12 3e 2e 89 1c 3f eb 1c 27 3e 42 11 6c 3f
       0.14311755 0.6114682 0.16319625 0.92213833
000010 e4 a6 d5 3e 54 e5 88 3e 5d 07 68 be 23 17 53 3d
       0.4172889 0.26737463 -0.22659059 0.051535737
000020 fd 84 60 3e 84 97 2e 3e f0 05 57 3e da 74 5c 3f
       0.21925731 0.17049986 0.20998359 0.861158
000030 50 50 b7 3e 2b 2c 2b 3e 8c 61 93 3e 6c 50 28 3d
       0.3580346 0.16716067 0.2878536 0.04109232
000040 cf 0c 4a 3e ac 2a fa 3e 66 71 80 3e 86 8a 31 3f
       0.19731449 0.4886068 0.25086516 0.69351995
000050 3b 3e 1e 3f 93 70 13 3f 2d 7e cd 3e aa 39 02 3f
       0.61813706 0.5759365 0.40135327 0.5086924
000060 47 8c a8 3e 2a f1 8a 3f d5 e5 41 be af 08 18 3e
       0.32919523 1.0854847 -0.1893533 0.14847063
000070 b1 ad ef 3e 59 54 5e 3d 44 8e 2b 3f 4f 59 1e be
       0.46812204 0.05427966 0.67013955 -0.15463756
000080 48 60 5c 3f 94 8b a0 3e 1c 9c 5b 3e 85 9c 0d 3e
       0.86084414 0.3135649 0.2144627 0.13829239
000090 63 0a a4 3e d9 c3 99 3e ac 06 46 3f ed f9 10 3e
       0.32039174 0.30032232 0.7735393 0.14157839
0000a0 01 2f 00 3f 84 20 19 3f 26 da bf 3e b6 01 ca 3e
       0.5007172 0.5981524 0.37471122 0.3945443
0000b0 50 96 39 3f f3 5a 3f 3f 41 12 a2 3e 42 98 5c 3e
       0.72494984 0.7474815 0.31654552 0.21542457
0000c0 e7 5a de bd 46 40 d7 3e b4 a6 85 3e 35 74 07 3f
       -0.10857182 0.42041224 0.26103747 0.5291169
0000d0 66 d0 9f bd 43 0c ad 3e f3 32 0d 3e 94 68 13 3f
       -0.07803421 0.33798417 0.13788967 0.5758145
0000e0 1d ee 86 3e bc 4f 89 3d df de 56 3d 17 45 a6 bc
       0.2635354 0.06704661 0.05245864 -0.020296616
0000f0 17 e3 b5 3d 8b 2e dd 3e 5c ee fc 3d 75 1d bb 3e
       0.088812046 0.43199572 0.12350151 0.3654591
000100 72 20 b6 3e 16 df df be 36 2e a2 3e d5 e5 e9 be
       0.3557163 -0.4372489 0.3167588 -0.4568316
000110 cd bc 82 be a6 ab c6 3d 04 c9 b5 3e 98 03 89 3e
       -0.2553467 0.09700708 0.35504925 0.26760554
000120 f0 5c b5 3d d8 98 92 3d 65 ad 4b 3e 58 94 40 3e
       0.08855617 0.07158059 0.19890364 0.18806589
000130 4a fe 9f be 42 2b 9e 3d 1c d7 35 be 06 2e ce 3e
       -0.31248695 0.077230945 -0.17757839 0.40269488
000140 09 9b 44 3e cd 25 c9 be 2e 09 8b bd ae 01 87 3c
       0.19199766 -0.39286652 -0.0678886 0.016480293
000150 5e f4 db bd 4c d1 29 3d f2 53 05 3e b4 94 59 3e
       -0.10739969 0.041459367 0.13020304 0.21248132
000160 8e 4a 97 be 13 03 d0 3b 70 cf d9 3e c9 57 a8 3c
       -0.29549068 0.0063480227 0.42541075 0.020549672
000170 09 23 4a bd da 19 02 3e 95 64 bb 3d 4a ff f7 3e
       -0.04934982 0.12705174 0.09150044 0.48436958
000180 b1 51 af 3e a1 69 78 3d 0a bb 15 3f cc a6 23 3e
       0.34242013 0.06064761 0.58488524 0.15981597
000190 2b d9 e4 3e c7 00 8c 3d e2 19 1a 3f 3a 1f 97 3e
       0.44696936 0.06836086 0.60195744 0.2951601
0001a0 ff 3b 24 bf de 0a 16 bf 08 db e7 be 17 1d 2c bf
       -0.64154047 -0.5861033 -0.45284295 -0.6723189
0001b0 1a 98 0a 3f 0b 7b d1 3e 5b 74 bf be 30 53 da 3e
       0.5413834 0.40914187 -0.3739346 0.42641592
0001c0 8d 59 f3 3e 60 c5 a8 bd a4 82 29 bd 63 d0 18 bd
       0.4752926 -0.08240771 -0.041384354 -0.037308108
0001d0 03 83 9e 3e bd 9e 7d 3e 71 b8 4b 3e fd a8 b8 3d
       0.3095933 0.24767585 0.19894578 0.09016607
0001e0 6f 80 57 3e 30 63 33 bf 50 43 28 3e 2a 71 ad be
       0.21045087 -0.70073223 0.16431928 -0.338754
0001f0 93 88 8d 3e 95 99 11 3d 0e 2e 1c 3e 1d c1 0d b9
       0.2764326 0.035546858 0.15251943 -0.00013518748
000200 c8 4c cd 3e be fd c9 be 82 6f ca 3c 61 72 db 3e
       0.40097642 -0.39451402 0.024711374 0.42860702
000210 ca 2e f4 3e 18 cb cf 3d 7d 41 07 bf 9c 4b 0b be
       0.47691947 0.10146159 -0.528343 -0.13603061
000220 9f b2 f3 3c a1 48 42 3f c0 63 96 3f 09 fd 40 3e
       0.02974826 0.7589207 1.1749191 0.18846525
000230 fa ac 7d 3f 9d 5a 49 bf b9 c3 dc be d7 3e 3c 3e
       0.99092066 -0.7865389 -0.43118075 0.18383346
000240 1d db 4e bf 21 60 35 3e 2b 11 f5 3e 23 12 bd be
       -0.8080309 0.17712452 0.4786466 -0.369279
000250 c6 81 11 3f b5 d8 3c 3f e6 29 15 bf 94 18 15 bf
       0.56838644 0.7376817 -0.58267057 -0.5824063
000260 9c 5a ef 3e a6 99 89 bf 5d 44 37 3c 3b bc c5 bc
       0.46748817 -1.0750015 0.011185733 -0.024137607
000270 8a 49 a6 bd 4d 96 a4 bd a8 c7 14 3f 93 c8 d2 3e
       -0.08119495 -0.0803648 0.5811715 0.4116865
000280 0e d8 7e 3f 89 7b df be 5e 6d e9 be eb 6f f2 3e
       0.99548423 -0.43648937 -0.45591253 0.47351012
000290 80 c9 04 3f 4e b9 9a be 6e aa 17 bf bd 80 8b 3e
       0.51869965 -0.302195 -0.5924443 0.27246657
0002a0 3b 97 4f 3e 13 35 ef bd 11 64 bc be 8c d5 23 3e
       0.20272534 -0.11680045 -0.36795095 0.1599943
0002b0 1c 8e 59 3f 2d c1 5e bf 76 32 58 3f 5c 47 70 3f
       0.84982467 -0.8701351 0.84452 0.93858886
0002c0 a0 1e 65 be 3f 75 11 3f 82 81 b4 be 8c e0 95 be
       -0.22374964 0.5681953 -0.35255057 -0.29272878
0002d0 76 cd 02 3f 92 58 7c bf 65 c5 84 3f 52 e0 91 be
       0.5109476 -0.9857265 1.037274 -0.28491455
0002e0 85 7e 31 3e ff 86 4b bd cd b9 6c be 0c ca 1e 3f
       0.1733342 -0.04968929 -0.23117752 0.6202705
0002f0 51 c4 12 bf 40 eb 01 bf 79 9a e8 3a 8c 05 53 bf
       -0.57330805 -0.5074959 0.0017746232 -0.8243034
000300 2a b3 51 3e e1 9d b8 3e 77 88 17 3e 61 39 4c 3f
       0.20478502 0.36057952 0.14798151 0.79775053
000310 cd 9f 64 3e 58 4a 02 3f 02 76 a8 3e 74 04 0e 3f
       0.22326584 0.5089469 0.32902533 0.55475545
000320 d8 b1 08 bf 1f cf 5f be f7 15 c0 3e c7 4c ac 3e
       -0.5339637 -0.21856354 0.37516758 0.33652326
000330 ff 44 1e 3d 02 8f ac 3e a3 fe f2 be 75 f4 04 3f
       0.03864002 0.33702856 -0.47459897 0.5193551
000340 eb 3f d6 be 44 51 0c 3f 51 e0 71 3e 33 20 5f 3d
       -0.4184564 0.548115 0.23620726 0.054474067
000350 ee eb 6c bd 2f ac 36 3e 7b 91 4b 3c c2 73 ba 3e
       -0.057842188 0.1783912 0.012424822 0.3641644
000360 40 15 00 3f 67 e9 7d bd 7f 07 01 3d d1 16 33 be
       0.50032425 -0.061990168 0.03150129 -0.17489173
000370 e5 ef 05 3f f8 f2 ba bd 26 05 b6 3c 38 2d 4e 3e
       0.52319175 -0.09128374 0.022219252 0.20134437
000380 10 c8 ad 3e 9e f9 6a be ee 6c f7 3d 68 5a 3f 3e
       0.33941698 -0.22946784 0.120813236 0.18686831
000390 5b 54 48 3d de 8a c7 3d f3 bd 8d 3e c3 51 c0 3e
       0.048908573 0.09743284 0.27683982 0.3756238
0003a0 9e 76 0b 3f 5d a9 c9 be a1 68 7d bd 5c 07 59 3f
       0.5447787 -0.39387026 -0.06186736 0.84776855
0003b0 e8 5d 84 3e bb 36 3a 3d 07 5a b7 3e 54 90 ff 3e
       0.25852895 0.04546235 0.35810873 0.499148
0003c0 5f 43 e4 3e ef 2a 4c 3e 36 ee 0d 3c 52 21 f4 3e
       0.4458265 0.19938253 0.008662751 0.4768167
0003d0 f8 94 14 3f e6 85 aa bc 8f 63 a7 3e 0c 9e 8b bc
       0.5803981 -0.0208158 0.32693145 -0.017043136
0003e0 2f 5a 67 3e 57 58 2a 3f e0 9c dc bd 6e 2b 1d 3f
       0.22592996 0.66541046 -0.10772109 0.61394393
0003f0 fc 12 be be 4b e1 b8 3f 76 7b ad bd 50 58 98 3e
       -0.3712386 1.4443754 -0.08470814 0.29754877

rnn.weight_ih_l1 f4 [256, 64]
000000 60 6f 2a 3e a8 e7 ba bd 2d 65 b4 be ae 0d 1b bf
       0.16644049 -0.09126216 -0.3523344 -0.6056775
000010 c0 03 87 3d 1b 26 03 bf b8 56 5b 3d 35 d7 d4 be
       0.06592512 -0.5123002 0.0535495 -0.4157044
000020 dc 2e ba 3f 94 c5 23 3f 0f 11 2f 3e 6b d7 45 3f
       1.454555 0.63973355 0.17096351 0.77281827
000030 4a 6d 15 bf ba 4e ce 3e e8 4e 55 bd 24 bf 3c 3d
       -0.58369887 0.4029444 -0.052077204 0.046080723
000040 46 b0 bc 3f d0 17 0d 3e 17 6e 03 3e 38 75 b9 be
       1.4741294 0.13778615 0.12834965 -0.36222243
000050 82 5c 1d bf 2e 82 04 3e 0a c3 ec bd 8e e3 68 bf
       -0.6146928 0.12940285 -0.11560638 -0.9097222
000060 d0 fd 05 3f 9d 6a b6 be 36 c5 3e 3e ec 85 77 be
       0.5234041 -0.35628214 0.18629918 -0.24172181
000070 42 a4 8f 3f 59 b8 8f 3f d6 1c 58 3f d2 75 3c bf
       1.1222003 1.1228133 0.84419 -0.7361728
000080 5c 15 19 3f 77 73 54 3f 77 5b 6c 3f b1 30 4e 3f
       0.59798217 0.82988685 0.92327064 0.8054305
000090 bb 88 84 bd 63 79 50 bf 5c 9d d7 bd dd 25 4d be
       -0.06471392 -0.8143522 -0.10528061 -0.20033975
0000a0 4f 2d 7e be 42 65 30 be 42 fd 0f 3e 1b 0a b1 3d
       -0.24821971 -0.17226127 0.14061454 0.086445056
0000b0 3b 11 49 3e 14 41 ca 3e ec 04 35 3e 5b 8b 0b bf
       0.19635479 0.39502776 0.17677659 -0.54509515
0000c0 4b c2 b1 3c 31 86 51 3f d7 78 35 3f d8 10 09 3f
       0.021699091 0.81845385 0.7088751 0.53541327
0000d0 37 6b 2a 3f ed fe 8d be df 26 33 bf 30 83 42 be
       0.66569847 -0.27733555 -0.6998119 -0.18995357
0000e0 41 16 a8 be 40 a6 2a be 0a fa a1 3e d6 8e 36 bf
       -0.32829478 -0.16664982 0.31636077 -0.713117
0000f0 54 5e dd 3e 0b 0b b4 bf 59 a9 1b 3f a2 fa 9c 3e
       0.4323603 -1.406587 0.6080528 0.30659968
000100 e4 16 04 3d 60 28 94 3d 76 4d 2c bd fc 6c 33 3d
       0.032248393 0.072342634 -0.04206606 0.043805107
000110 27 8d a9 3c 05 44 27 be 75 a5 50 3d bf 83 ec bd
       0.02069719 -0.16334541 0.050939042 -0.11548566
000120 ce c5 db 3d 6f 1d 2d 3e 23 8b 1b 3c 96 e7 c2 bc
       0.107310876 0.1690576 0.009493622 -0.02379207
000130 a4 c4 d0 3d 44 c9 98 bd b1 24 29 be 01 47 ad 3d
       0.10193756 -0.07460263 -0.16517903 0.084608085
000140 00 35 92 bd 64 f2 d3 ba 9a aa ef 3d c2 8d 0f be
       -0.07139015 -0.001617026 0.117024615 -0.1401892
000150 e2 1c 11 be 75 fb ab bb 6a a2 e0 bd bb a7 d6 bd
       -0.14171174 -0.005248482 -0.10968478 -0.10481211
000160 a0 7e a0 3c 68 9c 9f bd 5d 2a 0e be 14 38 bd 3d
       0.01959163 -0.07793504 -0.13883348 0.09239212
000170 f4 8a 84 bc 0d 19 46 be 0e 6d 84 3d b9 63 66 3d
       -0.01617954 -0.19345494 0.06466113 0.056247447
000180 09 28 78 3d b3 73 a6 3b f5 a8 15 3d 2e 7f 72 bd
       0.060585056 0.0050797104 0.036538083 -0.05920332
000190 b5 e2 aa 3d 56 b5 54 3c 58 c0 f3 3b 3f f8 7e 3b
       0.08344022 0.012982687 0.0074387006 0.003890529
0001a0 ea 1f a7 bd 4d b1 b8 3d c4 f5 2b be 73 72 4e bd
       -0.08160384 0.090181924 -0.16792971 -0.050402116
0001b0 14 a0 11 3e 6d 0b 22 bd f3 eb 59 3d 92 2d b5 3d
       0.14221221 -0.039561678 0.053203534 0.088465825
0001c0 c0 79 7e 3c 2c 8f 6e 3b 2b 6a 58 bd c4 bd 42 3d
       0.015531957 0.0036401255 -0.052835625 0.047544256
0001d0 df 8a 35 bd 9c 55 28 be 33 17 22 3e 6b 58 88 bd
       -0.04432189 -0.16438907 0.15829162 -0.066574894
0001e0 75 eb 34 3e 87 69 c1 bc a1 d2 ff bd 09 11 28 bc
       0.17667945 -0.02360989 -0.12491346 -0.010257968
0001f0 8c 50 50 be 5e 1f 1d 3b d6 c7 e6 bc 92 31 b8 bd
       -0.20343226 0.0023974995 -0.028171461 -0.0899383
000200 5f 1a fd be 8f d0 07 3e ac 4d 36 3f 45 ed 40 3f
       -0.49434182 0.13263153 0.7121227 0.75362045
000210 9e be a2 be b7 57 aa bf 89 94 51 be cb ce 8a be
       -0.31786054 -1.3308018 -0.20466818 -0.27110896
000220 3e 75 d1 3f b2 e7 22 bf f9 89 53 3e 0d 4a 9c be
       1.6363904 -0.6363479 0.20658101 -0.30525246
000230 76 63 4c 3f 22 26 e3 bf 18 df 2b bd 0b b8 ba bd
       0.79839265 -1.7746012 -0.041960806 -0.09117135
000240 0a bc 8b 3f c9 b3 ec 3e dd 24 7e bf 93 fc 89 3f
       1.091676 0.46230915 -0.99275 1.0780205
000250 63 09 1f 3f d5 35 03 be 7d fb 98 3f 6a ef c5 3e
       0.621237 -0.12813504 1.1951748 0.3865922
000260 28 28 9b bf 59 85 09 3f 5f 0a eb be bc af 79 3f
       -1.212163 0.537191 -0.4590635 0.97533774
000270 b4 ad 34 bf 52 a3 39 3f ae c2 4d 3f f0 ad d8 3f
       -0.7057755 0.7251483 0.8037518 1.6928082
000280 65 ad ee 3e 9f 3f 25 bf ba 75 1f c0 e1 b5 8d 3e
       0.46616665 -0.64550203 -2.4915605 0.27677825
000290 33 bb 97 3e 35 13 30 3d 77 86 d4 3d 89 91 ea be
       0.2963501 0.042987067 0.1037721 -0.4581416
0002a0 e0 fc c5 3d 3a 60 b5 bd 97 70 f6 be 47 ee 45 bf
       0.09667373 -0.088562444 -0.48132774 -0.7731671
0002b0 75 45 61 3f 3c 3e d2 bc c2 0c ab bd 86 37 5b 3e
       0.8799661 -0.025664441 -0.08352043 0.214079
0002c0 63 ae a4 be 53 a3 2b be 72 69 b5 3e a0 5d a1 3f
       -0.32164297 -0.16761522 0.3543201 1.2606697
0002d0 c9 70 20 bf 08 47 40 bd 64 80 a0 be 49 c7 6a bf
       -0.62672096 -0.04694274 -0.31347954 -0.91710335
0002e0 74 18 3e bf 81 0d 0c c0 71 18 65 3f 43 31 8c bf
       -0.7425606 -2.1883242 0.8949042 -1.0952533
0002f0 eb ba 3c bf c8 f5 1e be a0 c6 bc be dc 10 e9 3d
       -0.73722714 -0.15523446 -0.3687029 0.11380169
000300 ae f3 37 3f 0f 34 59 3f d7 57 67 3f 42 f3 5c 3e
       0.718562 0.8484506 0.9036841 0.2157717
000310 c1 45 16 c0 a8 f0 a3 be 14 43 c0 bf 82 90 a6 3e
       -2.3480074 -0.32019544 -1.5020471 0.32532126
000320 19 bd 77 be df d2 4e bf 9f eb cf 3f f2 c3 05 3e
       -0.24193229 -0.80790514 1.6243781 0.13063028
000330 e4 d3 ba 3f af a8 7e bd 86 3f bb 3f 4d bc 3c bf
       1.4595914 -0.062172588 1.4628761 -0.73724824
000340 7c e7 db 3e f2 de 0c bf 22 c1 fd 3e 63 c6 14 be
       0.42950046 -0.5502769 0.4956141 -0.14528804
000350 97 59 20 bd d5 e4 14 bf c0 4a 92 be 9b df ac be
       -0.03914794 -0.5816167 -0.28572655 -0.33764347
000360 a5 04 c6 be 7f e6 61 be 98 ad ef 3d 24 ff 1b be
       -0.38675418 -0.22060584 0.11703032 -0.15234047
000370 04 86 1c bf 95 37 57 3f be 89 a6 3f 58 b0 3a 3e
       -0.6114199 0.84069186 1.3010786 0.18231332
000380 30 41 40 3f d2 4d 69 3f 8a 28 cb bf c3 44 e6 be
       0.7509947 0.9113437 -1.5871747 -0.44974336
000390 f0 42 1f 3f db ae 43 3f 44 5d e0 3e 9c 64 3e 3e
       0.62211514 0.76438683 0.43821156 0.18593067
0003a0 52 10 14 bf 85 72 d3 bf bf ca f0 3e b0 0f 52 3f
       -0.578374 -1.6519324 0.47029683 0.8205519
0003b0 c1 5e 83 3e d2 b9 c4 bc 1d ea 6e 3f e8 2a 7f bf
       0.2565823 -0.024014387 0.9332598 -0.99674845
0003c0 91 73 38 be 74 2e 56 be 1a ff bb 3e f9 d0 81 3f
       -0.18012835 -0.20916158 0.36718065 1.0141898
0003d0 20 5c 7e 3f df 4f 32 3f 21 d1 04 3f 21 ea 93 3f
       0.9935932 0.69653124 0.51881605 1.1555825
0003e0 99 0f 7d bf 00 3a 5f be 23 2d 0b 3e 2e a9 7f bf
       -0.98851925 -0.21799469 0.13591437 -0.9986752
0003f0 b2 7a 8c 3e 6e 0c 17 bf 2d cd 11 bf 73 cc b6 3f
       0.2743736 -0.5900334 -0.569537 1.4281143

rnn.weight_hh_l1 f4 [256, 64]
000000 99 29 e1 bf 91 2c 9e bd e5 fd ce 3f 1e 8a 7a 3e
       -1.759082 -0.07723344 1.6171232 0.2446675
000010 6c 48 06 3c 5e 45 f3 be ae a7 a2 be 1b 5d e0 3f
       0.008195978 -0.4751386 -0.31768554 1.7528414
000020 e0 14 eb 3e 09 e0 dd bc 74 ce e9 3f 41 7b d3 3e
       0.45914364 -0.027084367 1.826613 0.41304973
000030 34 a6 7e 3d 61 8b 4d 3f 9f a6 33 40 f7 2d 93 bf
       0.062170222 0.802908 2.8070447 -1.1498402
000040 b1 0f 8e 3d fc 41 49 3e 51 94 ac 3f 9f 55 d3 bd
       0.06936587 0.19654077 1.3482763 -0.10319065
000050 3c ea 46 3f 82 90 01 3f 6a 23 4f 3f 8e 69 0e 3f
       0.77701163 0.50611126 0.8091341 0.55629814
000060 18 7b 20 3f 0a d6 69 3f 87 4f 01 40 88 38 b5 bc
       0.62687826 0.9134222 2.020479 -0.022121683
000070 61 00 b0 3f a4 49 13 40 b6 6f c1 3e 1e da ba 3f
       1.3750116 2.3013697 0.3778054 1.4597814
000080 41 03 3c 3f a5 4f 25 bf 4b a9 8c be cb 1d d6 3f
       0.73442465 -0.6457465 -0.2747291 1.6727842
000090 68 90 86 3f f2 ed 1a 3e f5 62 a8 3e 38 e7 a8 be
       1.0512819 0.15129831 0.32887998 -0.32988906
0000a0 6d e4 c4 3f 94 ac 95 bf 5c 5f d3 3e 56 75 97 bf
       1.538221 -1.1693292 0.4128369 -1.1832683
0000b0 8b a4 a9 3e c6 f2 1c bf 03 c9 5b 3f 12 09 4d 40
       0.3313335 -0.6130794 0.85853595 3.2036786
0000c0 c3 9b a3 bf 42 ee 68 3f 95 33 c6 3e 62 34 bf bd
       -1.278191 0.9098855 0.3871123 -0.09336163
0000d0 98 1c fd 3e 9c b0 1b 40 59 45 26 3f 98 1a 1c 3f
       0.49435878 2.4326544 0.64949566 0.6097808
0000e0 5f a9 ce 3d a3 54 c8 3f 20 77 83 bf ad 28 0d be
       0.10090899 1.5650829 -1.0270729 -0.13785048
0000f0 b7 0a f3 3f 72 ac 94 bf 7e f7 80 3e 2e 9a 86 3e
       1.8987645 -1.1615126 0.25188822 0.26289505
000100 d1 ec b5 bd 58 11 6b 3d ef f4 ac 3d 3e 02 cf 3d
       -0.0888306 0.057389587 0.08445155 0.101078495
000110 b0 c2 41 3d 9d 8b 55 bd e9 1c fe bd c2 b8 5e 3d
       0.04730481 -0.0521351 -0.12407858 0.054375418
000120 7f 3d 17 be 6d 49 21 bc 09 84 24 3e 39 d3 5d 3d
       -0.14769553 -0.009844166 0.16065992 0.054156516
000130 e9 4a 23 be 14 cd 0d 3c 5f 92 54 bd 44 a1 0e bd
       -0.15946545 0.0086548515 -0.051897403 -0.034821764
000140 90 60 a8 bd 65 01 5f 3d e3 bf 80 bd 65 ba 0f be
       -0.08221543 0.05444469 -0.062865995 -0.14035948
000150 e8 5e 60 bd fc c7 97 3d 01 82 b8 bd e9 74 04 3e
       -0.05477801 0.07411191 -0.09009171 0.12935223
000160 19 fc a7 3d fb c5 91 bd fc fb 77 bd 6c 47 e5 3d
       0.08202381 -0.0711784 -0.060543045 0.11195263
000170 ad 17 7b 3d 77 b3 b6 3d 98 34 0e 3e 3a e8 21 3e
       0.061301876 0.08920949 0.1388725 0.15811244
000180 65 c6 49 3c 04 8f 10 bd 89 fb a6 3d 70 0f 80 3d
       0.012315367 -0.03529264 0.08153445 0.062529445
000190 9e 1e 87 3d 72 5c 12 be 2d 96 9e bb f4 c8 90 bd
       0.06597637 -0.14293078 -0.0048396797 -0.07069579
0001a0 1c c5 07 3d a4 eb cc 3d 8d f5 32 3e 8e ed c3 3b
       0.033146963 0.100058824 0.17476483 0.0059792465
0001b0 ac 41 c2 3d 37 20 82 3d d2 42 d2 b8 55 7e 73 bc
       0.09485182 0.06353801 -0.000100260266 -0.014861663
0001c0 f4 8f c0 bd 4c 49 00 bd 21 7e f8 bb c7 80 5e bc
       -0.09402457 -0.0313199 -0.007583395 -0.013580508
0001d0 da ba d3 3d 23 32 37 ba 8a 71 f3 3d 72 73 f6 3d
       0.103383735 -0.0006988367 0.1188689 0.12033738
0001e0 07 4c eb bb 2b 38 c6 3d 07 35 0f be 2c 04 25 bd
       -0.007180694 0.09678682 -0.13985072 -0.04028718
0001f0 d3 40 99 bd 81 48 f1 bc f5 59 b6 bd d5 f2 f6 3d
       -0.07483067 -0.029453518 -0.08903877 0.12058035
000200 4e 9e 0f bf ea 44 74 3f 0c f8 a1 bf ea d9 18 3f
       -0.5610093 0.95417655 -1.2653823 0.5970751
000210 23 f8 ec 3f 05 f5 a6 3e 3e 0d c1 bd ae 63 e9 bd
       1.8513225 0.3260881 -0.09426354 -0.113959655
000220 23 0c d8 3f 2e 75 fc 3d fb 1a 66 3f 27 c5 72 3f
       1.6878704 0.12327038 0.8988492 0.9483208
000230 c1 8c 86 3f 54 83 10 bf 9a 89 20 bf 16 9d bc bf
       1.0511705 -0.5645039 -0.62709963 -1.4735439
000240 f4 3f 88 3f ea bc d2 bf c9 90 ef 3e 8a f1 49 bf
       1.0644517 -1.6463902 0.4679015 -0.78884184
000250 1b cc 5a 40 11 f4 b3 be c9 9c 4e bf 2d 77 ac 3e
       3.4187076 -0.35147145 -0.80707985 0.33684674
000260 4c 3c 99 3f 66 f3 36 3f ca b0 6a 3f 6c 78 23 bf
       1.1971526 0.71465147 0.9167601 -0.63855624
000270 6a bd 30 c0 06 11 3d bf dd c4 e9 be b1 72 4a bf
       -2.761561 -0.738541 -0.45658007 -0.79081255
000280 b5 4d 93 3f 81 8a 84 3f 32 14 b6 3f 8b d4 85 40
       1.1508089 1.0354768 1.4224913 4.182195
000290 b0 b0 fb bf af ef 2b 3f 17 f3 61 bf 8e af 3c 3f
       -1.9663296 0.67162603 -0.8826155 0.73705375
0002a0 04 bb 26 c0 e9 6c 0c be 77 9e 92 3f c0 a1 0d 3f
       -2.6051645 -0.13713421 1.145461 0.55324936
0002b0 e5 6d c9 bd 84 46 b4 bf 15 cc 18 c0 c7 cc 20 3f
       -0.09835414 -1.408402 -2.3874562 0.62812465
0002c0 ce 65 1a bd f1 a7 77 bf 13 00 c7 3d 6a c2 f3 3d
       -0.037694745 -0.96740633 0.09716811 0.11902316
0002d0 6c 2d bd 3e dd 9e 11 bf 7c 04 96 3e 43 81 26 40
       0.36948717 -0.5688303 0.29300296 2.6016395
0002e0 f9 d3 69 be fc d2 47 3d 1f 13 50 3e 43 30 f9 be
       -0.22834767 0.048785195 0.20319794 -0.48669633
0002f0 b2 e4 9f bf 37 77 33 3e e3 b9 9a bf db 47 c1 bf
       -1.2491667 0.17525946 -1.2087978 -1.5100054
000300 78 23 12 bf 54 0c 98 bd 99 2f ec 3f 4d 98 2c be
       -0.5708537 -0.074242264 1.8452026 -0.16854973
000310 cf 39 88 3f 36 46 26 bf 20 d6 91 bf e7 50 60 3d
       1.0642642 -0.64950883 -1.1393471 0.054764654
000320 6f fb d3 3d e0 34 c7 3f 11 33 74 bf 8b d0 98 bc
       0.103506915 1.5563011 -0.9539042 -0.018654129
000330 0c 12 6b bf a8 c2 27 c0 32 c7 e2 be 51 9c 2d 3f
       -0.9182441 -2.6212559 -0.442926 0.67816645
000340 30 73 f6 3e 73 f7 34 bf 09 34 27 3f 39 27 b7 be
       0.48134756 -0.7069008 0.65313774 -0.35772112
000350 72 ab 07 3f b5 bd bb 3b 5a 74 7b bf dc 6b f2 3f
       0.5299598 0.005729402 -0.98224413 1.8939166
000360 af d4 8e 3e 6b 3c 64 bf 05 3a 7b 3e 2e ca 8d 3f
       0.2789664 -0.8915469 0.24533851 1.1077325
000370 ae 14 11 c0 25 ee 24 40 30 33 b6 3e 3c 32 6b be
       -2.2668872 2.5770352 0.35585928 -0.22968382
000380 df 95 98 3e fd e8 a6 bf d1 a5 f3 3e 0a c6 da be
       0.29801843 -1.3039852 0.47587445 -0.42729217
000390 5a 40 5c bf 2d c6 ab bf dd b4 c9 3f 98 28 31 3f
       -0.8603569 -1.3419853 1.575832 0.69202566
0003a0 8b 35 58 be 1b ed 02 bf 0a 96 a3 bf de a4 b2 bd
       -0.21114175 -0.51143044 -1.2780163 -0.08722852
0003b0 de b2 0e bf 92 6d d8 3f d0 06 c1 3e 7e e2 4e bf
       -0.5574168 1.6908438 0.3770051 -0.8081435
0003c0 9c 77 4a bf 06 94 af be 6c 9a a0 3d 75 cf 0b 3f
       -0.7908876 -0.3429262 0.07841954 0.5461343
0003d0 64 3e 93 3c cf f0 a8 bf 7e ec 94 3f 31 73 54 3f
       0.017974086 -1.3198489 1.1634672 0.8298827
0003e0 51 ae b2 be cc 6b 4b 3f 02 29 35 bd 01 ee 96 3f
       -0.34898618 0.7946136 -0.04422856 1.1791383
0003f0 c9 35 32 3f fc cf 64 3e d1 b5 e2 3e 89 63 a4 bf
       0.6961332 0.22344965 0.4427934 -1.2842876
