preTrained/CharRNN_reviews_128_2_0.5.pth (torch, 999776 bytes, 11 tensors)

embedding.weight f4 [71, 71]
000000 0c 8c 60 bf 20 1c f9 be 6d c1 d0 3f 98 be ca 3f
       -0.87713695 -0.4865427 1.6309029 1.5839415
000010 8e bd 05 c0 d0 da 26 40 08 b7 af 3f 13 ca b1 3e
       -2.0896945 2.6071053 1.3727732 0.34724483
000020 a2 a5 b6 bf e9 e2 a6 be d7 81 d8 bf b0 01 0b 40
       -1.4269297 -0.32594994 -1.6914624 2.171978
000030 51 68 b7 bf 05 12 d0 3e 2d 23 82 3f 3c 58 53 bf
       -1.432871 0.40638748 1.0166985 -0.8255651
000040 0a 20 05 c0 dc 85 2a bf 59 05 55 bf 3c 40 13 c0
       -2.0800805 -0.66610503 -0.83211285 -2.3007956
000050 c9 e9 29 40 e5 a7 3b 3f 95 a9 22 3f 5c ba d8 3c
       2.654894 0.7330306 0.6354001 0.02645605
000060 40 45 20 bf 90 69 c8 3f 5c 99 57 3f 30 a6 ab be
       -0.6260567 1.5657215 0.8421838 -0.33525229
000070 ab fd 30 c0 3e 11 a2 bf 93 bd cf bf fe 61 73 40
       -2.7654827 -1.2661512 -1.6229728 3.802856
000080 13 97 c7 bf 21 b5 22 3f 54 e2 01 40 ab ac a8 bf
       -1.5592979 0.6355763 2.029439 -1.3177694
000090 a7 79 a1 40 4e 17 ab bf 51 63 da 3f d9 e8 12 bf
       5.0461 -1.3366487 1.7061559 -0.5738655
0000a0 c3 db 0a 40 93 b2 19 3e d2 58 03 40 2e 12 c1 bf
       2.1696632 0.15009527 2.0522962 -1.5083673
0000b0 9f 71 04 c0 dd dc a5 bf 5d c3 2a 40 0d ff a8 bf
       -2.069435 -1.2958027 2.668174 -1.3202835
0000c0 7f b7 e2 3f 6c 4e e3 3f 46 3d fd 3f 50 a0 96 bd
       1.7712249 1.7758307 1.9784324 -0.07354796
0000d0 04 a1 d3 3f e5 52 2b c0 59 8d 1f c0 10 d0 f6 3f
       1.6533513 -2.6769345 -2.4930022 1.9282246
0000e0 b8 30 2b bf f7 a6 83 c0 d8 64 83 bf be 31 aa 3e
       -0.66871214 -4.1141315 -1.026515 0.33241075
0000f0 75 31 35 c0 9c 17 b6 3e 0a 6f ad bf 8b 3f 3d bf
       -2.8311436 0.35564888 -1.3549511 -0.73925084
000100 66 c1 13 c0 3f 62 39 bf 1c 27 9d 3e ef bf 31 c0
       -2.308679 -0.72415537 0.306939 -2.7773397
000110 eb 08 c8 3e 07 bc 43 40 7e 4a 32 40 72 a3 a4 3d
       0.39069304 3.0583513 2.7857966 0.08038987
000120 7d 83 fd 3d 8e e8 1d bf 57 d6 1c bf 43 8c 4a bf
       0.12378595 -0.61682975 -0.61264557 -0.7912027
000130 9d 98 a6 bf 4b e5 13 3e 7a f9 3b 3f b1 76 0b 3f
       -1.3015324 0.14442937 0.73427546 0.54477984
000140 83 5a 5c 3f 3a f4 2a be 7c d8 dd 3d 01 e9 dd 3f
       0.8607561 -0.16694728 0.10832307 1.7336732
000150 a5 9c 81 3e 7a 2c 70 be 71 86 92 be a2 46 b1 3f
       0.25314823 -0.23454466 -0.28618196 1.384968
000160 47 48 6a be a7 94 a1 bd 0d ad e3 be 96 e8 d8 3e
       -0.22879134 -0.07889681 -0.44467965 0.4236495
000170 a9 21 93 3f 67 98 ad 3e de ee 5b bd 1b 99 ce 3f
       1.1494647 0.33905336 -0.0536946 1.6140474
000180 85 49 95 3e 25 2a 99 3e 78 e8 7f bf bf fd f9 be
       0.29157653 0.29914966 -0.99964094 -0.48826405
000190 55 a6 f1 3d a4 49 0b be e7 96 9a 3e 71 82 3f c0
       0.117993034 -0.1360231 0.30193254 -2.9923365
0001a0 25 31 e3 bf b3 e7 dd 3e ce 6f 58 bf e8 c7 bb bb
       -1.7749373 0.43340835 -0.845456 -0.005730618
0001b0 d3 1c e2 3e 09 60 60 3f 6e 45 93 bf 39 f9 50 bd
       0.44162616 0.8764654 -1.1505563 -0.051018927
0001c0 3d 0c 17 3f e5 48 41 be d3 e0 cd 3f ae 48 09 c0
       0.5900305 -0.18875463 1.6084236 -2.145061
0001d0 68 3a 5c bf 77 2d d4 bf 6e 59 9d 3e b3 2b af bd
       -0.8602662 -1.6576375 0.30732292 -0.08553257
0001e0 d5 a9 f6 3e 21 18 1f bf 10 23 10 3f 8b 54 b3 be
       0.48176447 -0.6214619 0.563035 -0.3502544
0001f0 32 09 9f 3e 98 8b 81 be 1a 90 46 3f 20 41 ad bf
       0.31061703 -0.25301814 0.7756363 -1.35355
000200 ed 6a 85 3f 8e 00 9e be 66 dd 8c 3f 00 99 10 bf
       1.0423256 -0.30859798 1.1005065 -0.5648346
000210 c0 1e a7 3f b0 cc 45 3f 8c 2d 19 bf aa 47 04 bf
       1.3056259 0.77265453 -0.59835124 -0.5167185
000220 f9 f9 69 bf d1 4b ca bf dc 1c 95 3f bd 23 0b c0
       -0.91397053 -1.5804387 1.1649432 -2.1740563
000230 2a 4b c6 3f 65 b4 9a 3f 92 1f c9 3f 86 b2 a9 bc
       1.5491688 1.2086302 1.571276 -0.02071501
000240 f6 8d aa 3f c2 0f 21 40 df ef b0 bf 6f 7e 83 3f
       1.3324573 2.5165868 -1.3823203 1.027296
000250 d8 15 14 40 0f 14 4b bf 06 4f 93 3f 98 47 b8 bf
       2.3138332 -0.7932748 1.1508491 -1.4396849
000260 7e 35 5b 40 f9 71 c3 3e c4 3a 0f bf 8b 88 fa 3f
       3.42514 0.38172892 -0.55949044 1.957292
000270 c6 9c 92 3f af 20 36 40 97 cc 0f c0 f9 f5 0a bf
       1.1454093 2.8457448 -2.2468622 -0.54281574
000280 40 db 76 3f dc f9 ee bf 6d f5 4f 40 b6 31 9e bf
       0.964283 -1.8670001 3.2493546 -1.235892
000290 f9 f8 b8 bd c0 1f 27 40 32 e5 15 c0 fb 0c 16 3f
       -0.09031863 2.6113129 -2.342114 0.58613557
0002a0 ad c4 7d 3f 4e 8f b8 bf 7e 0d 3b bf 6b 45 c4 3f
       0.9912823 -1.4418733 -0.7306746 1.5333685
0002b0 08 38 39 c0 0e 88 9a 3f 5c 39 54 3f ec 54 46 bd
       -2.8940449 1.207277 0.82900023 -0.04842083
0002c0 f2 01 d8 bf 1b 32 13 40 07 b0 a0 3f a4 6d 13 3f
       -1.6875594 2.2999332 1.2553719 0.57589173
0002d0 5e 86 64 c0 b5 9f e4 bd 3b 1e 9f c0 97 d2 4a c0
       -3.5707011 -0.11163274 -4.9724402 -3.1691034
0002e0 1e 53 b3 3f 95 81 c2 bf 27 05 a5 bf 15 48 64 3d
       1.400974 -1.5195795 -1.2892197 0.055732805
0002f0 a7 61 03 40 81 b7 4e 3f 85 13 d5 bf 1e 29 82 40
       2.0528352 0.80748755 -1.6646582 4.067519
000300 d8 d2 2f 40 ff 57 1c bf a3 6e 92 3e d3 67 6a bf
       2.747244 -0.6107177 0.28600034 -0.91564673
000310 9b da 2a c0 5b e2 b5 3f e1 7a c5 3f 7f af d9 bf
       -2.6695926 1.4209703 1.5428125 -1.7006682
000320 7e 3e ba 3f 4e 90 a1 bd e2 e1 a8 bf 28 3b 80 bc
       1.4550321 -0.07888852 -1.3193934 -0.015653208
000330 05 59 45 3f 1e 86 94 bf e8 e2 de be 09 b8 48 bf
       0.7708896 -1.1603429 -0.4353249 -0.78405815
000340 44 d5 e8 bf 14 83 8c c0 83 7d 4b 3d 16 54 7d 40
       -1.8190084 -4.3910007 0.049680244 3.9582572
000350 cb 1f a8 3e 4a e5 cd 3e 80 da 89 bd 5d 3c 29 be
       0.32836756 0.40213996 -0.06731129 -0.16526933
000360 60 49 05 40 fd 25 f9 bd 9e 0a 21 c0 e1 2b 4e bf
       2.0826035 -0.12165449 -2.516273 -0.80535704
000370 b9 28 32 3f c2 11 67 bf 37 3b c2 3e b0 37 aa 3f
       0.6959339 -0.9026147 0.37935802 1.3298244
000380 5d 59 0e 3e 2e 2b ca bf 25 c8 f5 3f ff 61 db 3f
       0.13901277 -1.5794427 1.9201704 1.7139281
000390 f8 05 48 bf 7b c0 2a bf d4 93 a7 3f 08 29 a5 3f
       -0.7813411 -0.6669995 1.3091989 1.2903147
0003a0 3f 83 fa bf fc 60 43 bf c4 09 3b 3f 20 59 98 3f
       -1.9571303 -0.7631986 0.73061776 1.1902199
0003b0 ad de 03 40 3c 75 a9 3f 98 1f c3 3f 67 63 19 3f
       2.060466 1.3238902 1.5244017 0.599173
0003c0 bb e1 b2 3f 1f c5 b3 3d 4d 88 07 40 da 13 49 c0
       1.3975137 0.08777832 2.1176941 -3.1418366
0003d0 4d 68 1c 3e 8d f1 05 c0 56 cf c5 bf 6d f6 0a bf
       0.15274163 -2.092868 -1.5453899 -0.54282266
0003e0 2d 98 cf 3e 62 c5 04 c0 f5 46 2c 3d f5 8e 8e bf
       0.40545788 -2.0745473 0.042059857 -1.1137377
0003f0 d1 c8 f7 3f b0 5e 29 c0 66 e0 ba 3e cf 5d 4e be
       1.9358159 -2.6464043 0.36499327 -0.20152973

rnn.weight_ih_l0 f4 [512, 71]
000000 ff 06 b4 3e e0 b3 0d 3f 2f 7d 18 3e a6 93 60 3f
       0.35161588 0.5535259 0.14891504 0.87725294
000010 27 ac 57 bf fd 58 9d be 11 22 ad be 29 99 1a 3e
       -0.8424706 -0.30731955 -0.33815053 0.15097488
000020 99 4b 77 3e e4 92 ff bd 78 b3 50 be d5 d7 4d bf
       0.24149932 -0.12479189 -0.20380962 -0.8040746
000030 77 59 ed bd 6e 1d 0e bf 14 25 8e be fb 54 68 3f
       -0.1158933 -0.55513656 -0.27762663 0.9075467
000040 79 c9 30 3d 25 6a 4e bf cf 41 9f be d6 8e f8 be
       0.04316089 -0.80630714 -0.31104895 -0.48546475
000050 9a db 9c be 11 a4 4b be 50 27 05 3f 77 df b8 bd
       -0.30636293 -0.19886805 0.5201311 -0.090269975
000060 de 98 5f bf 9e 56 2a 3e 95 43 15 be 2f d1 cb bd
       -0.8734263 0.16634604 -0.14576562 -0.09952008
000070 21 70 b0 3f ad 24 c6 3e 46 7f 1d 3e 12 70 34 be
       1.3784219 0.38699856 0.15380582 -0.17620876
000080 fb 27 34 bf ad 1e da bd e5 47 54 3f 0b b6 89 3d
       -0.70373505 -0.10650382 0.829222 0.06724175
000090 5e d1 de 3e ca 45 38 3f 7a 97 6c be 7f f4 55 3e
       0.4351911 0.7198149 -0.23104659 0.20894049
0000a0 6d ce 42 bf 72 0b 63 3e a3 7a 46 3e 50 9f 30 3e
       -0.7609623 0.22172335 0.1938272 0.17248273
0000b0 8d bb 62 3e 86 43 7d 3e 24 43 bc bc be 1d 21 3f
       0.22141857 0.2473279 -0.022981234 0.6293601
0000c0 0c 7e f8 be 0a fa 11 bf ae 51 94 bf 2e b5 8f 3f
       -0.48533666 -0.57022154 -1.1587427 1.1227167
0000d0 05 cc 23 3d 24 4e 88 3e 4d 4a 5c 3f 14 fd 1e 3f
       0.03998949 0.26622117 0.86050874 0.62104917
0000e0 ee 0b 27 bf 67 24 22 3f 71 04 a9 be 16 d7 55 bf
       -0.6525258 0.63336796 -0.330112 -0.8353132
0000f0 f7 42 45 3f 5d ab 49 3e bb 5d 7f be 7e 2e 87 be
       0.77055305 0.19694276 -0.24938099 -0.26402658
000100 f5 4c 81 bf ce 3d ee be 1c 60 e4 be 84 fe 10 be
       -1.010161 -0.46531528 -0.44604576 -0.1415959
000110 0d 5b 53 3c 38 66 46 3f 97 87 3a 3e 45 34 db be
       0.012900126 0.77499723 0.18215786 -0.42813316
000120 14 09 5b bf e8 af 98 bd 50 8e 39 be 12 6b 27 bd
       -0.8556073 -0.074554265 -0.18120694 -0.040873595
000130 df 8a 56 bf bb ee 57 3e f0 f5 3c be 52 9f 22 3f
       -0.8380565 0.21087162 -0.18453193 0.63524354
000140 46 5b 47 bf 15 3c 94 bd ec e3 21 3e 45 b0 27 be
       -0.7787365 -0.07238022 0.15809602 -0.16375835
000150 d6 ac 4a bf 22 69 40 bf ca 4b 00 3f 37 d9 12 3e
       -0.79169977 -0.7516042 0.50115645 0.14340673
000160 75 b4 d4 be 24 63 80 3f 8c 70 fb 3c 0c e4 c4 3e
       -0.41543928 1.0030255 0.030693315 0.38455236
000170 ef 7a 25 be 6d ca d4 3f 5c cf 2b bf f6 4d bc 3e
       -0.16160177 1.6624275 -0.6711328 0.3677823
000180 c9 d9 99 bd f4 a4 16 be 73 fc b1 3e c3 79 61 be
       -0.07512242 -0.14711362 0.34762916 -0.22019105
000190 a9 51 39 3e fd eb 38 3f 92 18 7d bf 56 d0 01 bf
       0.18097557 0.7223509 -0.98865616 -0.5070852
0001a0 ea 28 81 be 1f 16 9f 3e b3 5c 1a 3f 41 91 d3 be
       -0.25226527 0.31071565 0.602977 -0.41321757
0001b0 c4 9c 52 3f e4 62 c0 3f 1d fc 0c 3f dc 08 83 be
       0.82270455 1.5030179 0.55072194 -0.25592697
0001c0 95 e7 e2 3e 8a 41 a9 be b6 6d 84 3f 6c f2 48 be
       0.44317308 -0.33057815 1.0345981 -0.19623727
0001d0 dc 20 97 bd 95 35 bd bd 57 64 7f bd 71 e3 2a bf
       -0.07379314 -0.092387356 -0.06235155 -0.667533
0001e0 bd 13 19 3f 1d 38 27 bf 16 e1 32 3f 97 50 4f 3f
       0.59795743 -0.6532 0.69874704 0.80982345
0001f0 fc 2f ab 3e af ec 35 3f 4e fe af 3f 17 a9 b4 bd
       0.33435047 0.71064276 1.3749483 -0.08821314
000200 0a 07 04 3e 66 b5 81 be a4 91 f8 3b a2 e1 91 3e
       0.1289331 -0.2533371 0.007585721 0.28492457
000210 57 58 93 3f 63 c1 af 3f ba 68 4a be a2 9c 55 be
       1.1511334 1.3730892 -0.19766513 -0.20860532
000220 e6 5a 2b 3f 73 29 37 bf a5 de 17 be 47 da 95 3e
       0.66935575 -0.7154762 -0.14831026 0.29268095
000230 1b 6b 48 bf 80 57 89 3f 5d b8 95 be db 89 9e 3b
       -0.7828843 1.0729828 -0.2924222 0.004838211
000240 63 d0 b3 be 76 fd 52 3e b2 6a 2b bf 4e 44 8c be
       -0.35119924 0.206045 -0.6695968 -0.27395862
000250 b4 fc f3 3e b8 bc b1 3c ae 0b b7 3e e4 05 57 be
       0.47653735 0.021696433 0.35751098 -0.20998341
000260 af a5 60 bd 6c 1a a0 be c7 74 28 3e 49 17 ac 3d
       -0.05484551 -0.31270158 0.16450797 0.08402879
000270 d4 2f aa be 1a 53 a8 3e c7 42 11 3f 8d 04 16 be
       -0.33239615 0.328759 0.5674252 -0.14650173
000280 25 d2 93 3f e5 c0 16 3e d9 49 03 3f a4 66 1b be
       1.1548506 0.14722021 0.5128456 -0.15175873
000290 a4 7f 89 3e 73 9e a0 3e fb 65 9f 3e d9 a8 ba be
       0.26855195 0.31370887 0.31132492 -0.36456946
0002a0 5e 91 b5 bd 70 53 8d be 1a f2 1e 3d 0c 15 2a 3f
       -0.08865617 -0.2760272 0.038805105 0.66438365
0002b0 6a 36 8b 3e 44 ce 90 3e db 96 0b bf 51 6b 80 bf
       0.27189952 0.28282368 -0.5452706 -1.003275
0002c0 dd 75 e0 be a3 27 cb 3e c8 db 5f bf cb 2c 25 3f
       -0.43839923 0.39678678 -0.87444735 0.64521474
0002d0 c6 db a4 3e 68 7a 5d 3e 2a bb d4 be d2 b2 fa 3c
       0.32198924 0.21628726 -0.41549045 0.030602846
0002e0 ae 1e 6d 3f ed a4 6c 3f e2 ce fc 3e 73 06 46 3e
       0.9262494 0.92439157 0.4937659 0.19338398
0002f0 f9 e1 9f bd 9f 02 fd 3e 11 51 9b 3e 3a d5 07 be
       -0.07806773 0.49416062 0.30335286 -0.13264933
000300 1d 00 85 bc c3 9c 2d 3f 0c 8c 08 3d 36 2f 47 bf
       -0.016235406 0.67817324 0.033336684 -0.77806413
000310 2a e0 19 3d 31 09 37 3e 08 58 29 bf bc 9c 52 be
       0.037567295 0.178746 -0.6614995 -0.20567602
000320 22 38 a8 3d 74 fc b0 3e ec c4 db bd 51 eb 91 be
       0.082138315 0.34567606 -0.10730919 -0.28499845
000330 00 5f 0d 3f 4d f7 e3 3e 06 03 6e bf ed c3 3a 3e
       0.55223083 0.44524613 -0.92973363 0.18238802
000340 e2 cd 0d 3e e2 fe 0d 3f 9a 88 bc be 00 84 0b 3e
       0.1384807 0.55467045 -0.3682297 0.13624573
000350 3f 1e 93 3f dc dc 95 bd 11 15 3b bf ac fc f0 3e
       1.1493605 -0.07317516 -0.7307902 0.47067773
000360 9b bf 73 3e f0 50 14 be b7 f8 a4 be bb 45 19 bf
       0.2380356 -0.14484 -0.32221004 -0.59872025
000370 5f 7f 2d 3f 43 53 85 bf fe 6e 48 bf f5 8f 2d be
       0.6777248 -1.0416034 -0.7829436 -0.16949446
000380 9a 63 7f be 71 3b 4f be 18 22 fe 3d bb 0d 02 bf
       -0.24940339 -0.20237519 0.124088466 -0.508022
000390 da 25 94 be 11 58 0a bf bf f6 62 bf 71 9b fb be
       -0.28935128 -0.5404063 -0.88657755 -0.4914203
0003a0 89 58 4e 3e 9c f5 22 3f 3a 07 38 be c4 58 fa 3e
       0.20150961 0.6365602 -0.17971507 0.48895848
0003b0 5e e2 48 bf 44 43 91 3c b1 5a 2e 3f ac a7 b2 3d
       -0.7847041 0.01773227 0.68107134 0.08723387
0003c0 dc 95 07 bf ae 1f 1a 3d 83 e0 53 be 3a 74 ca bd
       -0.5296304 0.03762787 -0.20691113 -0.0988545
0003d0 c8 b4 c9 3e dd 0d 0e 3f 8b 95 92 3f 50 e0 ad be
       0.39395738 0.55489904 1.1451887 -0.339602
0003e0 c1 fc 3d 3f 96 d5 11 3f d7 e4 18 3f 09 dd ab 3e
       0.74213797 0.5696653 0.5972418 0.33567074
0003f0 8b 33 86 be 07 34 53 bf fb 91 93 3d 42 99 e8 3d
       -0.262112 -0.8250126 0.07205578 0.113573566

rnn.weight_hh_l0 f4 [512, 128]
000000 53 10 9e 3f fb ed 12 3f c5 9e 0a c0 08 80 c4 bf
       1.2348732 0.5739438 -2.1659405 -1.5351572
000010 eb 80 d2 be fb f3 d5 be 80 14 b8 3e 78 14 51 be
       -0.41113982 -0.41787705 0.3595314 -0.20417964
000020 9c ca 51 3f a8 ab 8b 3f e7 09 c7 3e ce 1a 0b bc
       0.8194978 1.091176 0.38874742 -0.008490277
000030 48 e8 13 3f 3d 83 d5 3e e6 a0 f2 3e 7b e9 45 be
       0.5777631 0.4170169 0.4738838 -0.19327347
000040 3b 30 df bf 96 52 31 bf c4 2e 85 3e 11 bf 0c be
       -1.7436594 -0.6926664 0.26012242 -0.13744761
000050 64 4e a0 3e e3 70 d4 3e 93 8f c4 3f d4 ea 00 40
       0.31309807 0.41492376 1.5356315 2.0143328
000060 af 67 85 3f 89 c3 13 bf db ba 76 bf 5f 8e 4e bf
       1.0422267 -0.5772024 -0.9637887 -0.8068599
000070 ef 3d 2a bf 2f 07 b8 3e d4 d5 49 3d 15 fd 5e 3f
       -0.66500753 0.3594298 0.049276188 0.8710492
000080 4d 20 27 bf 6b 21 87 3f 7d 17 58 bf f7 ff 0e be
       -0.6528366 1.0557073 -0.8441084 -0.1396483
000090 ef ba 41 3e 7e 76 50 3f 99 7e e1 3c ae 16 84 bf
       0.18918966 0.81430805 0.027526187 -1.0319421
0000a0 cb c6 4f bf 6e 3b a5 3f c5 2b 9c 3f fa 83 b7 bc
       -0.8116271 1.2908762 1.2200857 -0.022401799
0000b0 8d 65 a6 3e ab fc 2f bf e7 ec 38 be 72 44 de be
       0.32499352 -0.68744916 -0.18059121 -0.43411595
0000c0 a4 16 94 bf 1c 71 2c bf 64 80 ae bf fa 3f b4 3e
       -1.1569409 -0.6736009 -1.3632932 0.3520506
0000d0 b6 2c d2 be bb 13 07 3e 7d a5 98 bd cb ab 98 3e
       -0.41049737 0.1319112 -0.074534394 0.29818568
0000e0 77 23 ff bd c5 7b a4 be d2 1f 0e bf 01 60 e9 3e
       -0.12457936 -0.3212568 -0.55517304 0.45581058
0000f0 98 c0 c7 3e c4 e6 8a be 21 5c 82 be fb 99 85 bf
       0.39014125 -0.27129185 -0.25460914 -1.0437616
000100 4d 57 52 3f 7a c1 07 40 c8 03 c0 be 69 de 33 bf
       0.8216446 2.1211839 -0.37502885 -0.70261246
000110 75 c6 0a 3f 22 f4 6c bf 85 82 aa be 35 4a 0d 3f
       0.5420907 -0.9256002 -0.33302703 0.55191356
000120 34 47 ae be 7e 4c 70 bf 61 6b 38 3f ea 04 61 3f
       -0.340387 -0.9386672 0.7203885 0.87898123
000130 db 58 4b 3e 17 45 49 bf b6 ec 05 3f e9 e1 17 bf
       0.19858114 -0.7862105 0.5231432 -0.59329087
000140 91 38 6d bf 5d d6 84 3e 01 91 05 bf b7 bb 5a 3e
       -0.9266444 0.25944796 -0.52174383 0.2136067
000150 e9 2f 29 3e b5 80 24 3e 35 0b 2c 3e 55 63 96 bf
       0.16522183 0.16064723 0.1680115 -1.1749064
000160 af 99 ed bd 3b 14 c3 be a1 86 8c be 12 26 bb 3d
       -0.116015784 -0.38101372 -0.27446464 0.09138121
000170 82 21 27 3f f7 68 ad bf 4a ea ba bf 4c 1f 5e bf
       0.65285504 -1.3547658 -1.4602749 -0.86766505
000180 11 28 c3 3b 38 a5 6e bf 67 40 0b c0 76 dd bc 3e
       0.005955704 -0.93220854 -2.1758058 0.3688771
000190 f2 7b 12 3f ab 43 4a bf be 6a bc 3f 82 46 42 3e
       0.57220376 -0.79009503 1.4720075 0.18972209
0001a0 be 96 57 3e c9 5f 84 3f 54 4b 9f be 7b c2 8a bb
       0.21053597 1.0341731 -0.31112158 -0.0042346097
0001b0 ce 74 4f bf 61 9e ba 3e 46 c0 f1 be 3d 26 35 be
       -0.81037605 0.3644896 -0.47217005 -0.17690368
0001c0 b9 a3 3a be da 46 88 bf 94 6d 6f bf 08 26 e3 bc
       -0.18226518 -1.0646622 -0.9352658 -0.027728096
0001d0 05 7d 79 be 1d 0b 45 be 57 fb b7 bf 7e 41 b9 bf
       -0.24364097 -0.1924252 -1.4373578 -1.4473112
0001e0 47 31 1c 3f 72 75 24 3f 73 eb 72 bf 95 ae 09 40
       0.6101269 0.6424171 -0.94890517 2.1512806
0001f0 40 53 77 3f 0a f8 db 3e fd ed ed be 2c 39 f7 be
       0.96611404 0.42962676 -0.46470633 -0.48285806
000200 ba 80 2c bf d9 ce 96 bf 94 16 9a 3e d1 2a 7c 3e
       -0.6738392 -1.1781875 0.3009535 0.24625708
000210 35 c6 e9 3f a4 40 8b bf 69 65 45 bf d5 e9 6c 3d
       1.8263613 -1.0879102 -0.77107865 0.057840187
000220 a5 f7 33 bf 06 ae 43 3d 8e 50 34 3f 18 97 4f 3f
       -0.7029975 0.047773384 0.70435417 0.81089926
000230 ce 62 b3 be fb be aa 3f d8 b6 b0 bf 8d 68 9f bf
       -0.3503632 1.3339533 -1.38058 -1.2453781
000240 32 cc f9 3d ee c2 63 bf 72 1f a2 3f 35 48 c8 3e
       0.1219715 -0.88969314 1.2665846 0.3911759
000250 12 68 ae bd cc 09 32 be 76 f9 dd 3e 43 d2 0c be
       -0.085159436 -0.1738655 0.43354386 -0.13752083
000260 39 08 a8 3e 3d eb 8a bf ca 53 18 bf da fd 60 3f
       0.32818773 -1.0853039 -0.5950285 0.87887347
000270 e3 cf 5c 3e 0e 1d 0a bf 78 72 e4 be 78 86 a0 3d
       0.21563677 -0.53950584 -0.44618583 0.07838148
000280 51 28 42 bf 0a 0d 08 be 77 ac 33 3f 71 8d 3c 3f
       -0.7584277 -0.13286224 0.70185035 0.7365332
000290 0a f6 77 3f df 9b b1 3e 3e 86 30 3d b1 bb 45 3f
       0.968598 0.34689233 0.043096773 0.7723952
0002a0 12 51 55 bf b8 8c 4b be c8 20 9b 3e 39 41 7d bd
       -0.8332683 -0.19877899 0.30298448 -0.06182978
0002b0 aa 25 f4 be 39 91 72 bf 4a ca cd bf 8a d2 91 3e
       -0.47684985 -0.9475284 -1.6077359 0.2848094
0002c0 ea 8a c8 3e 23 34 20 bf 9a da 18 3e f9 ed 59 bf
       0.39168483 -0.62579554 0.1492714 -0.8512874
0002d0 ad 5a c8 3f 92 43 9e bd be 4f c5 3e db a1 41 3f
       1.5652672 -0.07727732 0.385374 0.75637597
0002e0 ae b5 27 bf 81 72 a9 3e 7d e0 ce bf 43 dd 9f 3e
       -0.65511596 0.33095172 -1.6162258 0.31223497
0002f0 ad fa 86 3f 63 25 43 3e 7d a1 90 3e a7 f9 f0 3e
       1.054525 0.1905723 0.28248206 0.4706547
000300 10 0d 3d 3e 88 21 03 3f cb c9 21 3e ce fe c5 be
       0.18462014 0.5122304 0.15799634 -0.38670963
000310 4d 66 06 bd a9 1c 5b bf 19 d7 9c bf c1 67 54 bf
       -0.032812405 -0.85590607 -1.2253143 -0.82970816
000320 42 38 b4 bf c4 af 65 3f af eb b5 3f 5f da 57 3f
       -1.4079669 0.8972132 1.421255 0.8431758
000330 e0 cc 19 3f f7 eb 8d 3f f7 b6 25 bf d6 29 71 3f
       0.6007824 1.1087636 -0.6473231 0.9420446
000340 f6 82 aa 3e 24 63 ad bf 83 90 7e bf a7 6a 92 bf
       0.3330304 -1.354588 -0.9943926 -1.1438798
000350 7d 0f f3 3e d8 ca fe 3d 3e c0 b4 bf 43 45 0c 3f
       0.47472754 0.12441033 -1.4121168 0.54793185
000360 e1 62 38 bf 62 f2 76 3e e1 2e d0 be 3c 0e 53 3e
       -0.7202588 0.24115899 -0.40660766 0.20610899
000370 65 41 b8 3e e0 6e 5c bf 57 7c 8c 3f 8b 97 c5 3e
       0.35987392 -0.8610668 1.0975446 0.3859218
000380 fa 0c 9a 3f a7 c7 72 bf 8f 4c 2a 3e c9 5d f6 3d
       1.203521 -0.94835895 0.16630767 0.12029607
000390 2b 96 06 bd 15 45 01 bf 77 f7 f4 bd 2f 0b 64 bf
       -0.032858055 -0.50496036 -0.11961263 -0.89079565
0003a0 e3 33 fd be a1 73 15 3f 6d c9 08 bf dc 2a 86 3f
       -0.4945365 0.5837956 -0.5343235 1.048183
0003b0 41 39 12 bf 63 4c 22 40 d9 52 13 3f e3 d9 6f 3f
       -0.5711861 2.5359123 0.5754829 0.93691844
0003c0 d2 a5 30 be 11 c2 7b bd e9 69 94 be ac 5e c3 3f
       -0.17250755 -0.061464373 -0.28987053 1.5263267
0003d0 cd 62 dd bd cb 03 31 3f 45 02 90 3d c1 eb 4e bd
       -0.108098604 0.6914641 0.07031683 -0.0505178
0003e0 3b 7c 32 bf fd 3b d0 3e 5a 4d b5 3f e7 43 88 3e
       -0.6972081 0.40670767 1.4164231 0.26614305
0003f0 f9 d7 c7 3d 1e fe 82 3e 75 1b a9 bf 0d b5 a7 3d
       0.097579904 0.255845 -1.3211504 0.081888296

rnn.bias_ih_l0 f4 [512]
000000 80 1a 39 3f 31 77 4c 3f 08 52 ed 3e 08 61 6f 3f
       0.7230606 0.7986937 0.46351647 0.9350743
000010 2b bf 13 3f 83 7b e2 3e 1b 53 96 bc e1 26 22 3f
       0.57713574 0.44234857 -0.018350175 0.63340575
000020 07 fa e5 3e bf 86 02 3f 2e d8 ea 3e 60 a2 05 3f
       0.44917318 0.50986856 0.45868057 0.5220089
000030 54 63 9c 3e 54 d7 6e bd 7a 4a 0b bf 7e 41 58 3f
       0.3054453 -0.05831082 -0.5441052 0.84474933
000040 ae ec e7 3e db 77 b1 3d 79 41 92 3e 00 6b 3c 3f
       0.4529776 0.08665439 0.28565577 0.7360077
000050 09 3a 95 3f 19 4e 2e 3f 45 d1 a5 bc f5 e4 00 3f
       1.1658336 0.6808792 -0.020241389 0.5034936
000060 bb 3a 25 3f 29 26 d6 3e 4c ee 1b 3f c2 99 a1 3e
       0.6454274 0.4182599 0.6091049 0.3156262
000070 af 1f 41 3f 85 b8 3f 3f f7 4a 2f 3f c1 2f 39 3f
       0.7543897 0.7489093 0.6847376 0.7233849
000080 37 d5 e9 3d bd de a4 bd f7 ce b0 3e 0b 7c 4e 3d
       0.11417621 -0.080502965 0.34532902 0.050411265
000090 ed d4 5c 3f ae cc c0 3e 7b 74 aa 3d d8 e7 b7 3e
       0.862624 0.37656158 0.08322998 0.3591907
0000a0 93 9d 17 3f ee af 55 bd d3 6b f3 3e d7 48 a2 3e
       0.59224814 -0.052169733 0.475432 0.31696197
0000b0 96 0d bb bd 67 2e 15 bd f9 55 a6 3e 48 2d 34 3f
       -0.09133451 -0.036421206 0.32487467 0.70381594
0000c0 3c 22 61 3e de ba d9 3e 07 24 35 3f 2c 3b 1b 3f
       0.21985716 0.4252538 0.707581 0.60637164
0000d0 5d de f4 3e 1c fe 53 3f a8 51 32 3f 4f c9 8b bd
       0.478259 0.82809615 0.6965585 -0.06825506
0000e0 ca ca 1c 3f 35 0a 32 3f 09 2c 29 be 04 d2 09 3f
       0.6124693 0.69546825 -0.16520704 0.53836083
0000f0 a0 6f 3a 3f 33 3f 62 3f fa 3a 82 3d cc 09 70 3f
       0.72826576 0.88377684 0.06358905 0.9376495
000100 0e 0d 03 3f cb c1 0a 3f db 8c 4c 3f e6 0d b7 3e
       0.51191795 0.54201955 0.7990243 0.3575279
000110 fc 3e 51 3d 72 ee 5c 3f 5c 1a 2c 3f 19 00 ba 3d
       0.051085457 0.8630134 0.6722772 0.0908205
000120 f2 7d 82 3e bb 63 69 3f ce 39 48 3f 2c 73 36 3e
       0.25486714 0.911678 0.782132 0.17817372
000130 6c c1 4e 3d 00 6f d2 bd e6 e4 19 3f 0d c1 b7 3f
       0.05047743 -0.10275078 0.60114896 1.435579
000140 68 76 6f 3e 54 cd 5e 3f 80 4d ea 3e bf 5e d8 3e
       0.23385012 0.87032056 0.45762253 0.42259786
000150 2f 0a eb 3e 37 dc e4 3e 33 18 f7 3e be a1 11 3f
       0.45906207 0.4469926 0.4826065 0.56887424
000160 c7 8e 89 3e 23 20 28 3f 1c eb b1 3d 8b 95 2d 3f
       0.26866743 0.65674037 0.08687422 0.6780631
000170 2d 48 af 3e ff 67 44 3f 44 5d 56 3e 73 41 94 3e
       0.34234753 0.76721185 0.20934016 0.28956184
000180 29 7d 5b 3f 1f 4b 56 3f f6 e0 31 3f 04 f0 ee 3e
       0.85737854 0.83708376 0.6948389 0.46667492
000190 a3 5c c5 3e 4a de 41 3f a5 d0 10 3f 86 f6 ae 3e
       0.3854724 0.7572981 0.56568366 0.34172457
0001a0 44 ca 51 3f fd c8 cb 3e 5b b3 d4 3e e3 a0 ce 3e
       0.8194926 0.3980178 0.41543087 0.40357122
0001b0 39 46 3d 3f 88 0d 7f 3e 18 92 a2 bb 49 22 f0 3d
       0.73935276 0.24907506 -0.0049612634 0.117252894
0001c0 bb 87 78 3e 01 8e 26 3e 6c c7 b4 3e 7a 1e 36 3f
       0.24270527 0.16265108 0.35308397 0.71140254
0001d0 9a 2b 7a 3e fe c0 c7 3e 86 bf e6 3c 31 69 9d be
       0.24430695 0.3901443 0.028167497 -0.30744317
0001e0 97 45 34 3f 66 3c da 3e ab 59 f2 3e 84 72 53 3f
       0.70418686 0.42624205 0.47334036 0.8259661
0001f0 35 92 96 3f 27 f5 03 3f 62 17 12 3f 2e 08 89 3d
       1.1763369 0.5154595 0.5706693 0.06691013
000200 cf 43 8e 3e a2 8e a7 3d 19 5e ac be d2 7a 15 bf
       0.2778611 0.08181502 -0.3366554 -0.58390534
000210 fb cf 18 be ce b3 6a 3e bb a5 94 3e 38 57 a7 3e
       -0.14923088 0.22920153 0.29032692 0.3268373
000220 4e a5 d6 3e ce 13 46 3e 49 18 1e be ff b2 1e 3f
       0.41922992 0.19343492 -0.15438952 0.61991876
000230 e1 18 75 3c bb 04 98 3e cd 70 50 3e 0f 6b b3 be
       0.014959545 0.2969111 0.2035553 -0.35042617
000240 35 46 f4 be e7 01 25 3e 1d c6 cb 3e 0e 43 17 bf
       -0.47709814 0.16114007 0.39799586 -0.5908669
000250 6e e5 74 3d 89 5d a9 3d cf 26 25 bd 86 e5 19 be
       0.059789114 0.082697935 -0.040320214 -0.15028962
000260 07 ab 8b be e0 b7 df be d6 b0 aa be 6e 89 18 3e
       -0.2727892 -0.43694973 -0.3333804 0.14896175
000270 de 0c 80 3e ed b1 02 be dc a4 9f be c2 9b 42 be
       0.25009817 -0.12763186 -0.31180465 -0.1900473
000280 6a e4 02 be a5 da c8 3c ee 8d 4f be ed 02 38 be
       -0.12782446 0.02451832 -0.20268986 -0.17969866
000290 f2 a2 27 be 5d e7 05 3f 25 9f 87 3e cb 73 94 3e
       -0.16370752 0.5230616 0.26488605 0.28994593
0002a0 d1 58 cd 3e 73 39 9a 3d db ef 96 3e 5f 43 36 3e
       0.40106824 0.07530489 0.2947987 0.17799138
0002b0 22 e6 68 bd 7c 6f df bd 30 88 0b be 6f 34 ba 3d
       -0.056860097 -0.10909936 -0.1362617 0.09092032
0002c0 be df 7e be fa d2 14 bf f1 e7 aa bc 51 ea d7 be
       -0.24890038 -0.58134425 -0.020862551 -0.42170957
0002d0 e6 26 0d be 96 c1 89 be ac c8 11 bf 7e 3a be 3e
       -0.1378437 -0.26905507 -0.56946826 0.37154
0002e0 a9 83 1d 3e 1e 9f 10 3e 19 f0 f1 3e 14 1b f3 3e
       0.15382256 0.14123198 0.47253492 0.47481596
0002f0 d1 8c 9d 3e 6f c1 0a bf ea 4e 3d 3e 26 67 95 3d
       0.30771497 -0.54201406 0.18487135 0.07295065
000300 46 60 16 3f fc fa 8f 3f de 42 85 be e9 9b 1f 3f
       0.5874065 1.1248469 -0.26027578 0.62347275
000310 a4 2d 86 bc ac 25 02 3f 20 99 8a 3e 6a f2 a4 3e
       -0.016379185 0.5083873 0.2706995 0.32216197
000320 50 67 21 bf 5e 34 a9 be fd 5e bf 3d fd 65 29 3e
       -0.6304827 -0.33047765 0.093442895 0.16542812
000330 cb 61 2f 3f db 0c 95 3e 5f f0 d0 3d eb a7 f1 3e
       0.68508595 0.2911137 0.10202097 0.47198424
000340 7b 73 26 be c4 34 f0 bc 1e cc fd bd dd 48 c9 3e
       -0.1625499 -0.029322036 -0.12392448 0.39313403
000350 40 6b 9e be cb 18 a9 3e c5 7f 8b 3e 4f 6a 9a be
       -0.309412 0.33026728 0.27245918 -0.30159232
000360 8d 1d 0d bd 6b cb 9b 3e 2d a7 88 bd ea 8f d1 3e
       -0.03445201 0.30428633 -0.06672511 0.4093011
000370 3e 27 13 bb c7 4d 51 3f fc e7 57 be b2 21 af be
       -0.002245381 0.81759304 -0.21084589 -0.34205395
000380 21 5c 17 bf a3 bf c9 bd 9a fb db 3e c3 d6 7e 3e
       -0.5912495 -0.09851005 0.42965394 0.24886613
000390 66 a4 bd 3d 94 35 23 3e c8 03 bd be 6c 11 8a be
       0.09259872 0.15938407 -0.36916947 -0.26966417
0003a0 77 e2 af bd a9 95 c7 be f8 fd 0f bd a9 fc 01 3f
       -0.085881166 -0.3898137 -0.035154313 0.50776154
0003b0 68 22 a9 3e 4d 82 00 3f 87 90 bc bd 45 73 9d 3e
       0.33034062 0.50198823 -0.09207254 0.30752006
0003c0 ae a8 1a 3e 4e 25 91 3e d6 65 d7 3c 21 72 e8 3e
       0.15103409 0.28348774 0.026293676 0.45399573
0003d0 0a 47 97 bd e3 c0 cb 3d ed dd 20 3e eb 24 d2 3e
       -0.073865965 0.099488996 0.15709658 0.4104379
0003e0 0f 36 c9 3e 7b 57 0a bf d9 06 f8 3d 51 35 e6 3d
       0.39299056 -0.54039735 0.12110681 0.11240638
0003f0 58 9e d2 be 3b e0 6c be 5f ff 99 3e 07 52 b6 3e
       -0.41136432 -0.23132412 0.30077645 0.35609457

rnn.bias_hh_l0 f4 [512]
000000 04 73 1b 3f 02 46 44 3f 05 f8 21 3f 68 29 54 3f
       0.60722375 0.76669323 0.6326907 0.8287568
000010 70 f6 fa 3e ad 2b bc 3e ed 82 c5 3b e3 cf 19 3f
       0.49016142 0.36752072 0.0060275705 0.60082835
000020 31 91 f7 3e 7d 64 1b 3f 8b 4d ae 3e 0b 7c 15 3f
       0.4835296 0.6070021 0.34043536 0.583924
000030 c9 9b ac 3e b7 72 e5 bb 8b d9 02 bf 43 52 67 3f
       0.33712605 -0.0070022005 -0.51113194 0.90359896
000040 5f 0e f8 3e dd 8e 46 3e 97 1f 95 3e b7 67 2b 3f
       0.48448464 0.19390436 0.29125664 0.6695513
000050 83 a4 98 3f 46 fa 25 3f 6c dc 95 bd 7e 1f f1 3e
       1.1925205 0.6483501 -0.07317433 0.4709434
000060 82 a0 4b 3f 2b dd d3 3e 11 8e 44 3f 27 f9 7a 3e
       0.7954179 0.41379675 0.76779276 0.24509107
000070 7a 81 23 3f ef e4 33 3f 55 0b 1c 3f 86 ae 57 3f
       0.6386944 0.702712 0.6095479 0.84250677
000080 86 b5 98 3d d2 cd 13 be c5 38 82 3e 18 1c 06 3e
       0.07456498 -0.14433983 0.25433937 0.13096654
000090 a7 4d 62 3f dc 85 ba 3e cc 79 a2 3d 1b e1 c7 3e
       0.8839974 0.36430252 0.07933387 0.3903893
0000a0 a9 f9 08 3f 68 05 dd bc 9c db 13 3f 84 7b c9 3e
       0.5350595 -0.026980117 0.5775697 0.39352047
0000b0 86 33 38 3b 13 d8 f1 bd 06 e5 b4 3e 99 12 23 3f
       0.0028106882 -0.11808791 0.3533098 0.6370025
0000c0 a9 fd 53 3e 86 cf c8 3e 39 43 25 3f 4c 45 0f 3f
       0.20702232 0.39220828 0.645557 0.55965114
0000d0 47 a6 00 3f 16 5e 60 3f d2 33 26 3f 1c e2 01 be
       0.5025372 0.87643564 0.6492282 -0.1268391
0000e0 f0 b6 23 3f 14 74 2b 3f 93 f9 5a be 1a a3 d1 3e
       0.63951015 0.66973996 -0.21384268 0.4094475
0000f0 2f 40 2b 3f 2f e5 6f 3f a0 9d 9c 3d 63 99 72 3f
       0.6689481 0.9370908 0.07647252 0.947653
000100 b7 b4 ee 3e a9 6f ea 3e 8e 7b 42 3f 6e c2 cc 3e
       0.4662225 0.45788315 0.7596978 0.39992088
000110 f7 3e 74 bc c9 a1 5f 3f f6 39 30 3f 02 70 e5 bc
       -0.01490759 0.8735624 0.6883844 -0.028007511
000120 22 69 c3 3e 27 ec 6d 3f 4a 90 44 3f 7e 59 37 3e
       0.38166147 0.92938465 0.7678267 0.17905232
000130 10 34 9a 3d 28 81 0c 3d 91 6a 22 3f 13 6b b0 3f
       0.075294614 0.03430286 0.6344386 1.3782676
000140 dd d5 83 3e 9c 22 66 3f 16 67 0a 3f 96 3b b6 3e
       0.25749102 0.8989656 0.54063547 0.35592335
000150 05 54 df 3e 5a 09 f7 3e 7a cb 0a 3f c9 07 1e 3f
       0.4361879 0.48249322 0.5421673 0.6173063
000160 54 4f aa 3e f1 3c 08 3f 0b 27 fb 3d e3 f0 36 3f
       0.33263648 0.5321799 0.12263306 0.71461314
000170 c4 ce b4 3e 03 79 49 3f e3 ec 82 3e 11 be b4 3e
       0.35314 0.78700274 0.25571355 0.3530126
000180 be 8c 5e 3f e7 cc 3a 3f 00 81 2c 3f 7e ea 0b 3f
       0.86933506 0.72968906 0.6738434 0.5465468
000190 3b fa c4 3e 9c 0d 35 3f be 47 16 3f 4c 58 c0 3e
       0.3847216 0.7072389 0.5870322 0.37567365
0001a0 91 64 4d 3f f2 b3 01 3f 1d 54 f0 3e 78 2e e7 3e
       0.8023158 0.506652 0.46939173 0.4515264
0001b0 86 ea 12 3f 34 c7 73 3e 9a ec 90 3d 02 11 3a 3d
       0.57389104 0.23806459 0.07076378 0.045426376
0001c0 55 25 0e 3e a0 b0 16 3e 9c be 98 3e 4a 8a 39 3f
       0.13881429 0.14715815 0.29832923 0.7247664
0001d0 01 fd 86 3e 08 6e c3 3e 44 59 ca 3b 89 b0 73 be
       0.26364902 0.38169885 0.006175192 -0.23797812
0001e0 5b ff 1e 3f b0 29 c7 3e b9 41 00 3f a5 63 2a 3f
       0.6210839 0.38898993 0.50100285 0.66558295
0001f0 6f 73 a1 3f 61 2c fc 3e ba d8 20 3f cb d7 18 3c
       1.2613353 0.49252608 0.628307 0.009328793
000200 87 18 48 3e d4 ce a3 3d 1b fe c5 be ad e1 0a bf
       0.19540606 0.07998434 -0.3867043 -0.54250604
000210 82 6a 5e bd 9d fb 01 3e c7 1c 2a 3e 54 27 be 3e
       -0.054300793 0.12693639 0.1661254 0.3713938
000220 23 71 e1 3e 2c cc 73 3e 14 1e a3 bd bf 7d 2d 3f
       0.4403163 0.23808354 -0.07964721 0.6777
000230 3c 12 14 bd 4e 71 83 3e 86 aa 81 3e 15 22 80 be
       -0.036150202 0.25672382 0.25325412 -0.25026003
000240 f2 bb 06 bf ff 51 18 3e 06 6b 06 3f 00 8a 06 bf
       -0.5263053 0.14875029 0.52507055 -0.5255432
000250 b8 7d 17 3c 41 03 27 3e b7 27 3d be 57 b9 80 bd
       0.009246282 0.16309835 -0.18472181 -0.06285351
000260 f2 de 53 be 80 f4 bf be 6f 24 a0 be 4d 3a 5f 3e
       -0.20690516 -0.37491226 -0.31277797 0.21799584
000270 a0 a9 84 3e d9 9e 85 be 90 a4 a5 be 45 1d a0 be
       0.25910664 -0.26097754 -0.32352114 -0.3127233
000280 bf 6a 77 be 53 39 e9 3d 1a 0a 7b be c9 e4 1e be
       -0.24161814 0.11387887 -0.24515572 -0.15516962
000290 29 02 65 be 02 ca dd 3e e0 45 69 3e 2c 6e b8 3e
       -0.22364105 0.43318182 0.22780561 0.36021554
0002a0 b2 ff 92 3e 85 60 75 3d 50 ac 84 3e 76 82 27 3e
       0.28710705 0.0599065 0.25912714 0.1635836
0002b0 e4 96 b6 3c 63 11 52 bd bc 0f 00 be 69 11 ad 3c
       0.022288747 -0.051286113 -0.12506002 0.021126466
0002c0 d1 64 95 be d8 fd 07 bf a5 69 f8 bc 4b 46 eb be
       -0.2917848 -0.5312171 -0.030323813 -0.45952067
0002d0 87 b2 11 be 7d 37 8e be 17 24 f8 be f9 4f e5 3e
       -0.14228259 -0.2777671 -0.48465034 0.44787577
0002e0 07 73 f6 3d c3 9b 70 3e 68 a9 dc 3e f0 4c c2 3e
       0.120336585 0.23496918 0.43097997 0.37949324
0002f0 21 78 8e 3e 7e 05 dc be 06 2a 26 3e 74 78 e2 3d
       0.27826026 -0.4297294 0.16226968 0.11058131
000300 3e 03 15 3f 2e dd 8d 3f b5 fe 85 be 8b d7 13 3f
       0.5820807 1.1083124 -0.2617089 0.5775077
000310 d3 08 7a bc ca 34 09 3f 6b 8f a2 3e 77 e2 4b 3e
       -0.015260893 0.53596175 0.31750044 0.19910608
000320 2f e4 25 bf 54 1b f0 be a6 44 8a 3d 66 3f 64 3e
       -0.64801306 -0.4689585 0.06751375 0.2228981
000330 3b 58 36 3f e3 30 97 3e de 9e 00 bd a3 94 de 3e
       0.7122838 0.29529485 -0.031401508 0.43472776
000340 81 dd 1f be f4 c6 7d bd 7e e7 78 bd ba 58 95 3e
       -0.15611841 -0.061957315 -0.060767643 0.29169255
000350 53 ca 5f be 35 d9 97 3e 67 5a dd 3e f0 65 aa be
       -0.21854524 0.29657903 0.43233034 -0.33280897
000360 14 94 06 3d e4 60 85 3e 01 ab 50 be 07 74 c5 3e
       0.032856062 0.26050484 -0.20377733 0.38565084
000370 f3 d7 b2 bc fe 7f 6b 3f f1 4f 65 be e9 a0 68 be
       -0.021831488 0.91992176 -0.22393776 -0.22717632
000380 14 4a 15 bf 33 68 ba bd b3 4f 98 3e ef 91 4f 3e
       -0.5831616 -0.09101906 0.29748306 0.20270513
000390 3f ff dd bc c0 19 67 3d c3 a0 ab be cc d9 58 be
       -0.02709925 0.05642104 -0.3352109 -0.21176833
0003a0 8d 01 7b bb ab 0a b8 be c5 f5 b2 3c b1 09 f7 3e
       -0.0038300485 -0.3594564 0.021845708 0.4824958
0003b0 1d 93 73 3e 51 71 06 3f 9a 85 cc bd e2 b3 6f 3e
       0.23786588 0.5251666 -0.0998642 0.23408464
0003c0 a8 b1 c3 3d de 21 49 3e 6c 4b a8 3d 1f 46 0a 3f
       0.095553696 0.19641826 0.082175106 0.54013246
0003d0 d5 1d c3 3d 13 4c 3b 3e 4a ea 01 3e 83 29 de 3e
       0.095271744 0.18290739 0.1268703 0.43391046
0003e0 cb e6 fc 3e e2 ff 21 bf c1 1e 84 3e 6e fb e8 3c
       0.4939483 -0.6328107 0.25804713 0.028440204
0003f0 34 61 8f be 0e db db bd bc 22 9e 3e 6d 10 bd 3e
       -0.28003848 -0.10735141 0.30885875 0.36926594

rnn.weight_ih_l1 f4 [512, 128]
000000 5a b2 6c be 5c ad bb 3e e4 ee a9 3e 03 8c d6 3e
       -0.2311491 0.366557 0.33190072 0.41903695
000010 72 58 13 bf 68 56 d9 be 5a 7d 37 bd 0a 61 34 3f
       -0.5755683 -0.42448735 -0.04479728 0.7046057
000020 e6 74 c4 3e 09 36 40 3e 23 3d e6 be ad f8 29 3f
       0.38370436 0.18770613 -0.4496852 0.66395074
000030 72 b0 17 3f 92 5c 0d bf cd 36 5e be fc a2 5e bf
       0.5925361 -0.55219376 -0.21700592 -0.86967444
000040 a8 c5 d1 3e e5 b7 15 3e a4 ef 1f 3e 15 14 77 be
       0.40971112 0.14620931 0.1561876 -0.24128754
000050 47 17 c4 3e 82 db 89 3f b3 52 0c 3e 80 c3 0d bf
       0.3829901 1.0770113 0.13703422 -0.55376434
000060 0e 67 00 3e c5 cd f3 3d 97 1f 16 3f 34 66 10 bf
       0.12539312 0.11904482 0.5864195 -0.5640595
000070 a5 8d a2 be 8f f6 9a 3e 68 0a 8b 3d 6a 60 8b 3f
       -0.3174869 0.30266234 0.06789094 1.0888798
000080 f4 93 2e bd 03 7e 91 be 99 96 03 bf 16 c6 96 3e
       -0.042621568 -0.28416452 -0.5140167 0.29448003
000090 57 09 9a 3f 99 e5 b0 3d 6e c3 06 3f a3 0b 8d 3f
       1.20341 0.08637542 0.5264195 1.1019176
0000a0 f7 9f 42 3f b9 5a a3 3d e2 e9 83 3f 94 b0 90 3c
       0.76025337 0.07976288 1.030575 0.017662324
0000b0 b4 ac 62 3b 12 a7 61 3f 4c 26 7c 3e 3b 52 cc bc
       0.0034587802 0.88145554 0.24623984 -0.024941554
0000c0 37 11 94 bd 28 0b d8 3b 32 8c 13 bf 15 14 79 3e
       -0.07229846 0.006593127 -0.57635796 0.24324067
0000d0 21 55 b0 3d a1 1f f3 be 43 f4 98 3d 52 bf ef bc
       0.08609987 -0.47485068 0.07468464 -0.029266033
0000e0 7b 83 2e be 08 c8 01 be bc 5f 5e bf b5 db 3b 3e
       -0.17042343 -0.12673962 -0.8686483 0.1834553
0000f0 ac 23 da 3d 71 20 63 bf fc 78 09 bf 9b 5d fd 3e
       0.10651335 -0.88721377 -0.5370023 0.49485478
000100 fa 3f 23 bf a2 18 13 be 97 f4 31 be 1e 44 2f 3d
       -0.63769495 -0.14364865 -0.1737846 0.04278957
000110 bd c8 49 3d f0 24 a5 3e 5c f8 94 bf 87 5d 65 3e
       0.049263705 0.32254744 -1.1638293 0.22398959
000120 7f 54 ad 3e c6 28 61 3f 38 4e 76 bd e5 4f 1a 3f
       0.33853528 0.8795284 -0.06013319 0.6027816
000130 76 b0 6e bd ac e2 4c 3f ec a5 5e be 20 dd ef be
       -0.058273755 0.80033374 -0.21742982 -0.46848392
000140 55 39 4d be b7 61 da bd 10 1a f5 3e c3 ab 5a 3e
       -0.20041402 -0.10663169 0.47871447 0.21354584
000150 c1 f6 53 bd 41 87 f6 be 12 73 89 bd 64 c8 a7 3c
       -0.051748995 -0.48150066 -0.06711401 0.020481296
000160 87 9b 34 be 28 58 b7 3e cb 60 48 be ba e6 d0 3e
       -0.17637454 0.35809445 -0.19568174 0.4080103
000170 68 67 86 be 93 5d 17 bf 78 3e e2 be 5a ab ea bb
       -0.26250768 -0.5912716 -0.44188285 -0.00716154
000180 b3 f4 b0 3e 72 76 fa be 16 47 95 3e 6a ed d5 be
       0.3456169 -0.48918492 0.29155797 -0.41782695
000190 3b 52 cb 3e c1 3f 2d 3f b1 82 6c bf e7 63 4f 3f
       0.39711174 0.67675406 -0.9238692 0.81011814
0001a0 4c c4 96 bd 6a 8d 47 bf 9b c8 eb bd 16 98 90 3f
       -0.073616594 -0.77950156 -0.11512872 1.1296413
0001b0 c9 07 d2 be 05 72 39 be cb 7a b1 bd 6e 20 9c be
       -0.41021565 -0.18109901 -0.08665999 -0.30493492
0001c0 7f 7d 98 bf da 85 d6 3e 0d ca a4 3e 9d 61 e1 3e
       -1.1913298 0.41898996 0.32185403 0.44019786
0001d0 dd 8a bc bf dd 88 01 3d 32 3c 3d 3f f1 af 93 3e
       -1.4729878 0.031624664 0.73919976 0.2884517
0001e0 19 32 23 bf 95 8b e2 3e e7 cd 90 3e 9f f2 03 3f
       -0.6374832 0.44247118 0.2828209 0.51542085
0001f0 ed 90 5d be 22 20 e7 3e 0c a9 b7 bf f3 51 43 bf
       -0.21637316 0.45141703 -1.4348464 -0.7629692
000200 cb 93 0a be 85 93 8d 3d e6 ee df bd 10 36 41 3d
       -0.13532941 0.06912903 -0.10934238 0.0471707
000210 a4 d2 96 bd c4 25 18 3e 70 41 00 be 88 a4 1e 3d
       -0.07364395 0.14858156 -0.12524962 0.038731128
000220 32 f0 1a be 43 3c 40 3d 38 08 15 3e 57 f8 7e bd
       -0.1513069 0.04693247 0.14553916 -0.062248554
000230 be 18 ad 3e a2 93 9b 3c 2d c7 60 3d b3 92 50 bd
       0.3380794 0.018991295 0.05487745 -0.050921153
000240 6b dd 9c 3d 9d 2a 63 bd c8 be 9b 3d 2a 23 8b 3d
       0.076594196 -0.05546056 0.07604748 0.067938164
000250 58 fc e4 3d e1 f4 b5 bd 4b 57 c9 bd 9d 96 96 bd
       0.11180943 -0.088845976 -0.09831103 -0.07352946
000260 5a e6 18 3e 3d 45 e2 3c c0 77 99 bd 37 f7 9a be
       0.14931622 0.027620906 -0.074935436 -0.30266735
000270 01 e9 51 bd 41 52 66 3c 92 0c 9a bd b2 ff eb bb
       -0.0512476 0.014057697 -0.07521929 -0.007202112
000280 c5 f1 06 3e db ef 9e 3c 70 a1 17 3e ca 43 56 bd
       0.13178165 0.019401481 0.14807677 -0.052310742
000290 7b e7 88 bd 3a ce cc bd d1 50 5b 3c a7 57 20 bd
       -0.066847764 -0.10000272 0.013385967 -0.03914609
0002a0 b0 43 19 3d b8 fe bf 3d 6d 4c d6 bd ae 94 e2 3d
       0.037418067 0.093747556 -0.10463796 0.11063515
0002b0 5a 51 df bc bd 93 dd 3d 4a df 90 3d 4a 1c 9a 3d
       -0.027260471 0.108191945 0.07073839 0.07524927
0002c0 7e f8 5f bd d9 a4 8d bd eb ed 1d 3d 23 84 af 3d
       -0.05468034 -0.06916208 0.038556974 0.08570125
0002d0 bf 2d 1f 3e 44 88 87 3d 79 db d8 bc 07 60 43 be
       0.15544794 0.066177875 -0.02647184 -0.190796
0002e0 2f ed 45 bd e8 e2 fc bd 1a 85 cc bd 85 37 a4 3d
       -0.0483219 -0.123479664 -0.099863246 0.08018402
0002f0 28 d7 4d 3d 6f 58 9a bd f3 70 11 3d 5e 25 a6 3b
       0.050254017 -0.075363986 0.035508107 0.0050703725
000300 d2 e9 2a be 5a 0b aa 3d 27 ad 96 3d 0b 4a f7 bb
       -0.16690758 0.083029464 0.07357245 -0.0075466684
000310 af 7c dd bd eb 86 88 3c 93 0e 8f bd 3a 3c 9c bd
       -0.10814797 0.016665896 -0.06985202 -0.07628675
000320 a4 d6 4e be c9 ec cb bd 2f c3 19 bd 81 1c fe 3d
       -0.20199066 -0.099572726 -0.037539657 0.124077804
000330 24 a1 29 3e 6f 55 15 3d 28 24 e0 bc 60 ea d6 3d
       0.16565377 0.03645843 -0.02736099 0.10493922
000340 0e e1 4b bd 0e ef 9c bd 68 48 93 3d 18 2b 11 bc
       -0.049775176 -0.076627836 0.07191545 -0.008860372
000350 76 2d 86 bd d8 41 5a 3d 0b 6e 05 bd f5 39 16 bd
       -0.0655164 0.05328545 -0.03257565 -0.036676366
000360 0d 45 d8 3d 6d ea 2e be 26 35 1e be 9b 3c 07 3e
       0.105600454 -0.17081614 -0.15449962 0.13206713
000370 39 16 c6 3c 0d 16 26 bd aa 3d be 3d bb c0 8a 3e
       0.024180518 -0.040548373 0.09289105 0.27100167
000380 55 30 18 3d 72 e9 0c 3d 2e d1 d4 3d 9b 35 31 bd
       0.037155468 0.03440232 0.1039146 -0.043264013
000390 bd f6 4d 3d 97 fb ae bd d5 c2 c4 3b 37 00 9f bd
       0.050284136 -0.08544081 0.006004671 -0.07763713
0003a0 13 3f ae 3c 6e 6c 55 3d 64 c9 3b bd cc a6 59 bb
       0.02127031 0.05210536 -0.045846358 -0.003321099
0003b0 3f 6e 8d bd a9 48 76 3e e6 5e 2a 3a e5 14 46 3e
       -0.069057934 0.24051155 0.00064991263 0.19343908
0003c0 96 db f5 bd c4 18 c4 bd 05 60 99 bd 67 38 a9 3d
       -0.12004773 -0.09575036 -0.074890174 0.08262711
0003d0 3b af b8 3c ee e8 32 be 55 ec 65 3d 91 ad e1 3c
       0.022544494 -0.17471668 0.056133587 0.027548583
0003e0 73 4a 5a bd 35 29 9f bd 74 05 24 3e 40 c8 d6 bd
       -0.053293657 -0.077715315 0.16017705 -0.104874134
0003f0 81 f2 fe bc 0a 09 50 3e ed 6a b6 bb c2 ea 3b be
       -0.031121494 0.20315948 -0.0055669458 -0.18351272

rnn.weight_hh_l1 f4 [512, 128]
000000 87 79 21 40 c3 17 61 bd b1 bf 94 be 88 d3 d5 bf
       2.5230424 -0.0549543 -0.290525 -1.6705179
000010 1a c4 a8 3e 3b a5 70 3e 9d 9a 41 bf 9f e6 fc 3d
       0.32962114 0.2350053 -0.75626546 0.12348675
000020 fe 63 fa be cb b4 84 be 84 75 99 3f 5a 3e 92 bf
       -0.48904413 -0.25919184 1.1988988 -1.1425278
000030 c6 99 2e bf 5a 60 23 3d 83 c0 61 be 16 c2 3e 3f
       -0.6820339 0.03988681 -0.22046094 0.745149
000040 4d f8 cf 3e 3d 72 1c bf af 62 7d 3f 01 90 1e 3f
       0.40619126 -0.61111814 0.98978704 0.6193848
000050 93 76 9e 3e 52 f3 a8 be e1 4e 22 3e 46 9a 37 be
       0.3094984 -0.3299814 0.15850402 -0.17929944
000060 84 1f fd bb 9b 5b c5 be 40 fe 81 bf ef 05 d0 3e
       -0.007724704 -0.38546452 -1.0155716 0.40629527
000070 48 16 a5 3f e8 ba 7a 3d b4 66 63 bf ea e2 7a bf
       1.2897425 0.061213404 -0.8882859 -0.98002493
000080 25 21 b1 3f e1 4e 04 3e 1a bc 4a 3f 98 0c 88 3d
       1.383824 0.12920715 0.7919327 0.06643027
000090 a6 1d 8e bc b6 13 c7 3e a2 cd 43 bf ec 7b 8c 3e
       -0.017348122 0.38882226 -0.76485646 0.27438295
0000a0 3c 0a 9e 3e 86 d7 b0 be a6 51 2d 3f 19 13 ca bf
       0.30867183 -0.3453943 0.6770271 -1.5787078
0000b0 6f 28 8b 3f 61 c1 3f bd d7 68 6c 3f b4 78 e7 3d
       1.0871714 -0.04681528 0.9234747 0.11302319
0000c0 dc c2 7c 3f a3 da 55 3d 78 51 64 bf 66 5f b2 bf
       0.9873483 0.05221046 -0.8918681 -1.3935363
0000d0 66 af 3c bf 6d 26 af 3f d9 06 43 bf 62 6f e6 be
       -0.73705137 1.3683602 -0.76182324 -0.45006853
0000e0 70 8d 9a bf 74 0a cb be 0d ce a4 be 05 23 15 bd
       -1.2074413 -0.39656413 -0.32188454 -0.03641035
0000f0 57 2f f1 3f 10 78 04 bf e3 a5 da be 58 a4 04 40
       1.8842572 -0.517457 -0.42704687 2.0725307
000100 45 2f 7f 3f bd 88 e6 be 9e ca 29 bf 65 dd 10 40
       0.996815 -0.45026198 -0.66324794 2.2635128
000110 ed e1 0f bf bd f7 ae 3e 5b 1a 91 3e c4 23 e4 3e
       -0.5620411 0.34173384 0.2834042 0.44558537
000120 b1 ed fe be 53 30 07 bd 26 fd 08 bf 02 08 14 be
       -0.4979072 -0.03300507 -0.53511274 -0.1445618
000130 2a 7c 8f be 83 2e 98 bd e0 cc 5e bf 45 98 a4 3f
       -0.28024417 -0.074307464 -0.87031364 1.2858969
000140 d8 bc a6 3e 7e e5 0d 3f 2c 26 ec 3e 56 30 18 3f
       0.3256595 0.554283 0.46122873 0.59448755
000150 59 21 d2 3d 72 c8 77 be 89 16 25 3f 9a 20 84 bf
       0.10260267 -0.24197558 0.6448751 -1.0322449
000160 9c f3 4c bf 79 7e 1b bf 61 f9 44 3e f1 79 8c bd
       -0.8005922 -0.60739857 0.19235756 -0.06859196
000170 e6 52 8c bf 75 61 b7 3e 43 e6 92 3f 64 f5 93 bf
       -1.0962799 0.3581654 1.147652 -1.1559262
000180 63 82 bb 3e 27 01 80 bf 8e 88 3a bf c9 b2 f9 3e
       0.36622915 -1.0000352 -0.72864616 0.48769215
000190 5d a4 3f 3f a9 b9 63 bf 0a c2 9a 3d c7 d4 a7 be
       0.74860173 -0.8895517 0.07556541 -0.32779524
0001a0 12 ad 63 3e 43 be 22 3c 78 2d a3 bc 46 3a 29 3f
       0.2223399 0.009933057 -0.019919142 0.66104543
0001b0 a1 62 92 3e 6e 21 e1 3e 99 b0 9d be 26 98 34 3f
       0.28590873 0.43970817 -0.30798796 0.7054466
0001c0 ff e6 44 bf ca 66 7a bf 41 ba 36 3c 80 84 69 be
       -0.7691497 -0.97813094 0.011152805 -0.22804451
0001d0 43 9b 87 3e a9 e3 66 bf 09 f8 b4 3e f2 55 7b 3f
       0.26485643 -0.9019113 0.35345486 0.9817802
0001e0 65 0e 26 bf 01 e1 08 3f 00 90 05 3f fb fc e2 3e
       -0.64865714 0.5346833 0.5217285 0.44333634
0001f0 49 86 9a 3f ab 4c 84 3e 00 53 46 3e bf e4 02 bf
       1.207223 0.25839743 0.193676 -0.5113029
000200 f8 cc 2c bb 16 cf 9a 3d 51 7c f0 bd 71 fd f4 3c
       -0.0026367288 0.0755903 -0.117424615 0.029906007
000210 ac db b9 3b 97 16 82 bd db aa 6b 3c 3d 69 86 bd
       0.005671939 -0.06351965 0.014383997 -0.06563041
000220 41 d7 ce bc 96 a3 91 bc d9 a0 9e bc c6 01 b3 3d
       -0.025249125 -0.0177782 -0.019363808 0.08740573
000230 da bf 4a 3d 8a ff ed bd 3a 06 0d 3b 8a 06 25 be
       0.04949937 -0.11621006 0.0021518604 -0.16115776
000240 34 27 f4 3d 58 3c 8c 3a 8f e2 24 be 20 1a 3e 3e
       0.1192154 0.0010699136 -0.1610205 0.18564653
000250 b9 61 10 3e 5d 12 1f 3d 25 e3 0e be e0 7c 49 3d
       0.14099778 0.038835872 -0.13953836 0.049191356
000260 3d b9 1e be a2 be b1 bc 21 1c de 3d 5e dc 4d 3c
       -0.1550035 -0.021697346 0.10845209 0.012564747
000270 05 ef 88 3c 68 f4 df 3d 29 f7 8f bd 3b 32 00 bc
       0.016715536 0.10935289 -0.07029564 -0.007824476
000280 fc 27 b5 bd 11 c6 03 3e 7e c9 0a 3e e2 68 b4 3d
       -0.08845517 0.12868525 0.13553426 0.08809067
000290 7f 24 1d be 16 6e ee bd 8d 18 ee bd 5e 2a ac 3d
       -0.15345953 -0.11642091 -0.116257764 0.084065184
0002a0 49 c5 c7 bd 52 56 bf 3d e5 49 02 be cb bb 22 be
       -0.09754426 0.09342636 -0.12723501 -0.1589195
0002b0 18 ea 28 be d5 eb b5 3d ea 02 d9 bd ca d4 9b 3d
       -0.1649555 0.08882872 -0.10596259 0.07608946
0002c0 8c 5f e7 bc 17 3d c1 bd 03 ca 10 3e af 3b 08 3e
       -0.028243802 -0.0943548 0.14139561 0.13304017
0002d0 44 b1 46 3d bb 4d 28 bd 58 8a d0 3b eb 1b 15 be
       0.048508897 -0.041089755 0.006364148 -0.14561431
0002e0 1c 6d 25 3d df 6a d4 bc 5e f4 eb 3d 3c 17 90 bd
       0.040387258 -0.025929866 0.11521219 -0.070356816
0002f0 2f fe 22 bd 2d df 05 3e 3e 41 d8 bd 93 35 69 bc
       -0.03979319 0.13073416 -0.10559319 -0.0142339645
000300 ee cd 32 3d 43 50 8c bd c5 d7 b0 bd ae 88 7d bd
       0.04365342 -0.06851246 -0.08634905 -0.061897926
000310 95 35 af bc 31 f0 1f 3e 8b 30 98 3d e3 d4 49 bd
       -0.021387855 0.1561897 0.07431134 -0.04927529
000320 29 ad e6 3d d7 f4 00 be c4 ce d9 3d 90 f2 23 be
       0.112634964 -0.12593399 0.106351405 -0.16010499
000330 51 ac f8 3c fe d5 72 bc 6c e0 fd 3d 02 e8 90 3d
       0.030355604 -0.0148215275 0.12396321 0.07075502
000340 55 ae 1a be 1c f3 87 3b b8 2e 8e bd 63 03 c0 3d
       -0.15105565 0.004148854 -0.06942505 0.09375646
000350 78 7d fa bc 88 2b 86 3d 72 da b4 3c 65 f1 25 3d
       -0.030577406 0.06551272 0.02207682 0.040513415
000360 3b ba 3c 3b 5c 6b 84 3a 20 2c 5a 3e 1c e8 c6 3d
       0.0028797525 0.0010102796 0.21305895 0.0971224
000370 c9 e2 92 3c ef c0 9e 3d ec ca 99 3b 3c af 49 3c
       0.017930405 0.07751643 0.0046933796 0.012309846
000380 b7 39 8e 3d 74 12 40 3d e2 46 d8 3c 85 5d 38 be
       0.06944602 0.0468926 0.026400987 -0.18004425
000390 c0 9e 20 3d b8 9a 26 3e 2e 8b 5f bd 77 38 95 3b
       0.039213896 0.16269958 -0.05457609 0.0045538503
0003a0 95 8c f3 3d 16 80 b0 bc 86 ab ae bc f0 e5 61 3d
       0.11892048 -0.021545451 -0.021322023 0.055150926
0003b0 40 ba 3b bd 05 b7 1b be 84 e0 0d 3e cc dc 8b bd
       -0.04583192 -0.15206535 0.13855177 -0.06829223
0003c0 27 17 9f 3b c7 8c 83 bd 47 92 0b be f9 c1 bf bd
       0.004855055 -0.064233355 -0.13630019 -0.09363169
0003d0 a6 9c 7c bd 33 f7 f5 3d ef 5a e4 3a 18 dc 99 bd
       -0.06167283 0.1201004 0.001742212 -0.07512683
0003e0 cd ac 6a 3d d9 5a 0c 3d 4b e1 8f 3d e9 4d be 3d
       0.057293702 0.034266327 0.07025393 0.09292204
0003f0 a6 50 59 3d 54 30 cd 3d ca 2b 5a 3d ad b6 fe 3d
       0.053055428 0.100189835 0.053264417 0.124371864
