preTrained/CharRNN_reviews_128_2_0.2.pth (torch, 999776 bytes, 11 tensors)

embedding.weight f4 [71, 71]
000000 5f 68 2f bf e6 b1 1b bf df f3 cd be f2 13 a8 40
       -0.6851863 -0.60818326 -0.4022512 5.2524347
000010 69 7a 9a 3f 0d f9 e4 bf 2a fb e8 3e 07 b7 86 bf
       1.2068607 -1.7888504 0.45504123 -1.0524606
000020 01 94 9e be fe 75 95 be 46 b8 00 be b9 1d 1a c0
       -0.30972293 -0.29191583 -0.12570295 -2.4080641
000030 37 1e b5 3f 7f 84 07 bf 9f 4b 23 bf 20 ec 1e bf
       1.4149846 -0.5293655 -0.63787264 -0.6207905
000040 3a 61 83 bf dc 2e 93 bf 60 f7 a7 3f a3 d7 c6 bf
       -1.0264046 -1.1498675 1.3122368 -1.5534557
000050 e6 75 c9 bf 04 25 9c be df 9b 24 c0 d1 71 e6 bf
       -1.5739105 -0.3049699 -2.5720136 -1.8003484
000060 72 7c 06 bf 84 a2 8a 3f 3e 8c 3f 3f 03 f7 1d 40
       -0.5253364 1.0830846 0.7482337 2.4682014
000070 f5 5a 0a bf f8 80 0e 3f d9 b9 12 40 a4 a1 cf 3f
       -0.5404504 0.5566554 2.2925932 1.6221204
000080 1b 51 00 c0 31 58 f6 bf cb ae 15 3e cb 53 4e 40
       -2.0049503 -1.9245664 0.1461746 3.2238643
000090 99 00 3a c0 a1 19 1f 40 a2 f7 1e 40 0b d9 7e 3f
       -2.9062865 2.4859393 2.4838643 0.9954993
0000a0 ba 67 dc bf 1d 2a a9 be bd 4c 3d 3f af e1 a3 be
       -1.7219155 -0.33039942 0.7394522 -0.3200812
0000b0 76 16 b5 3e 6e 87 5a c0 db c6 35 40 d2 fe f4 3f
       0.353687 -3.414516 2.8402622 1.9140265
0000c0 d6 af 42 3f fe a9 2a 3d 4d 49 25 c0 be 7c 89 bd
       0.76049554 0.041666023 -2.582599 -0.06713246
0000d0 fc da 25 3f d7 5b 23 40 2a 0b ce bf 53 a6 3a 3f
       0.6478727 2.5524805 -1.6097157 0.7291004
0000e0 76 64 e4 bc ed 81 d7 bf d8 c5 fb 3e 35 75 83 c0
       -0.027879935 -1.6836525 0.4917438 -4.1080575
0000f0 2e a3 0c c0 bf d2 a8 3e f6 2a 86 c0 3c ff 1b be
       -2.1974597 0.32973287 -4.1927443 -0.15234083
000100 3e c1 fc 3f 80 68 94 bf 2b 09 67 3f 44 65 b3 be
       1.9746473 -1.1594391 0.90248364 -0.35038197
000110 8b 12 8d 3e 91 04 f8 bd 07 0b a2 be d6 f4 ff 3c
       0.2755321 -0.12110246 -0.31649038 0.031244677
000120 c0 17 5a 3f d9 11 08 bf d9 60 c2 3f be 07 94 bf
       0.8519249 -0.53152233 1.5185806 -1.1564863
000130 22 47 21 3e 0e 47 79 3d fa 10 5a 3f 2f 9c 94 be
       0.15749791 0.06085878 0.85182154 -0.2902541
000140 e4 94 23 be a8 49 67 bf 92 f7 52 bf 38 49 16 c0
       -0.15974766 -0.90346766 -0.8240901 -2.348219
000150 2e 5c 54 bf 6d d6 9f bf 39 f5 13 3f 74 8f f2 bf
       -0.82953155 -1.2487313 0.57796055 -1.8950028
000160 54 7a 72 be 7d 2c 23 3f 1d 4a 4e bf 92 68 1b c0
       -0.23679477 0.6373976 -0.8058184 -2.4282575
000170 81 0d a2 bf b0 42 00 3e 38 62 9f 3d 7b 2a 35 3f
       -1.2660371 0.1252544 0.077824056 0.70767945
000180 c8 5c cd 3e 10 ce c8 bf 0e c1 b1 3e 28 55 cb bd
       0.4010985 -1.5687885 0.34717602 -0.09928352
000190 72 e3 37 3e 38 cf 83 be e4 84 61 bf a1 03 e2 3e
       0.17957857 -0.25744033 -0.880934 0.44143394
0001a0 40 11 42 bf 8d 84 38 3e 13 91 3b 3e 04 5d a7 3e
       -0.7580757 0.18019314 0.1831706 0.32688153
0001b0 66 f5 b7 3e cb 0d 03 40 d0 0e 1d c0 99 07 8e bf
       0.35929412 2.0477169 -2.454029 -1.1096069
0001c0 d8 35 38 bf 43 57 ae 3f 04 b7 9e 3f 45 91 2a bf
       -0.7195716 1.362038 1.2399602 -0.66627914
0001d0 60 ad 07 3f 87 f4 e7 3e 0c d4 25 be ee 8c a0 3e
       0.52998924 0.45303747 -0.1619417 0.3135752
0001e0 3a 13 16 40 e9 64 c2 bf 4c c3 84 3f 8d 83 3c bf
       2.3449235 -1.5187045 1.03721 -0.7363823
0001f0 63 bc 5b 3e c2 ea 83 3f 06 e5 b4 3e 17 2f 0f bb
       0.21458583 1.0306017 0.3533098 -0.0021848136
000200 e6 aa 32 3e 21 82 5d bf 84 6e 06 bf 3f a1 08 3f
       0.17448005 -0.86526686 -0.52512383 0.5337104
000210 73 59 1d 3e f8 ac 5b bf dd 58 df 3e dc 82 80 3f
       0.15366153 -0.85810804 0.43622485 1.0039935
000220 11 b2 88 3f a1 32 28 3f 34 b2 04 c0 49 4f 12 c0
       1.0679342 0.65702254 -2.0733767 -2.2860892
000230 90 93 39 bf 36 6b 98 bf e5 ab 64 c0 87 fc fa 3b
       -0.7249079 -1.1907718 -3.5729916 0.007659498
000240 41 86 ac bf e9 ca 2f be 73 64 b9 3f 34 cb 65 3d
       -1.3478471 -0.17167248 1.448378 0.056101993
000250 04 27 29 3f 87 11 bc 3f 3d 95 75 bf 9e ef bb 3f
       0.6607516 1.4692849 -0.95930845 1.46825
000260 a3 98 06 bf 01 02 3d 3f 4a 33 33 40 b7 89 b0 3f
       -0.52576655 0.7383118 2.8000054 1.3792027
000270 ae 6d 1c 3d 23 fe 38 bf c0 dc 08 40 65 6b 67 c0
       0.038190536 -0.7226278 2.1384735 -3.6159298
000280 c6 56 0b c0 0d f9 00 c0 67 0c b1 bf 66 0d 9f 3f
       -2.1771712 -2.0152009 -1.383191 1.2425964
000290 ac 9a 68 bf 22 e6 de 3f 6d 65 64 40 05 6c bd 3f
       -0.9086101 1.7413981 3.5686905 1.479859
0002a0 57 11 1f 40 c3 90 da 3e a9 8f 1b bf 11 f4 95 3f
       2.4854333 0.4268857 -0.60766083 1.1715108
0002b0 f2 52 d4 3f 2c 6c 84 40 31 f1 5a bf 43 57 78 3f
       1.6587813 4.1382046 -0.8552428 0.9700815
0002c0 30 22 ad 3f 4b dc fa 3e 5d 68 90 c0 06 48 f2 3f
       1.3526058 0.48996195 -4.5127397 1.892823
0002d0 cf ca d4 bf b2 90 15 3e d6 43 83 bf ff ca cc be
       -1.6624392 0.14605978 -1.0255077 -0.39998624
0002e0 6f 69 15 3e 1b e4 ee be f2 9e 61 3f 97 75 98 bf
       0.14591001 -0.46658406 0.88133156 -1.1910886
0002f0 13 c5 29 be 64 76 88 bf c1 70 ca 3f 8c 40 0e 40
       -0.16579084 -1.066113 1.581566 2.2226896
000300 a6 72 0a 3f 98 ce b3 3f a2 66 1e 40 db 97 bb bf
       0.5408119 1.4047422 2.4750142 -1.4655718
000310 25 1f e3 bf 6b d4 9f 3f bc 5d 99 bd 48 a4 47 c0
       -1.774388 1.24867 -0.074885815 -3.119402
000320 34 8c 2e 40 6c 95 47 c0 6d b3 0d 40 50 0a 97 3f
       2.7273073 -3.118495 2.2140763 1.1800022
000330 f6 62 78 be e6 c8 1b c0 a2 5b fc 3f d9 8c 78 bf
       -0.242565 -2.4341369 1.9715464 -0.97089916
000340 ad c2 3c 3e db ff 24 3e a8 b0 98 be 5c f4 f9 bf
       0.18433638 0.16113226 -0.29822278 -1.9527698
000350 1e 88 5b 3f 3f fa ac bf 6b 3e 6b 3f 2d 7e 89 be
       0.85754573 -1.3513869 0.9189212 -0.26854077
000360 95 32 b8 be 0f 86 60 bf 65 d5 06 bf 90 e2 fd 3f
       -0.3597609 -0.8770456 -0.52669364 1.9834766
000370 eb b3 17 c0 62 8c 50 3e 5c cc 03 c0 14 2b dc be
       -2.3703563 0.20366052 -2.059348 -0.43001616
000380 79 f5 f6 3e 81 18 ef 3f 07 d7 ec bd fe 87 0d 3f
       0.48234156 1.8679353 -0.11564451 0.5528563
000390 3f 2a 2a bf a0 47 06 bf 22 83 21 c0 9e 61 c6 be
       -0.6647071 -0.5245304 -2.5236287 -0.3874635
0003a0 66 b5 09 3f cc b0 85 bf 10 ab c0 3f 0c ad 01 40
       0.5379242 -1.0444579 1.5052204 2.026187
0003b0 ee 0c 54 3f 25 eb db 3d 06 e1 69 3f 0d a3 fe 3f
       0.8283223 0.1073821 0.91358984 1.9893509
0003c0 3b 4f 0b 40 fc 92 84 3f be d8 4f c0 eb b5 87 3f
       2.1767108 1.0357356 -3.247604 1.0602392
0003d0 07 f1 a4 bf c3 46 1c 40 80 ab b4 be 54 67 fe bf
       -1.2886056 2.441819 -0.35287094 -1.9875283
0003e0 ef b4 84 3f ab 91 19 bf ca 51 df bf 4a c9 d0 3f
       1.0367717 -0.59987897 -1.7446835 1.6311429
0003f0 e2 c0 94 3f c1 36 ac bf e3 f6 1e 3f 20 bf 90 3f
       1.1621363 -1.345421 0.6209547 1.1308327

rnn.weight_ih_l0 f4 [512, 71]
000000 b2 35 45 3f cb 4b d6 3e c6 08 9e 3e d7 58 24 3f
       0.7703506 0.418547 0.3086607 0.6419806
000010 ec 42 ea bd b4 59 ca 3d 39 0f ed 3e 0b ff 11 3f
       -0.114385456 0.09880391 0.46300676 0.5702979
000020 a8 b7 62 bf 8b f0 74 3e ee 15 ab bc c5 c7 3a bf
       -0.8856149 0.23919885 -0.02088448 -0.72961074
000030 97 70 87 bd 86 91 31 3e 6a 90 ef bd ce fb d8 39
       -0.06613272 0.17340669 -0.11697467 0.0004138634
000040 8e 06 da be d5 94 0f 3f ff 20 4f bf 5c 0d 14 3e
       -0.42583126 0.56086475 -0.80909723 0.14458221
000050 6b 9a d2 3e 17 05 50 bf 2e 2f 07 3e 86 b5 a7 3e
       0.41133437 -0.81257766 0.13201591 0.3275568
000060 b2 a4 d8 3e 37 c7 13 3e ae dc 90 be 07 63 7d bf
       0.42313153 0.14431463 -0.28293365 -0.9897923
000070 81 4c 33 3f 0e af 80 bf 08 da 4d be ab 16 d4 3e
       0.7003861 -1.0053422 -0.20102704 0.41423544
000080 f2 c7 1f bf ad e4 99 3f 5e a7 4a 3f 55 d5 47 3f
       -0.6241447 1.2022911 0.7916163 0.78059894
000090 a1 1b ba be 6b 85 dc 3e 98 f8 5c bf b9 a6 35 be
       -0.36349204 0.4307054 -0.86316824 -0.17739381
0000a0 89 59 68 bf 6d a9 64 be 73 ea 9c bd c0 30 72 3f
       -0.9076162 -0.22330256 -0.07661905 0.94605637
0000b0 53 d5 b9 bc 3b 6f 91 3f c6 d4 9e be 36 ed ec bf
       -0.022684729 1.136207 -0.31021708 -1.8509891
0000c0 9b 76 86 be f7 0f 87 be 86 0b a0 be 53 33 cc be
       -0.26262364 -0.26379368 -0.31258792 -0.39882907
0000d0 c5 7e 7b be ac c3 09 bf 5e 52 ec 3e 04 ce c6 3e
       -0.24560077 -0.53814197 0.4615659 0.38829052
0000e0 1e f7 9c be 69 bb 53 3f 14 48 8f be 23 2a 40 be
       -0.30657285 0.8270784 -0.2798468 -0.18766074
0000f0 0e a2 74 3e d4 aa 83 be 66 5c 92 bc 0a 99 08 3f
       0.23889944 -0.2571627 -0.017866325 0.5335852
000100 6f 27 75 be 17 59 32 3e 4e c1 53 3f 04 42 c2 be
       -0.23940824 0.17416798 0.82716835 -0.3794099
000110 3a b4 37 be b8 7a 80 3f 12 dc 4a be 62 51 62 be
       -0.17939845 1.0037451 -0.19810513 -0.22101358
000120 46 c4 01 bd 15 4d 12 3e db 78 29 be 25 bc a2 3d
       -0.03168132 0.14287217 -0.16550009 0.07946042
000130 f8 df d3 bb 51 5b 11 bd 67 ff a9 bd 78 90 31 be
       -0.006465908 -0.035487477 -0.08300667 -0.17340267
000140 99 dd a9 3d ec e6 91 3d 79 d3 a3 3c 66 ee 0b 3e
       0.082942195 0.07124123 0.019998299 0.1366516
000150 f2 88 15 3e 63 78 4f bd d9 24 46 be ea f7 a3 3d
       0.14603022 -0.05065192 -0.19349994 0.0800627
000160 a9 75 83 3e 35 22 11 be c4 42 87 3b 7c ae 4d 3d
       0.25675705 -0.14173205 0.004127832 0.05021523
000170 23 17 8a bc f2 ef 85 bd d2 6d 05 bd 16 0a a0 bc
       -0.016856736 -0.065399066 -0.032575436 -0.01953606
000180 0b 78 c7 bd 21 75 ba bd ee 6f 5c be 2f 66 8f 3d
       -0.09739693 -0.09104372 -0.21527073 0.07001912
000190 4f 32 dd 3b cc 62 3f 3e a7 d5 ef 3d 34 87 5f 3d
       0.006750382 0.18690032 0.11710673 0.0545723
0001a0 ab 9f 10 3e 75 ff cf 3d 46 97 b6 bc d1 e4 d0 bc
       0.14123408 0.101561464 -0.02228893 -0.025499733
0001b0 04 57 00 be 49 db b9 bb 97 81 17 bc 2b d9 da 3c
       -0.12533194 -0.005671893 -0.009247205 0.026714882
0001c0 e1 04 96 bd 0b 24 96 be 5a 28 80 bd d0 57 aa 3c
       -0.07325149 -0.29324374 -0.062576964 0.020793825
0001d0 3b 7b 86 bd f0 e0 95 bd af e1 06 bd d5 41 8f bd
       -0.06566473 -0.07318294 -0.032930072 -0.06994978
0001e0 d4 fa f8 bd 59 7a bc 3d 76 d3 10 be b6 78 b3 3c
       -0.12157217 0.092030235 -0.14143166 0.021908145
0001f0 84 ab 34 bd a3 50 35 3c 39 43 03 be ef 2e 97 3d
       -0.044108883 0.011066589 -0.12818612 0.07381999
000200 73 04 01 3d b0 1b c8 3d 20 fc 9f bd 42 d9 bc bd
       0.031498384 0.09770906 -0.07811761 -0.09221126
000210 a3 26 16 bd 6d f1 7a 39 0e a3 88 bd f7 7f b1 bd
       -0.03665794 0.00023931796 -0.06671725 -0.086669855
000220 2b fb 98 bd 80 ee 83 bd cb 73 95 bc e9 ef 39 3e
       -0.074697815 -0.06441975 -0.018243691 0.18157925
000230 ba 94 c5 ba b8 6c 07 3c a4 4f 92 be 82 7b 73 be
       -0.0015074231 0.008265667 -0.28576386 -0.23777583
000240 84 fa f3 bd b2 c2 3e be 8d a4 38 bf 91 25 ec 3e
       -0.119130164 -0.18628958 -0.72126085 0.4612241
000250 b6 ee 2e 3e 91 96 1c be de 78 8b bb f5 4d 2a 3e
       0.17083248 -0.15291812 -0.004256352 0.16631301
000260 84 3b 69 3e 57 87 0c bf 60 bc 64 bf 2e 97 0c 3e
       0.2277661 -0.5489401 -0.8934994 0.13729545
000270 34 af 12 3f 90 0d 5f bd 83 d5 35 be ab b2 f0 3f
       0.5729859 -0.054456294 -0.1775723 1.8804525
000280 26 a1 3c bf b2 ed 46 be e8 f0 c8 be b4 79 02 bf
       -0.73683393 -0.19426611 -0.39246297 -0.50966954
000290 c9 d0 e3 3e de 1e 33 bf 73 02 24 bf ab 6c 88 3f
       0.44495228 -0.69968975 -0.6406624 1.0658163
0002a0 04 c9 5d be d4 07 7f 3e 9c 6d ed 3e 1d 0a 00 be
       -0.21658713 0.2490533 0.46372688 -0.12503858
0002b0 94 39 13 3e d4 70 ef 3e e0 be fb 3e b9 c6 59 3e
       0.14377433 0.4676577 0.49169064 0.21267213
0002c0 36 d8 cb be 2f 49 13 bf de 55 57 be bb 89 85 3e
       -0.39813393 -0.57533544 -0.2102885 0.26081643
0002d0 3f 8a 62 3f 80 2a 95 3e 13 c4 4b bf 4c 10 dd be
       0.88492197 0.29133987 -0.7959606 -0.43176496
0002e0 5f b1 4d 3e 9b 9d 01 3f 9f 16 7a bf e6 ab 4b bd
       0.20087193 0.5063111 -0.9769077 -0.049724482
0002f0 8d dd 86 3c 37 82 ed bd cf 82 20 bf 91 57 f5 3d
       0.016463066 -0.11597102 -0.626996 0.119795926
000300 0c 6a 84 bf 73 71 56 be a5 c5 52 3f 66 dd 61 3f
       -1.0344863 -0.20941715 0.8233283 0.8822845
000310 f0 e0 2a 3c 0e 38 be be cf e4 94 3e 69 0f aa 3f
       0.010429606 -0.3715214 0.29080817 1.3285953
000320 69 8a 21 bf da 4d 72 be 54 52 d2 3f 60 1b 15 3f
       -0.6310182 -0.2366251 1.6431375 0.58244896
000330 0f 79 1d 3f 73 62 81 be fa 53 48 3e c2 51 1c 3e
       0.61512846 -0.25270423 0.19563285 0.15265563
000340 38 c4 d0 be e2 df 97 bd 30 00 24 bf 2f ec 20 bf
       -0.40774703 -0.07415749 -0.64062786 -0.6286039
000350 c1 e0 ad 3e 20 d8 18 bf 0f 01 db 3e 99 04 41 bf
       0.33960536 -0.5970478 0.42774245 -0.7539764
000360 df 52 2a 3e af 8e da bb 80 d2 8e 3f 74 55 ff be
       0.16633175 -0.0066698412 1.115799 -0.49869883
000370 a5 9e 38 3f 96 a1 31 3e 35 ee 54 3f 98 b3 46 3e
       0.7211707 0.17346796 0.83175975 0.19404447
000380 b7 e1 48 3f 0a 81 99 3e e8 b6 26 3f 5e eb 36 3e
       0.78469414 0.29981261 0.6512284 0.17863223
000390 79 0b bb 3e d0 c2 6b bf 70 27 82 3d a5 fc 93 3e
       0.3653219 -0.92094135 0.06355178 0.2890369
0003a0 83 9c 03 bf 9b 6a cb be 02 18 bc be 30 92 55 bf
       -0.5141069 -0.3972977 -0.36737067 -0.8342619
0003b0 bb 14 07 3f 80 14 2d 3f b4 24 e7 3e ad d0 05 bf
       0.5276601 0.67609406 0.4514519 -0.5227154
0003c0 50 29 b5 bd fe 4c 1b 3e 84 dc 81 bf 89 12 c7 3a
       -0.0884577 0.15166089 -1.0145421 0.0015188019
0003d0 61 eb 2c bf 09 88 64 3f 48 bf 28 bf 0a e0 f4 3d
       -0.6754666 0.89270073 -0.6591687 0.119567946
0003e0 f5 dd a7 3e d7 fb 1a 3f bf f9 4c 3e 78 35 62 bf
       0.32786527 0.6054053 0.20017146 -0.88362837
0003f0 05 8d 39 bf 64 29 13 bf 59 f7 12 3e ae 05 59 bf
       -0.72480804 -0.5748503 0.14352168 -0.8477429

rnn.weight_hh_l0 f4 [512, 128]
000000 05 d0 ee 3e 86 44 17 bf 92 6d 82 3d d7 9a d8 3d
       0.4664308 -0.59088933 0.06368555 0.10576408
000010 f6 aa 81 3e 96 94 0b bf 14 3d ac be 3f 1e ad be
       0.25325745 -0.545236 -0.3364035 -0.33812138
000020 ce 62 63 bf 83 b6 9e be 3d 37 63 3e bc f4 31 bf
       -0.8882264 -0.3099862 0.2218904 -0.6951406
000030 c9 5a 18 40 9e 7b 46 3e ca 09 90 be ef 8d f8 bc
       2.380541 0.19383094 -0.28132468 -0.030341117
000040 c1 e7 8a be 17 30 73 3f 00 c4 7f 3f 6c 50 f3 3d
       -0.2712994 0.94995254 0.9990845 0.11880574
000050 b7 37 6b be c1 31 56 3f ef 68 de bf df 9b 8b bf
       -0.22970472 0.8366967 -1.7375773 -1.0906943
000060 6c 73 ee be dc b3 94 bf 04 bf 19 3f 07 23 9d bf
       -0.46572435 -1.1617389 0.6005709 -1.2276314
000070 7e 90 d5 3f 1f d4 20 3f 6b 30 06 bf b2 67 91 3f
       1.668472 0.6282367 -0.5241763 1.135977
000080 4f 01 95 3f 53 a5 28 3e 08 15 0a be 80 8a 31 bf
       1.1641024 0.16469316 -0.13484585 -0.6935196
000090 50 92 b7 3e 12 98 69 3f 58 35 dc 3e 10 07 e8 be
       0.35853815 0.91247666 0.43009448 -0.45317888
0000a0 f5 2e 3b be db 0f 69 bf 1b dc b9 3f b0 50 39 3f
       -0.18279631 -0.9103982 1.4520296 0.72388744
0000b0 4c c4 54 bf 04 ee 37 3f 45 94 08 bf 52 09 43 bf
       -0.83112025 0.7184756 -0.5335124 -0.76186097
0000c0 17 0c d7 be 3e 5a 04 bf 68 28 8b 3f 23 1e c6 bd
       -0.4200141 -0.517002 1.0871706 -0.09673717
0000d0 e2 ff 85 3f 15 8b 00 40 50 37 87 bd 4c 3d 6a 3e
       1.0468714 2.008489 -0.06602347 0.22874945
0000e0 b5 8e 01 40 9b 8a 79 be 14 86 37 3d ba d0 35 3f
       2.0243351 -0.2436928 0.0448056 0.71021616
0000f0 b5 05 22 3f 39 04 db bf aa 23 23 bf 49 e5 b3 bf
       0.6328996 -1.7110664 -0.63726294 -1.4054347
000100 c0 25 e2 3e 2e 2c 1f 3f 4b 3f 78 3f ec 0c bc bf
       0.44169426 0.6217679 0.9697158 -1.4691443
000110 4a d6 38 bf f9 63 2a be 5d 90 b6 bd a0 3b 55 3f
       -0.7220198 -0.16639699 -0.08914254 0.83294106
000120 da bf 1d 3d 0e 3b 22 3f 08 4f 0a bf 13 92 85 be
       0.038513042 0.6337136 -0.5402684 -0.26088008
000130 5e 04 28 3f d9 3c 60 3e 7d 27 7f bf b7 24 ce be
       0.65631664 0.21898212 -0.9966963 -0.40262386
000140 e4 eb 0c bf 45 7b 26 3f b6 a2 6c be 26 1b 65 be
       -0.5504744 0.65031844 -0.23108944 -0.22373638
000150 35 cf d7 be 99 eb 76 bd d7 3f 3f 3f 70 62 51 bf
       -0.42150274 -0.060283277 0.74706787 -0.8179083
000160 1b c2 eb 3f 13 3c 28 3f 64 2c 56 bf 20 b1 29 bf
       1.8418611 0.65716666 -0.83661485 -0.66285896
000170 97 72 61 bf 81 d5 f5 3d db fe 18 bf a5 85 7e be
       -0.88065475 0.12003613 -0.5976388 -0.24855669
000180 ba 5b bf 3e f5 ad b4 be 51 64 d9 bf 42 22 52 3e
       0.3737467 -0.3528897 -1.6983739 0.20520881
000190 0a 1b 18 bc 45 80 82 3f 1d a1 0a 3f 2a 77 55 3f
       -0.00928379 1.0195395 0.5415209 0.83384955
0001a0 6e 97 41 3d 31 ae 07 3f 5a 11 43 bf e2 60 23 bd
       0.047263555 0.5300017 -0.7619835 -0.039887317
0001b0 04 51 5e be 62 f3 8a 3f bd 61 b1 3d 40 1e 17 be
       -0.21710593 1.0855525 0.0866122 -0.14757633
0001c0 f1 c1 fd be 7b 82 a7 bd 09 75 3a bf f6 08 85 be
       -0.49562028 -0.08179184 -0.7283483 -0.259834
0001d0 b3 1d 6a 3f 3e 41 97 be aa fd 56 bf d1 68 53 3f
       0.9145157 -0.29541963 -0.8398081 0.8258181
0001e0 8d 3f b4 bf 32 be 6f 3f 70 46 43 3e ea 74 62 bf
       -1.4081894 0.9364959 0.19069839 -0.88459647
0001f0 0f 5a ba be 54 9b 22 3e 17 e9 e3 3e 34 e2 20 bf
       -0.36396834 0.15879565 0.4451377 -0.6284516
000200 b9 a5 2a be 64 0e 75 be ab 13 90 3d 5c 0e 12 bd
       -0.1666478 -0.23931271 0.07035001 -0.035658225
000210 af 2a 88 3d 22 af 39 bd c9 b3 27 be 5e e3 73 3e
       0.06648766 -0.045333035 -0.16377176 0.23817202
000220 d5 7f 88 be 5f 94 a5 3d d2 8e 54 3e 59 b7 a2 be
       -0.26660028 0.0808494 0.20757607 -0.31780508
000230 64 71 67 3e 9c bc 01 be d9 a9 6f 3d 81 85 44 bd
       0.22601849 -0.12669605 0.05851159 -0.04797888
000240 13 e6 5f 3d c0 94 03 3d e0 b8 f3 3d 4f bb a9 bd
       0.054662775 0.03212428 0.119004965 -0.082876794
000250 ea 66 61 3d 14 ed 32 3d 8f ed 78 be 3a d8 d3 bd
       0.055029787 0.043683127 -0.24309371 -0.10343976
000260 e7 74 53 bd 53 2d 99 bd d8 28 39 be 17 64 26 be
       -0.05162516 -0.07479348 -0.18081987 -0.16249119
000270 e6 8a f9 bd 55 f9 3b bd c1 e7 40 be 01 d7 b4 3e
       -0.12184696 -0.04589208 -0.18838407 0.35320285
000280 ea da 8d 3d 3f a8 41 bc a2 63 fa bc 14 4c db 3d
       0.0692652 -0.011819898 -0.030565087 0.1070787
000290 70 1b f9 bc be fc 15 3e a1 8a a0 3d 92 18 96 bd
       -0.030408591 0.14647195 0.07838941 -0.07328905
0002a0 69 06 04 bd 5e e7 95 bd 86 16 d2 bd f3 fa 49 be
       -0.032232676 -0.073195204 -0.10258202 -0.19724636
0002b0 cf 2e b0 be 7f c2 59 3e ce c1 f9 bd 22 6e 8f 3e
       -0.34410712 0.212656 -0.121951684 0.28013712
0002c0 e5 99 08 3e e0 21 55 be 1b 82 06 bd ef f0 c2 3b
       0.13339956 -0.20813704 -0.032838922 0.0059491317
0002d0 10 ac 8e be bb 3f 28 3e 8f c3 39 bd d9 99 23 bd
       -0.27865648 0.16430561 -0.045352515 -0.039941642
0002e0 28 15 a9 3d 84 ec b3 3d 05 a9 64 3d 19 7a 9a 3d
       0.08255988 0.08785346 0.055825252 0.075428195
0002f0 b8 52 b0 bd 81 7e 70 be b7 b3 2b 3d 3d e9 4d be
       -0.08609527 -0.23485757 0.041919436 -0.20108505
000300 42 e8 1a 3e 50 42 05 3e 33 74 d9 3d b6 8f b4 be
       0.15127662 0.13013577 0.10617866 -0.35265893
000310 df 9e 18 be 55 29 c8 bd 7c 5f 44 3e 14 71 8e 3d
       -0.14904355 -0.097735085 0.1917705 0.06955162
000320 4f f4 8f 3e 99 f8 d0 bd cc 49 aa 3c b6 dd 3b be
       0.2811608 -0.10203666 0.020787142 -0.18346295
000330 26 6e 8e be 74 a7 1d 3d 07 ae 21 be 1d 0d e9 bc
       -0.27818412 0.038489774 -0.15789042 -0.028448636
000340 e4 d8 d1 bd f4 71 69 3e 62 ed 2c bd 7b 62 df bd
       -0.10246447 0.22797376 -0.042218573 -0.109074555
000350 fa 5f 71 3d e4 cc e2 bc 07 f5 1e 3e fd bc fc bd
       0.05892942 -0.02768559 0.15523158 -0.12340734
000360 61 fc b2 3d a2 8e 3a 3e 8d 72 1e 3d 35 0a 9b be
       0.08739544 0.18218473 0.038683463 -0.30281225
000370 2a 75 4f be 04 b4 d1 3d 69 9a d4 bd d3 31 33 be
       -0.20259538 0.102394134 -0.10381014 -0.17499475
000380 fb ed a4 bb 35 a7 76 bd 4f 08 30 be b3 74 70 be
       -0.0050332523 -0.060218055 -0.1719067 -0.23482017
000390 11 2f 31 bd d3 00 fe 3c 74 de da bc f7 47 d7 3e
       -0.043257777 0.031006252 -0.026717402 0.42047092
0003a0 12 b5 09 bd 53 90 bb ba 0b c9 41 be fe 62 06 3e
       -0.033619948 -0.001430998 -0.18924348 0.131237
0003b0 7a bd 02 be 7e c4 89 3c d4 05 09 3d 67 8c 04 3d
       -0.12767592 0.016817328 0.033452824 0.03236046
0003c0 43 dd 45 3e 08 88 5b be ca 0e d3 bc ea fa b3 bd
       0.19322686 -0.2143861 -0.025763888 -0.087880924
0003d0 82 f1 44 be fc 0c c7 bd ff 7e 01 be 16 2d 20 3e
       -0.19232753 -0.097192734 -0.12646101 0.15642199
0003e0 94 78 47 be 4c e2 fe bc e7 39 5d bd c4 0c aa bc
       -0.1947959 -0.031113766 -0.054010298 -0.02075804
0003f0 cb 23 33 3e ab 65 30 bd 94 d9 9a bc 5c ba 27 bd
       0.17494123 -0.043065708 -0.018902577 -0.04094921

rnn.bias_ih_l0 f4 [512]
000000 7a 13 4f 3f 90 4e 71 3d 8b 8d 72 3e fe 30 50 3f
       0.80889094 0.058912814 0.23686807 0.81324756
000010 00 cb 03 3f 22 e7 44 3d 6f 58 c8 bc 59 6f 26 3f
       0.5148163 0.048071988 -0.02445623 0.65013653
000020 3d 44 ef 3e c4 2e 85 3e 37 08 33 3d 96 6e 11 be
       0.4673175 0.26012242 0.043709006 -0.14202341
000030 8b a0 1a 3f 6d 5f b5 3e 3d c0 a2 3e f1 8c bf bd
       0.6040122 0.35424367 0.3178729 -0.09353054
000040 c1 b0 6c 3e 7f ec 03 be 72 95 1b 3f 92 9a e2 3e
       0.23114301 -0.12883185 0.6077491 0.44258553
000050 84 28 14 3f 64 42 11 3f 55 84 42 3f cd a7 50 3f
       0.5787432 0.5674193 0.7598317 0.81506044
000060 ec ad af 3e 6b f8 a4 3d 9b 9a 71 3f e9 af 00 3f
       0.3431238 0.080551945 0.94376534 0.5026842
000070 c7 e5 61 3e 19 81 9b 3e 77 68 f5 3d b8 4d a5 3e
       0.2206031 0.3037193 0.11982816 0.32285857
000080 37 50 01 be 1b 1b 16 3f 17 7e 86 3e 8e 90 7c bd
       -0.12628256 0.5863511 0.26268074 -0.061661296
000090 45 e8 b9 3e 51 f1 f2 3e 2d 5b 0c bd 06 17 c0 3d
       0.3631002 0.47449735 -0.03426664 0.09379391
0000a0 36 37 59 3e dc 58 0c 3f d7 b1 e8 3e 18 36 fd 3d
       0.21212468 0.5482309 0.4544818 0.12363833
0000b0 75 07 2d 3f 59 50 49 3e 21 c5 eb 3e 02 60 a4 3e
       0.67589504 0.19659556 0.46048835 0.32104498
0000c0 a4 c6 f8 3e d4 e4 c3 3e ca 4b 08 3f aa 8e ab 3e
       0.4858905 0.3826052 0.53240645 0.33507282
0000d0 46 14 bf 3d 6f e3 f6 3e ca 2e 9a 3e 21 72 b6 bd
       0.09330039 0.48220393 0.30113822 -0.08908487
0000e0 a2 8a 50 3e 4d 07 75 3e 7d 1f 84 3e bb f4 47 3c
       0.20365384 0.23928566 0.25805274 0.012204344
0000f0 c7 30 8e 3e b0 48 d3 3d ac c2 f2 3d f3 05 ec 3d
       0.2777159 0.103165984 0.11853537 0.11524572
000100 df fa 11 3f 84 96 84 3d 4f d3 d7 3d eb 7c a5 3d
       0.57023424 0.06474021 0.10538351 0.08080467
000110 54 9f 48 3c c4 48 13 3f 0e dd ec 3e da 5e c3 3e
       0.012245018 0.57532907 0.462624 0.38158303
000120 90 82 0c 3f b6 65 70 3e 87 82 18 3f 9b 10 9b 3d
       0.5488672 0.234763 0.5957417 0.075715266
000130 ee a7 ca 3e e6 de 6f 3e 2b ad b9 39 06 72 0d 3b
       0.39581245 0.23424873 0.0003541497 0.0021582856
000140 4f bf b5 3e 99 66 a4 3e 0e a3 5c 3e ee f8 8a 3e
       0.3549752 0.32109526 0.21546575 0.27143043
000150 be c7 a0 3e 33 a0 0d 3e 03 17 66 3d bc 39 b6 3e
       0.3140239 0.13830642 0.05617429 0.35590923
000160 34 da b4 3e cb 34 75 3e db ad f9 3e 90 ca c8 3e
       0.35322726 0.2394592 0.48765454 0.39217043
000170 7d 59 08 3f 60 33 79 ba 64 d5 23 3f 4c c1 2b 3f
       0.5326155 -0.00095062517 0.63997483 0.6709182
000180 44 08 d6 3e 8c 4e 59 3e 94 35 60 3d 16 ec 7c 3c
       0.4180318 0.2122137 0.054738596 0.015437147
000190 53 c9 a8 3d f6 c8 eb 3e 58 ed fc 3e e6 cc ae 3e
       0.082415245 0.4605176 0.4939983 0.341407
0001a0 ef aa a1 3d 0a 7e cc 3e f9 f7 18 3f a6 e3 79 3c
       0.07893931 0.3993991 0.59753376 0.0152520295
0001b0 d1 32 8f 3e 0b 0c 1a 3f fc db 22 3f 72 3c 96 3e
       0.27968457 0.60174626 0.6361692 0.2934299
0001c0 2a 53 25 3e 30 8e 65 3f fa 0b 82 3e e8 1d bf 3d
       0.16145006 0.89670086 0.25399762 0.09331876
0001d0 0c 2b c0 3e 72 a3 c4 3e 74 4f ab 3d 45 1d 9c 3e
       0.37532842 0.3840595 0.08364764 0.3049108
0001e0 26 3c fd 3e c9 d1 87 3e a5 5c 57 3e bd 24 13 3d
       0.49459952 0.2652724 0.21031435 0.03592371
0001f0 14 00 b0 3e 80 df 06 3f 31 1c c0 3e 05 9c 40 3e
       0.3437506 0.52684784 0.37521508 0.18809517
000200 07 75 67 3d a0 c3 06 3e c0 3c d1 3e d9 ca 58 3e
       0.05650809 0.13160563 0.4086666 0.2117113
000210 bd 82 0f 3e 94 6c 08 3e c8 23 e2 be 1c 17 3c 3f
       0.14014716 0.1332267 -0.44167924 0.7347276
000220 c7 f5 3a bc df 79 77 bd 0a 40 10 3f 76 8b 03 3e
       -0.011411137 -0.06041896 0.56347716 0.12846169
000230 68 9f 79 3d d2 67 b7 3e 70 19 c1 be ec 44 19 3e
       0.060943037 0.35821396 -0.3771472 0.14967698
000240 7a 25 94 3e 7a 61 98 3e 6f 70 79 be 81 aa c9 3e
       0.28934842 0.2976187 -0.24359296 0.39387897
000250 49 d2 ef 3c 2e be 88 bc 7b 06 e3 be 5d e6 e1 bc
       0.029275076 -0.016692247 -0.44340882 -0.027575666
000260 5a 54 a6 bd 9e 01 49 3e cd e6 2a 3e a1 e2 09 3e
       -0.081215575 0.19629523 0.16689606 0.13465358
000270 e0 e1 21 3d b7 04 22 3e fd 08 8b 3d 0b c5 00 be
       0.03952205 0.15822111 0.06788824 -0.12575166
000280 97 b4 27 3e 8f c2 01 bf 52 2f bc be d0 12 10 3f
       0.16377483 -0.506875 -0.36754853 0.56278706
000290 0b dd 93 3e 71 cc 8b 3e 7d ef 1b 3e 3b 52 0f 3e
       0.2887958 0.27304414 0.15228076 0.13996212
0002a0 01 87 22 3e 42 c0 a1 bd 86 86 2a 3e a8 87 5e 3d
       0.15871812 -0.078979984 0.16652879 0.05432859
0002b0 05 88 60 be 8d af cb 3e e6 87 5b 3e 81 fc 9a 3d
       -0.21926887 0.39782372 0.2143856 0.075676925
0002c0 82 f6 70 3e 02 41 0c 3f 96 9f 45 be 86 bd b6 bd
       0.23531535 0.54786694 -0.19299158 -0.089228675
0002d0 27 e8 0a 3e 7a 31 09 bf 00 be 7d 3e 73 67 79 3e
       0.13565122 -0.5359112 0.2477951 0.24355869
0002e0 c3 ae 92 3e f1 ed 48 be 7a d0 fa 3d e4 13 89 3d
       0.28648958 -0.19622017 0.12246795 0.06693247
0002f0 42 38 8f 3c 77 9e 8c 3e 69 8e fd 3d 8c 36 0b 3e
       0.01748288 0.2746465 0.12380678 0.13595027
000300 0c 3a b8 bd 7b b0 c3 3d 54 97 32 3e 86 0c 82 3e
       -0.089954466 0.09555145 0.1744054 0.2540018
000310 f5 bb 5e 3e 44 79 0f 3f d6 47 56 be 08 37 b4 3e
       0.21751387 0.5604441 -0.2092584 0.35198236
000320 ec 48 9a be 2f ec ac bd 56 a9 3d 3e 9d 98 0b 3e
       -0.3013376 -0.08443486 0.18521628 0.13632436
000330 24 a7 3d 3f 30 eb 94 be 16 11 c1 3e 86 7e 8f 3e
       0.7408316 -0.29085684 0.37708348 0.28026217
000340 da 76 5c 3f 6f 0b 04 3f 24 26 03 be 28 ba b6 3e
       0.86118853 0.51579946 -0.12807518 0.356889
000350 07 ff 63 3e 79 63 79 3e 8e 27 50 3e 9f c8 26 3e
       0.22265254 0.24354352 0.20327589 0.16287468
000360 f0 0c 1b 3e db dc aa 3e 09 fb 22 3f bb 40 a0 3e
       0.15141654 0.33371624 0.636643 0.31299385
000370 c4 d2 ae 3b 71 ae 15 3f e6 95 c9 be 02 1a 3a be
       0.005335184 0.584693 -0.39372176 -0.18173984
000380 f6 7c 92 3e 2e 68 53 3f 04 34 ae bd 8d f3 4b 3e
       0.28610963 0.8258084 -0.08506015 0.19917126
000390 0d f9 ec 3d 70 b4 9e be 9b 35 b2 bc 6f c3 19 be
       0.1157094 -0.30997038 -0.021754077 -0.15015958
0003a0 b0 50 2f 3e 16 ef 16 3e 59 28 4f be a6 25 6c 3e
       0.17120624 0.14739642 -0.20230235 0.23061237
0003b0 92 98 42 3f a3 36 4e 3e 0e cb ef bd f7 3a d9 3e
       0.76014054 0.2013803 -0.117086515 0.424278
0003c0 c2 a9 5a 3e 52 d8 1d bf d8 2f b9 3c 4c cf 0b 3f
       0.2135382 -0.61658204 0.022605821 0.54613185
0003d0 de 0f 3f be 15 29 b8 bd 3e c1 db 3e b3 8e f9 3e
       -0.18658397 -0.08992211 0.4292087 0.48741683
0003e0 a3 e9 94 b9 d0 cd 1c 3e d0 3c 04 3f 57 82 c5 3d
       -0.00028402833 0.15312886 0.5165529 0.09644001
0003f0 f1 0a c3 3d a1 91 17 3e 1c 3b 12 3e 49 9e 5a 3e
       0.09523571 0.14801647 0.14280361 0.21349443

rnn.bias_hh_l0 f4 [512]
000000 9e 6a 58 3f ec a3 43 3e 02 39 9f 3e 5e 1f 6a 3f
       0.84537685 0.191055 0.3109818 0.9145411
000010 83 f4 c1 3e 93 7d 7d 3d a9 ac 3f bb cb 04 08 3f
       0.3788186 0.061887335 -0.00292472 0.53132313
000020 4e 58 b0 3e 02 70 58 3e fe 15 97 3d 10 fd 08 be
       0.3444237 0.21136478 0.073772416 -0.13377786
000030 e0 9b 0d 3f c5 c7 e3 3e 24 b0 49 3e 77 34 30 be
       0.5531597 0.4448835 0.19696099 -0.17207514
000040 e6 c0 9d 3e 3e ab 78 be 01 32 17 3f ba d4 ff 3e
       0.30811232 -0.24284074 0.59060675 0.49966985
000050 45 de 24 3f a2 77 22 3f 8d 6a 21 3f ce 76 36 3f
       0.64401656 0.63463795 0.6305321 0.7127503
000060 73 5c ce 3e 0c a7 a0 3c e4 ae 59 3f 0a f5 f0 3e
       0.40304908 0.019610904 0.85032487 0.4706195
000070 be 01 90 3e 2c 74 87 3e 0b a6 09 3e e9 03 af 3e
       0.2812633 0.2645582 0.13442247 0.3418267
000080 4f 11 0a bd 86 cd 08 3f 92 06 82 3e 31 f8 45 3b
       -0.033707913 0.53438604 0.25395638 0.0030207748
000090 00 36 b7 3e 9e 3f ca 3e e5 32 1d 3d d2 2d 4b bc
       0.35783386 0.3950166 0.038378615 -0.012401061
0000a0 be 19 39 3e bb 91 ff 3e b4 54 de 3e df 04 10 3e
       0.18076226 0.4991587 0.43423998 0.14064358
0000b0 ca 92 27 3f 65 cd 70 3e ad 22 c5 3e bc dd 9c 3e
       0.6545836 0.23515852 0.38503018 0.3063792
0000c0 bc dc 1b 3f 36 fc bb 3e 98 2b fc 3e a4 d0 e5 3e
       0.6088369 0.3671586 0.4925201 0.44885743
0000d0 80 84 8a 3d 63 a8 17 3f 3d 90 bd 3e 56 b8 07 be
       0.067635536 0.5924131 0.37024108 -0.13253912
0000e0 71 27 3c 3e 1a af 2b 3e 74 38 ce 3e 95 ff 3d 3c
       0.1837442 0.16766015 0.40277445 0.01159658
0000f0 f3 32 9b 3e f1 e0 8a 3d a2 7b 2b 3e c9 2d 3c 3e
       0.3031231 0.067811854 0.16746381 0.1837684
000100 8f bf 17 3f bd ca 4c 3e 80 78 d5 3d 9a 82 b7 3b
       0.5927667 0.19999214 0.10423374 0.0056002857
000110 c2 5d 15 3e 5a 49 1d 3f 85 83 c6 3e 04 30 c3 3e
       0.14586547 0.6144005 0.38772216 0.3812257
000120 46 f4 10 3f 1c 2f 63 3e bb 55 05 3f 72 b1 06 3e
       0.5662273 0.2218594 0.5208394 0.13153628
000130 2a a6 de 3e f4 f7 82 3e 05 e1 b3 3d 88 5a 3c 3d
       0.43486148 0.25579798 0.087831534 0.045984775
000140 59 04 e1 3e 24 ec 97 3e 95 57 96 3e 78 4a af 3e
       0.4394863 0.29672348 0.29363695 0.34236503
000150 fc 85 85 3e 48 1b db 3d 10 0d 9b bc 05 ce bb 3e
       0.26078784 0.10698563 -0.018927127 0.36680618
000160 17 4e a3 3e f2 19 24 3e 3d 2e 10 3f 7d 23 98 3e
       0.31895515 0.16025522 0.56320554 0.29714575
000170 e8 5d 17 3f 24 cb 30 bc b5 8a 27 3f b1 4e 19 3f
       0.59127665 -0.01079062 0.65446025 0.598857
000180 34 d7 a8 3e 5b 81 45 3e 9c 7d 64 bd a1 26 ea 3c
       0.32976687 0.19287626 -0.055783853 0.028582873
000190 66 dc 1c 3e ff bd d3 3e 0f 09 bb 3e 7a 98 99 3e
       0.1531845 0.41355893 0.3653035 0.29999143
0001a0 ce df 70 3d 8b d1 c7 3e 4c 3c 07 3f 59 68 23 3e
       0.058807187 0.39027056 0.5282638 0.15957774
0001b0 32 81 86 3e 3f 89 fe 3e 59 38 14 3f 00 44 a6 3e
       0.26270443 0.49714085 0.5789848 0.32473755
0001c0 45 db e5 3d b0 2e 61 3f 25 43 25 3e d3 c4 78 3e
       0.11223463 0.87961864 0.16138895 0.24293832
0001d0 44 b2 c1 3e 83 60 a4 3e 6b 00 fa 3d ec 2b 9f 3e
       0.37831318 0.32104883 0.12207111 0.31088197
0001e0 b6 b3 fa 3e a7 20 a9 3e c1 b3 8b 3e 78 24 ae 3d
       0.48965234 0.33032724 0.2728558 0.085030496
0001f0 4c 53 3b 3e 6d 0e 0a 3f 59 ec cc 3e 94 f0 05 3e
       0.18293494 0.5392826 0.4002407 0.13080055
000200 b6 39 97 3c 21 f6 05 3e 0f 72 99 3e c7 83 41 3e
       0.018460136 0.13082172 0.29969832 0.18897925
000210 4f e2 24 3e 21 25 93 3d 55 2f c1 be 0e 4c 53 3f
       0.16101955 0.07184816 -0.37731424 0.82537925
000220 cb b4 aa bc d6 9d 87 bd a0 80 fa 3e 63 9e 6a 3e
       -0.020838162 -0.06621902 0.48926258 0.22911982
000230 d7 aa ef 3d 33 8f dc 3e 69 eb ba be 3c 10 63 3e
       0.11702507 0.43078002 -0.3650773 0.22174162
000240 6b ad 7f 3e 81 26 40 3e 3e 77 a1 be f6 9e d0 3e
       0.24968497 0.18764688 -0.31536287 0.40746278
000250 82 f9 31 3d fb bb 89 bd ae ca c7 be 8f 26 7f bd
       0.04345084 -0.067253076 -0.3902182 -0.06229263
000260 b0 e0 17 bc 79 b8 cd 3d a9 7e 2c 3d 35 a6 00 3e
       -0.009269878 0.10044951 0.04211298 0.12563403
000270 86 2b 0b 3e b8 59 3d 3e 39 9a 84 3d d2 c6 0a be
       0.13590822 0.18491256 0.06474728 -0.13552406
000280 71 a8 48 3e a3 2d df be 15 98 c4 be a3 f7 f8 3e
       0.19595505 -0.43589506 -0.3839728 0.48626432
000290 64 aa 83 3e 19 db 42 3e 5a 6c 5d 3e 9c 78 0c 3d
       0.25715935 0.19028892 0.21623364 0.03429471
0002a0 16 77 f7 3d b3 77 21 be e2 8f 18 3e 1b 42 13 3d
       0.12083261 -0.15768318 0.14898637 0.035951715
0002b0 0d 6b 80 be 5f 8d b1 3e 36 e7 e2 3d bb 74 03 3e
       -0.25081673 0.3467817 0.11079256 0.12837498
0002c0 4e ff 05 3e 5b 40 05 3f ef a2 98 be 68 e2 b3 bd
       0.13085672 0.52051324 -0.29811808 -0.08783418
0002d0 ca 06 18 3e a5 5c 02 bf 57 0b bc 3e 22 b6 91 3e
       0.1484634 -0.50922614 0.36727402 0.2845927
0002e0 42 76 9d 3e 33 67 1f be bb 4b 06 3e f3 bf 10 bd
       0.30754286 -0.15566711 0.13114826 -0.035339307
0002f0 e4 c4 83 bd 0c da 0c 3e 7f 1d 78 3e 55 e7 01 3e
       -0.06434038 0.13755053 0.24230002 0.12685902
000300 4a 0e 9e bd a8 93 57 3e 76 9c 84 3e ee fb 1e 3e
       -0.07717569 0.2105242 0.2590062 0.15525791
000310 67 41 71 3e ff eb 03 3f 43 49 5b be 6d c1 9a 3e
       0.23560105 0.51531976 -0.21414666 0.30225697
000320 a1 13 53 be 2b 1e 3c be fa 4d ff 3d 51 20 77 3e
       -0.20612957 -0.18370883 0.12466045 0.24133421
000330 c9 a9 60 3f 07 d8 b7 be a0 1f e4 3e 1e c9 0d 3e
       0.8775907 -0.35907003 0.44555378 0.13846251
000340 19 06 66 3f 82 7d f7 3e cf 3e 4a be f5 86 aa 3e
       0.89853054 0.48337942 -0.19750522 0.3330609
000350 e4 0e 77 3e ac 9b 36 3e 2a 6f 4c 3e 1b 6a 07 3e
       0.24126774 0.17832822 0.1996428 0.1322407
000360 66 2a 4b 3d 05 61 8d 3e b7 ea 09 3f fc 84 b6 3e
       0.04960098 0.27613083 0.5387377 0.35648334
000370 a5 de fb bd bc 42 19 3f 7b 30 cc be cd b8 29 be
       -0.122983254 0.59867454 -0.39880738 -0.16574402
000380 de cb 8f 3e 1f 1f 5e 3f b7 f5 37 3d 5d b6 23 3e
       0.28085226 0.8676624 0.044912066 0.15987535
000390 d1 ff b9 3d 6d cf c6 be e2 ea 87 bb 93 3a bf bd
       0.09081996 -0.38830128 -0.0041478733 -0.09337344
0003a0 d0 56 a1 3d 5c 46 3d 3c 2b 6e af bd a1 aa 6f 3e
       0.07877886 0.0115524195 -0.08565935 0.23404934
0003b0 88 f3 29 3f 5a 44 a3 3e 2b 09 88 be cc ee ee 3e
       0.66387224 0.31888086 -0.26569495 0.46666563
0003c0 47 ec 7c 3e 30 74 ff be a0 ba 9c bd 60 d0 d0 3e
       0.24699508 -0.49893332 -0.076527834 0.40783978
0003d0 ea ff f3 bd 44 3b e2 bd b8 2d a6 3e 8f d1 d3 3e
       -0.11914046 -0.1104646 0.32456756 0.41370818
0003e0 bd ed a9 3c 2b 27 9c 3d 42 13 ed 3e d1 c5 61 3e
       0.020743245 0.07624658 0.46303755 0.22048117
0003f0 80 11 32 3d ec 85 8a 3d 5c 03 73 3d 34 53 43 3e
       0.04347372 0.06763825 0.059329376 0.19074708

rnn.weight_ih_l1 f4 [512, 128]
000000 f0 35 94 3e a3 f5 ca 3e 0d 6c 02 be 2a d5 16 3e
       0.289474 0.3964053 -0.1273653 0.14729753
000010 b3 e8 eb 3e 53 02 7f be 9f 4a e8 be f8 ae e9 3e
       0.46075973 -0.2490323 -0.4536943 0.45641303
000020 c3 75 fc be bb d7 61 3f d6 71 80 bd 6c 77 fc be
       -0.49308595 0.88219804 -0.062717125 -0.49309862
000030 22 a0 2b 3e a1 81 8c bf df 48 c9 3d b6 11 43 be
       0.16760305 -1.097706 0.09828352 -0.19049725
000040 54 1a 5c be 21 27 5d 3f 87 13 a1 be bf 77 32 3f
       -0.21494418 0.8638783 -0.3146021 0.6971397
000050 ef e8 9b 3c e3 b6 19 3f e1 3e 67 bf d5 38 c8 bd
       0.01903197 0.6004469 -0.9033032 -0.09776465
000060 d5 09 b5 bc 98 c0 40 3f 9b 1b 16 3e c6 e5 10 bf
       -0.022099415 0.75293875 0.14658968 -0.56600606
000070 35 4e e3 be 62 4a 31 3e ee 16 a6 3f 8c b6 02 3f
       -0.44395605 0.17313531 1.2975748 0.51059794
000080 d1 21 7f be 71 ad 8c be 8a a0 26 be 3c 65 d4 bf
       -0.24915244 -0.27476075 -0.16272178 -1.6593394
000090 33 45 2e 3e 80 48 56 3d dd ac 00 bf 92 3a 1f bf
       0.17018585 0.052315235 -0.5026377 -0.62198746
0000a0 34 ed 9c be 37 cc d0 bd 61 96 08 bf 9b 62 a5 3d
       -0.30649722 -0.10195201 -0.5335446 0.08075448
0000b0 2c 16 14 3e 62 7a 28 3f 60 14 67 bf 25 0c f1 3e
       0.14461583 0.6581174 -0.90265465 0.47079578
0000c0 8f 5c 45 3f 20 ef f7 bc ea f2 a3 bf c3 97 09 3e
       0.7709436 -0.03026539 -1.2808506 0.13436799
0000d0 b0 46 84 3f 21 27 37 be fb 26 92 3e 30 41 80 bf
       1.0334072 -0.1788602 0.28545365 -1.0019894
0000e0 8f ed 75 bf e2 80 80 3e c1 74 d1 bd dc 1d c2 be
       -0.9606561 0.2509833 -0.10227347 -0.37913406
0000f0 50 af cd be 85 7d bc bf 82 a5 5d bc 91 2f 24 3f
       -0.40172815 -1.4725806 -0.01352823 0.6413508
000100 6c a6 2b 3f 85 a5 06 be 41 9e 6f be f7 7f 79 3f
       0.67050815 -0.13149078 -0.23400213 0.97460884
000110 85 32 0b bf 96 7a 49 bf 9d 1d fb 3e 84 11 d7 be
       -0.5437396 -0.78702676 0.4904603 -0.4200555
000120 06 83 9a be 51 75 99 3d b4 ff 12 3f 87 05 3d bd
       -0.30178088 0.074930795 0.5742142 -0.04614785
000130 24 3c 14 3f ec f4 8f bf 0e 66 1e 3e f5 06 3e 3f
       0.5790427 -1.1246619 0.15468618 0.74229366
000140 7e 86 5e bf 99 1e 40 3e 4c f1 8d 3f aa 2d 57 3e
       -0.8692397 0.18761672 1.1089263 0.21013513
000150 9d 54 b1 bf 9b 40 db 3e 30 39 22 be 6a 04 01 3f
       -1.3853947 0.42822728 -0.15842128 0.5039736
000160 d7 de 50 bf 09 98 62 3d d0 e0 61 bf 4d 37 1e 3f
       -0.81590027 0.055320773 -0.8823366 0.6180313
000170 97 0b b4 bc bc 43 c1 3e bc 79 d8 3c 29 40 5b bf
       -0.021978183 0.3774699 0.026425235 -0.85644776
000180 98 9d 7f bf 83 c8 c0 3e 62 8d 56 3e db 1a fb be
       -0.99849844 0.37652978 0.20952371 -0.49043927
000190 fb 92 d4 3e 44 e1 75 3f a0 70 cc be b5 b2 a8 bd
       0.41518387 0.96046853 -0.39929676 -0.08237211
0001a0 60 5b dc 3e b6 40 8e bf 3c 61 7d be ef 15 3b bf
       0.43038464 -1.1113498 -0.24744123 -0.73080343
0001b0 09 5f 7c bd e0 ad cd 3f 36 81 b7 3d e4 46 93 bc
       -0.06161407 1.6068687 0.08960192 -0.01797814
0001c0 c3 6a 65 be 44 de 65 3f 6d 88 a4 3f b6 6a 9d bf
       -0.22404008 0.89792275 1.2854134 -1.229819
0001d0 8c 91 76 be a4 fd 6b 3e 2e 91 ac 3e 1d 86 52 bf
       -0.24078959 0.23045975 0.33704513 -0.8223589
0001e0 5c b6 07 3f 84 51 26 be 34 2c 10 bf dc 5a 52 3f
       0.53012633 -0.16242033 -0.5631745 0.8216989
0001f0 5b 8a d4 3e 6b 72 0e bf 1f 59 49 be 5a 49 2e bf
       0.41511807 -0.5564334 -0.19662903 -0.68080676
000200 a4 8d 9a 3d 1d 8f a5 be 77 f6 c8 3e 6b 1c b6 bf
       0.07546547 -0.3233575 0.39250538 -1.4227422
000210 00 98 dc be 2b 46 b0 3e b9 4f 14 bc 43 ce af be
       -0.43084717 0.34428534 -0.0090522105 -0.34337053
000220 f9 2b b3 bf 29 11 bd bc 93 e2 30 bf 43 96 a6 bf
       -1.3997794 -0.023079472 -0.69095725 -1.3014606
000230 fc 25 44 bf 14 18 3c 3e 67 b1 48 3f ed 13 6a 3e
       -0.7662046 0.1836856 0.78395694 0.22859164
000240 05 e9 a7 bf cd 80 04 3f 2d 37 77 3f 40 f9 0d 3e
       -1.3117987 0.51759034 0.96568567 0.13864613
000250 f8 af d3 bf 82 be 43 3e db 17 6b bf 05 10 81 3e
       -1.6538076 0.19115642 -0.91833276 0.25207534
000260 b3 5b 17 3d 64 85 87 bf 1e e2 f0 3e 70 8b e3 bd
       0.036952686 -1.0587583 0.47047514 -0.1111058
000270 63 ac 10 bd 48 d5 e3 3e 90 99 15 be 62 4d 93 bf
       -0.03532065 0.44498658 -0.1460936 -1.150799
000280 40 f3 19 3f 9e 50 48 be 9d db b9 3e c9 b3 88 3f
       0.60136795 -0.19562003 0.36300364 1.0679866
000290 46 90 c0 be db 9d b0 3f ec 3d 56 be b0 e6 e4 3d
       -0.37610072 1.3798174 -0.20922059 0.11176813
0002a0 17 04 2a bf b5 f1 59 3d cf ee 26 be 96 ce e0 3d
       -0.6641249 0.053209025 -0.16302036 0.10976903
0002b0 ee 29 6c 3e eb 66 f0 be 3c 2a ec bb fd 4e a8 3f
       0.2306287 -0.4695352 -0.007207183 1.3149105
0002c0 4e 34 b3 be 9b 0a 23 bf 55 ab a2 3d 6a 5c de 3e
       -0.35000843 -0.6368806 0.07942835 0.4342988
0002d0 35 83 9e bf de ed 65 bc a6 b1 b6 bd 2a d3 2e 3f
       -1.2383791 -0.014033763 -0.089206025 0.6829096
0002e0 45 77 16 3f 81 63 a1 3d 64 3a 31 3e bb 22 9e bd
       0.5877574 0.07880307 0.1730743 -0.07721468
0002f0 c6 e0 6e 3f 99 bf 98 be 61 3b 26 3f f3 30 56 3e
       0.9331173 -0.29833677 0.64934355 0.2091711
000300 8b 07 1d bf 2b 82 ec be 86 33 d2 3e 42 aa 18 bf
       -0.61339635 -0.4619306 0.41054934 -0.5963479
000310 77 60 fe 3e e4 3a b2 3e c2 5d f9 be b0 05 32 3e
       0.49682972 0.34810555 -0.48704344 0.17384982
000320 56 79 b0 be 6e e4 a3 be 21 0f 52 bf 7b 79 9a bf
       -0.34467572 -0.32010216 -0.82054335 -1.2068323
000330 c4 87 fd 3e 0e f7 96 be 44 2e e6 3f f5 f1 3b 3f
       0.49517643 -0.29485363 1.7982869 0.7341607
000340 b1 3c ad bf cd d3 79 be 76 ea 08 3f 99 94 39 bf
       -1.3534147 -0.24397202 0.5348276 -0.7249237
000350 c8 62 e5 3d f3 b2 a7 3f 78 94 29 3f 07 eb 04 bf
       0.11200482 1.3101486 0.6624217 -0.51921123
000360 a0 af e5 3e af 33 4b 3e e1 be 3c be 93 1e e0 bd
       0.44860554 0.19843934 -0.1843219 -0.109433316
000370 ca 24 aa bc 13 d7 84 3e 5c 40 0d bf c2 a7 b9 3e
       -0.020769496 0.2594534 -0.5517633 0.36260802
000380 22 9e 22 3f 7b 5a 28 be 83 4a 61 bf a7 99 e8 be
       0.6352254 -0.16440766 -0.8800432 -0.45429727
000390 dc 12 81 bf b8 08 9f be 63 24 65 3e 9e 15 2a bd
       -1.008388 -0.3106134 0.22377162 -0.041524522
0003a0 0b c1 13 3f 04 80 54 3f 09 01 e0 bf c6 ee ce be
       0.57716435 0.83007836 -1.7500316 -0.40416545
0003b0 86 5d 21 3c f9 86 ac 3f f6 ec e7 bd 6d 63 ba 3f
       0.009848958 1.347869 -0.113244936 1.4561592
0003c0 5a 03 7c 3e bf dd c9 3e 99 e4 42 bf d7 28 03 3f
       0.24610654 0.3942699 -0.7613006 0.5123419
0003d0 c5 8e 2f 3d 0d e5 30 bf b1 d6 3a bf 61 67 68 bf
       0.042860765 -0.69099504 -0.72983843 -0.90782744
0003e0 44 d3 d4 3e 40 5b 8f 3d 4d 7c 61 3e 40 b6 11 bf
       0.41567433 0.069998264 0.22020073 -0.56918716
0003f0 dd 22 fc be bc e2 0d bf bf 3a cd be 1a c0 12 3f
       -0.4924535 -0.55424094 -0.40083882 0.57324374

rnn.weight_hh_l1 f4 [512, 128]
000000 f9 e4 f3 be 99 b2 92 3f 5f f6 07 bf 34 97 57 bd
       -0.4763563 1.1460754 -0.5311031 -0.052634433
000010 f6 16 ec 3e c6 4d 1a 3f 5b 6e 32 3d 4b fa c5 3b
       0.46111268 0.6027492 0.043562274 0.0060418
000020 a8 71 21 bf 31 06 98 bd 9b 85 d4 3c 85 1d 95 3f
       -0.6306405 -0.07423056 0.025942614 1.1649634
000030 ef 71 2c bf c4 68 2a 3f 25 1a 59 bf c9 e1 66 be
       -0.6736135 0.6656611 -0.8480552 -0.22547068
000040 36 94 0c be c9 db 5c bf e1 88 8c bf 5b 05 97 be
       -0.13728413 -0.86272866 -1.0979272 -0.29496273
000050 9d af 6c 3f f3 cc b0 be 3d 9e ac 3e 31 2b 49 3f
       0.92455465 -0.34531364 0.33714476 0.7858153
000060 9f be d4 3f 84 45 3b bf 00 c6 81 3e 24 6d f5 3c
       1.6620673 -0.7315295 0.25346375 0.029959269
000070 eb 93 25 3d 7d 6e be bf c2 3e 62 3f 28 20 85 bf
       0.04042427 -1.4877468 0.8837701 -1.0400438
000080 28 eb 79 3f 7c a6 3a bd d6 4f 75 3e d5 63 28 40
       0.97624445 -0.045568928 0.23956236 2.6310933
000090 43 89 60 3f 1b f8 37 3f 06 e0 c7 3d 79 61 a4 bf
       0.87709445 0.71862954 0.09759526 -1.2842246
0000a0 31 d5 ba bf 22 50 c7 be 2f ac 27 3f 4d b7 88 3e
       -1.4596311 -0.38928324 0.65497106 0.26702347
0000b0 2d 7c 6b 3f cd 31 fc be cf 93 a0 be 10 b7 ff be
       0.9198635 -0.49256745 -0.3136277 -0.49944353
0000c0 3e 01 80 bf 05 2d cf be d7 ab 02 3f 89 b8 36 bf
       -1.0000379 -0.40464035 0.51043457 -0.7137533
0000d0 cb 22 76 3d 94 c5 d8 bf 74 39 11 c0 9e 7e 85 3f
       0.060091775 -1.6935296 -2.2691317 1.0429265
0000e0 fa 17 1b 3f 37 b1 96 3f d7 4d 46 bf 0b af d9 bf
       0.6058346 1.1772832 -0.77462524 -1.7006544
0000f0 c3 39 9a bf 34 98 df be 23 a4 fc 3e 0f 3f 79 3f
       -1.2048877 -0.4367081 0.49343976 0.97361845
000100 47 09 f2 bc e1 54 a2 3f bd 30 30 bf 61 6e 74 be
       -0.02954544 1.2682153 -0.6882437 -0.23870231
000110 ac 28 ca 3f c5 a9 16 3f 18 a4 39 3e 16 53 c6 be
       1.5793662 0.588528 0.18129003 -0.38735265
000120 90 1d d7 3d c8 8f 8b 3f cc 20 d3 bf a7 5a 25 bf
       0.105036855 1.0903254 -1.6494384 -0.6459145
000130 c0 ac 03 3f bc da 25 3f 11 7e 4a 3f ce 43 42 bf
       0.5143547 0.6478689 0.7909861 -0.7588471
000140 a1 9e 68 bf d2 47 b1 3f 7b 06 75 bf 17 ba 90 3e
       -0.9086705 1.3850043 -0.95713013 0.28266975
000150 33 44 67 bf 2d c1 13 bf a0 ef 8d 3e bb 8d 60 3f
       -0.9033844 -0.5771664 0.27721882 0.87716264
000160 c2 47 2c bf d9 bd 83 3f 4e b1 3d 3f 47 05 17 be
       -0.67296994 1.0292312 0.7409867 -0.14748107
000170 02 53 09 3f 08 2f fa 3e fe 17 46 3f a9 fd b1 be
       0.53642285 0.48864007 0.7738036 -0.3476384
000180 f5 b3 1e bf 98 0b 0e 3f 62 37 9f be 53 ea 5a 3f
       -0.6199334 0.5548644 -0.3109694 0.855138
000190 d2 63 76 bd 7b 98 24 c0 bd 74 91 bf ca 57 69 bf
       -0.06015379 -2.5718067 -1.1363751 -0.9114958
0001a0 8f 13 f7 be 7c 95 88 3f f0 79 09 40 b8 69 ca 3f
       -0.4825711 1.0670619 2.1480675 1.5813513
0001b0 b2 e0 a2 3e cf bb 96 bf 55 63 a8 3f fe 6e 3d be
       0.31812054 -1.1776065 1.3155314 -0.18499371
0001c0 c1 bc a7 3f 9d ba 81 bd 37 f3 41 be 99 73 4d bf
       1.3104478 -0.06334422 -0.18940435 -0.80254513
0001d0 07 1a d5 3e 19 b1 e7 3e dc 3e 09 bf 30 12 38 3f
       0.4162142 0.45252302 -0.5361154 0.7190275
0001e0 4d 27 9e 3f e3 fa b4 be 42 a4 33 3e 16 c4 9b be
       1.2355744 -0.3534766 0.17543128 -0.3042304
0001f0 88 d7 60 3f 2e 16 33 bf 9e 5a c7 be 6c f6 1c 3f
       0.87828875 -0.6995572 -0.38936323 0.6131351
000200 e6 e4 ee 3e 0f 26 f7 bf d6 2e 79 3f 96 10 25 3f
       0.4665901 -1.930849 0.9733709 0.64478433
000210 dc d6 d0 3e 68 bd 63 3f c1 7f 07 3e 76 62 35 bf
       0.40788925 0.88960886 0.13232328 -0.70853364
000220 5f aa 3b bf 3e 33 bb 3f 24 9a dc 3e e2 e0 16 bf
       -0.7330684 1.4625013 0.4308635 -0.58936894
000230 c9 cb b7 be 58 b9 98 bd 89 29 ec 3e 2c e3 41 3f
       -0.35897663 -0.074572265 0.4612544 0.7573726
000240 6e ab b3 be d6 8b 13 3d ee 7b a1 be 8a da 51 bf
       -0.35091728 0.03602203 -0.31539863 -0.8197409
000250 a7 00 5f bf cd 9c e0 3e 4c 46 f7 bf ae 99 ee 3e
       -0.8711037 0.4386963 -1.9318328 0.46601623
000260 a2 b5 02 bf 14 c8 53 bf c5 5b e5 be 07 4e a0 be
       -0.510584 -0.8272717 -0.44796577 -0.3130953
000270 6f 16 28 3f c3 c3 e7 3e b0 17 2e bf 83 c7 35 bf
       0.6565923 0.45266542 -0.68004894 -0.71007556
000280 1f bc 88 3f af a1 c2 3e fb 9c f0 be 6c 2a 5e 3e
       1.068241 0.3801398 -0.46994767 0.2169587
000290 7a 3d c8 3e 69 da 62 3e 9e 41 35 3f 75 b4 d0 bf
       0.39109403 0.2215363 0.7080325 -1.6305071
0002a0 80 fc 1a 3f a5 ea 8e 3f 27 cb 34 bf 3d 0d e1 bd
       0.60541534 1.1165358 -0.70622486 -0.10988853
0002b0 4b 08 4a 3e b6 06 a3 bf 1f 77 57 3d 09 5e ac bf
       0.19729726 -1.2736423 0.052603837 -1.3466197
0002c0 fc c2 8a 3d f9 1c 8c bf d3 31 96 bf f1 d1 e4 3f
       0.067754716 -1.0946342 -1.1733955 1.7876569
0002d0 96 c1 87 bf c0 bc c7 bf 75 b0 e5 bf e6 ec 82 3f
       -1.0605953 -1.5604477 -1.7944475 1.0228546
0002e0 48 db 11 3f 16 82 89 bf 29 d6 56 3f 26 e7 bd 3e
       0.5697522 -1.0742824 0.8392053 0.37090415
0002f0 1f 41 3d bf ea ff 5f 3f a3 28 5e 3f 61 45 25 3f
       -0.7392749 0.8749987 0.86780757 0.6455899
000300 ad a5 06 bf da a3 64 3f b3 96 b1 bd c4 88 3a bf
       -0.5259655 0.8931252 -0.08671322 -0.7286494
000310 e8 f1 08 3f b3 44 51 bf 70 60 ae 3f 45 b0 7c 3e
       0.5349412 -0.8174545 1.362318 0.24676616
000320 0a 5f 7d 3f 61 1b 27 be e3 72 31 3f 93 41 cb bf
       0.98973143 -0.16319038 0.6931593 -1.5879387
000330 b5 f4 c2 3e 48 04 9b 3e 76 9c 48 3e ef f2 5f bf
       0.38077322 0.30276704 0.19590935 -0.8748006
000340 6a 51 aa bf 8b 0e 3e bf 3f fe 0e 3f 48 b5 34 bf
       -1.3306096 -0.7424094 0.558567 -0.70589113
000350 78 8d c4 be 0e c8 43 3f ac 84 e1 3d b5 ad a6 be
       -0.38389182 0.76477134 0.11011633 -0.32554403
000360 34 97 8b bf af 72 e6 be 5a b0 a7 bf 1d 1a 68 3c
       -1.0905519 -0.45009372 -1.3100693 0.014166382
000370 c8 1c 3b bf 67 f0 9a bf fb 7f ac bf 85 65 9f bf
       -0.7309079 -1.2104615 -1.3476557 -1.2452856
000380 39 e0 1d bd 63 0d 62 3e 00 0d 90 3e e9 af 9a 3f
       -0.038543914 0.22075419 0.28134918 1.2084934
000390 07 8e 3f 3f 71 c1 e6 3e 3d b9 6c bf 33 c8 af 3f
       0.7482609 0.4506946 -0.9247015 1.3732971
0003a0 ad 54 af 3f ae da e5 be 37 a8 92 be 97 84 43 bf
       1.3697716 -0.44893402 -0.28643963 -0.7637419
0003b0 5a da 84 3f 9a 6c 24 3f d9 6e ad bf 3e e2 c4 3e
       1.0379136 0.6422821 -1.3549453 0.3845386
0003c0 b2 b9 04 40 a0 31 48 bd a2 4e 69 bf 4a d8 a1 3f
       2.073834 -0.04887545 -0.9113561 1.2644131
0003d0 b3 b5 21 bf 28 74 79 3f 8f 3f 36 3f 33 96 58 b9
       -0.63167876 0.97442865 0.7119073 -0.00020655319
0003e0 64 da 3f 3e da e5 16 40 27 61 0f be 28 80 51 bf
       0.18735653 2.357779 -0.14001904 -0.81836176
0003f0 f6 f9 8e 3f 61 5b 41 3d d0 79 db 3f 8d 1a 8c 3f
       1.1170032 0.047206286 1.7146549 1.0945603
