preTrained/CharRNN_reviews_64_2_0.5.pth (torch, 314968 bytes, 11 tensors)

embedding.weight f4 [71, 71]
00000000: 83ae 92bf da3f 063f 7e4c 1040 d089 ebbe
00000010: 4baf c3bf 9f00 6e3f 5d65 4f3f 04e3 0b40
00000020: 1a2a 7e3f 1bcc 983f 05ec b73f c729 a23f
00000030: 9cc3 7940 4bae 043f fd69 cdbf 3894 b7bf
00000040: 7bae 57bf 0a11 cd3f 9440 82bf df05 d43f
00000050: 491d 97bf a4eb 3b3e 0709 edbf 97bf 0dc0
00000060: 3305 a63e 2609 4dbe 1266 893f dd8c 6640
00000070: 03eb 0cc0 8b79 04c0 f5ef 2c3f b770 063f
00000080: 592b 963f 101d b1bf b0b0 f33e ab93 b6bd
00000090: 2fe7 703d 65a4 2b3f 4d08 d83e 3b5d 4d3f
000000a0: ae7f 14c0 50fd 20bf 8b01 2cbf 2835 1740
000000b0: 1025 d13e 6d76 2140 1986 b4be 858e 8d3f
000000c0: 5384 d73f dacb 0340 1060 4f3f 23d3 e4bf
000000d0: 6b9f 0ac0 fe80 1440 f409 c43e 8e8c 8abe
000000e0: 7098 25c0 1f54 07c0 16a5 fb3e cdd2 40be
000000f0: c18a 37be e1a6 3b40 dea5 743f ae82 0ebf
00000100: d3f7 763f ddba 74bf 189e 0fc0 ac91 963f
00000110: b713 6c3e 0d93 923f 22e9 843f ec8b e9be
00000120: 15db b2be b348 12bf 962e 3e40 2355 b0bf
00000130: 0ff3 df3e 51c3 7abf db03 833f 56dc b1bc
00000140: 0dbb 9abe 4b17 f13f 192f 513e 0da2 d43d
00000150: 120f f23e bf2c 16c0 e430 4d3f e8bc 843f
00000160: a307 b43f 4394 42be 178a 5ebf 0f08 6bbf
00000170: fbbe de3d 3a5a 993f bed7 aabf 2a95 ac40
00000180: 17ce 26be 9e82 e03f 8654 6d3f a43d a43e
00000190: 1397 123f 6dbf f53f 2ade 5c3f 6a57 0b3f
000001a0: 89a3 903f 07ee 753d ce41 ddbf 8b39 e2be
000001b0: 9066 e8bf c03a 223f 5b90 a3bd bad7 37bf
000001c0: b325 89be d0b4 83bf 044c 3c3f 53f2 9abe
000001d0: 7883 c03d 8f50 b4be d0f4 203f af88 c33f
000001e0: bac7 ffbe 4507 883f 3d87 0dbf e57b 64be
000001f0: 4c04 123f c28d e8bf 288a b53c 729f 88bf
00000200: c70f 01c0 28d9 453f b118 c9bf 0539 633f
00000210: f6bc 163d 79bf 0d3f 62d6 1b3f e303 b33e
00000220: 3ed8 fe3d a91b 6abf eeab 8d3e 9e9b 8ebf
00000230: 6314 533f ef05 cb3f 5b56 ac3e 130b cc3f
00000240: a97a 973f 17a2 0dbf 3c9d 32c0 8578 863f
00000250: 40d6 dd3f d1b3 fe3e 9a91 d33d cd77 5940
00000260: 25a9 1e40 d444 d83f 81f2 2d40 b8a3 a03f
00000270: 5ccf 303f a361 2440 c058 18bf 4f1d 0a40
00000280: f9cf 09bf 5323 97bf fc42 0a40 e2f5 88bf
00000290: 254a 163f 9438 2cbf 9385 96bf 3c52 91be
000002a0: fb44 b240 d444 8b3f d305 6abe f561 34c0
000002b0: 3062 8c3d a0a8 c5bf be02 3a40 dc23 673e
000002c0: 40f8 6dbf 2fd6 5b3f 5836 1ec0 58c1 a83f
000002d0: ea49 803f 8ef9 f63f 8f01 01c0 2070 e7bf
000002e0: 9a89 963f 6271 043b d2b1 09bf ca49 073e
000002f0: de0b 03c0 8144 b93f c770 ab3e 5106 cabe
00000300: 7351 7d3f a02c 66bf 9cf9 ab3e 754f 4440
00000310: d6c4 1440 9570 7fc0 4c74 82c0 9f8f c73f
00000320: 5247 87bf 4af8 cfbe b64c 573f e705 bd3f
00000330: 3c83 8340 a457 8abf 410b 32be 00f9 823d
00000340: 8ea7 593e 6554 afbf 8abb 883f 987c dcbe
00000350: 38b8 cebf 01dc 1abf 0548 84be ad61 3bbe
00000360: a192 923f 184a 0ac0 d1fa a4bf 0cb3 7ebf
00000370: e450 18c0 1daa d83e acc4 593e 2e59 82be
00000380: 86f4 4c3f 93a7 803f be3b 1b3e 11fd 77bf
00000390: c3fd d8be 6f52 8cc0 1062 0bbf 79fa 2240
000003a0: 6a92 373f c8a4 8f3e feb2 0abd 5e82 acbf
000003b0: 6682 473f 7223 1540 d8c8 0540 cc40 f5be
000003c0: fb03 5d3e 141e 803f 05a8 02bf 26be 6d3f
000003d0: e78f 74be 4e98 62bf 4671 843f bc04 1ebf
000003e0: 090c 04bf c304 ad3e 85da 82bf 07e6 a6bf
000003f0: 5cc6 613f 5f47 743e 0a8a 72c0 31d4 493f
-1.1459507 0.5244118 2.2546687 -0.4600358 -1.528787 0.929697 0.81014043 2.185731
0.9928299 1.1937288 1.4368902 1.2669 3.902564 0.5182845 -1.604797 -1.4342108
-0.8425061 1.6020825 -1.0175958 1.6564292 -1.1805812 0.18351609 -1.851838 -2.2148187
0.32425842 -0.20023021 1.0734274 3.6023476 -2.201844 -2.0699184 0.67553645 0.5251574
1.1731979 -1.3836994 0.4759574 -0.08914884 0.058814224 0.6704772 0.42193833 0.80220383
-2.320293 -0.62886524 -0.67189854 2.3626194 0.4084859 2.5228531 -0.35258558 1.1059119
1.6837257 2.059317 0.81005955 -1.7876934 -2.16598 2.320373 0.38288844 -0.2706036
-2.587429 -2.1145093 0.49149388 -0.18830414 -0.17924024 2.9320605 0.95565593 -0.5566815
0.964719 -0.9559763 -2.2440243 1.1763206 0.23054396 1.1451126 1.0383646 -0.45614564
-0.3493277 -0.5714218 2.9715934 -1.3775982 0.43740126 -0.9795428 1.0235552 -0.02171151
-0.30220833 1.8835233 0.20428123 0.10382471 0.47277123 -2.346481 0.80152726 1.037015
1.406483 -0.1900187 -0.8692946 -0.9180917 0.108762704 1.198066 -1.3347089 5.3932085
-0.16289555 1.7539861 0.927071 0.32078278 0.5726177 1.9199044 0.86276495 0.5443026
1.1299907 0.060041454 -1.7285707 -0.44184527 -1.81563 0.63370895 -0.07986518 -0.7181355
-0.26786575 -1.0289555 0.7355349 -0.30263004 0.09400076 -0.3521771 0.62873554 1.5276088
-0.49957067 1.0627218 -0.5528448 -0.22312887 0.57037807 -1.8168261 0.022160605 -1.0673659
-2.016588 0.7728448 -1.571066 0.8875888 0.0368013 0.5537029 0.60874 0.34963903
0.12443589 -0.91448456 0.27670234 -1.1141241 0.8245298 1.5861186 0.33659634 1.594088
1.1834308 -0.55325454 -2.7908468 1.050553 1.7331009 0.49746564 0.10330506 3.397937
2.4790738 1.6896005 2.7179263 1.2549963 0.69066405 2.5684593 -0.5951042 2.1580389
-0.53832966 -1.1807655 2.1603384 -1.0700037 0.58706886 -0.6727383 -1.1759514 -0.28383052
5.5709205 1.088038 -0.22853784 -2.8184788 0.06854665 -1.5442085 2.9064174 0.22572273
-0.92956924 0.85873693 -2.4720669 1.3184004 1.0022557 1.9294908 -2.0157201 -1.8081093
1.1760743 0.0020209183 -0.5378696 0.13211742 -2.0475993 1.4474031 0.3348448 -0.39457944
0.98952407 -0.8991184 0.33588874 3.0673497 2.324514 -3.9912465 -4.0766964 1.5590705
-1.056864 -0.40619117 0.84101427 1.4767426 4.10977 -1.0807996 -0.17387106 0.06395149
0.21255323 -1.369763 1.0682232 -0.43063807 -1.6149969 -0.6049195 -0.25836197 -0.18298979
1.1450998 -2.1607723 -1.2889043 -0.99491954 -2.3799372 0.42317286 0.2126643 -0.25458664
0.80060613 1.005114 0.15159509 -0.96870524 -0.42381105 -4.3850627 -0.54446507 2.5465376
0.71707785 0.28055406 -0.033862107 -1.3477285 0.7793335 2.3302884 2.0903835 -0.47901
0.2158355 1.0009179 -0.5103763 0.9286827 -0.2388302 -0.8851365 1.0347068 -0.61725974
-0.51580864 0.33792695 -1.0222937 -1.3038949 0.881933 0.23855351 -3.7896752 0.78839403

rnn.weight_ih_l0 f4 [256, 71]
00000000: 2948 61be 7fa5 c3be d848 45bf ac1a 213f
00000010: 3635 e13e 3ae1 053f c46e a53e 7260 9ebe
00000020: 2016 243d 1554 d03e ac21 a63e 301e febc
00000030: 1a65 02be 078f 073e 0d35 70bf 89d2 c53e
00000040: afe7 ec3c b841 643f 26e5 43be a1e8 4bbf
00000050: b925 63be d9e5 3b3f fdcf 803f 56d6 bfbe
00000060: c0b3 8c3e e67b 95bf 0506 a43e 7e59 94be
00000070: f8af 6f3f af60 1bbe c1ab a2bd 7b5c 97be
00000080: a3e4 073f 9efb 083f fd99 c7be eff7 a33d
00000090: 7d10 813e 6a60 9abe e64e af3d cc34 9c3d
000000a0: c9fd 4dbf d682 633e 372b 9dbf 088e 153d
000000b0: 8c7f adbc da2f 863e b32a 49be 5c17 603e
000000c0: a93a b9be 1dc3 41bf 6e90 24bf 6562 be3e
000000d0: 3eab 29bf ed5a f43d 39ea 733e f8fa 41bf
000000e0: c868 88bc 602c 083f 9403 973e 126d ca3d
000000f0: f609 48bf 6778 9c3e 7b8f 7cbd 5a80 a7bf
00000100: c19a 08bf 9504 993d 49bb 93bf ebc7 2dbf
00000110: eec5 cebe 58ff 8a3c c0ed a53e a1a4 21bf
00000120: cf5e fabe ba0c 01bf 6674 cabe 6b8e c63e
00000130: 9d9b d7bd 1622 53bf 5285 613f 7d36 09be
00000140: 2721 883e a4e2 963f ef6e 223f fcdb 413e
00000150: 6309 d5bd 7b76 c2be 438e 213f 2f93 9a3f
00000160: f3f1 c4be 0bc2 7a3f 89a4 13bf 87b4 183f
00000170: dc58 053e d3ce 813e 948a ed3e b68e 22bd
00000180: e6a4 80bf 303e 8f3f 4410 cf3e c205 24be
00000190: a5bc ccbe 971b 733f 2f43 863f 27c4 49bf
000001a0: 7bb3 eebb 4ebb dcbe 3443 67be 7c3c 613e
000001b0: acb6 f63e 7375 dbbf 9c9c df3e 5a55 1dbe
000001c0: 6669 53bf bb61 79be 9f66 51bc ebb3 be3e
000001d0: ab8d 37bf 6fd3 f43d c1a8 753e e8c2 d2bd
000001e0: 6a4d b9bd 8680 9abf c2c4 a0bf 4801 213e
000001f0: 7eba b33e f5df b73e 3e87 7a3f 2950 38bf
00000200: 17a1 70bf 43fa 003e 2109 4abc 17e2 4a3e
00000210: dd02 9a3f c641 0e3f e02f 26be f355 f5be
00000220: 5499 93be 8fb1 d33e 6d0e 6f3e 1772 2ebf
00000230: df75 85be 2e00 813e 430e 553e 893f 09bf
00000240: b98e a2bf 8cae 1e3e 1368 56bf 9fbe 47bf
00000250: 856e 18bf a4a8 eabe 309e 873f 30d3 893f
00000260: 2e8b d0be 7e8d 95be d552 64bb 40a9 46bd
00000270: 5b91 3fbd 3816 383e 3eb4 873e b3a4 af3e
00000280: d5ea 653f 96a4 d0be aa58 c63e 10b4 dbbe
00000290: f5e9 813f aa2f 8e3d 61f8 d7bc fef9 81bf
000002a0: 611d fcbc bc28 373e b19c b83e 78a2 09be
000002b0: 5e70 86be 2bb0 8abd e6cf 8c3e 0134 2f3e
000002c0: 1742 07be a531 b93d 70d1 b43f 0ee0 2f3e
000002d0: af8c ca3c a647 10bf 67f0 6abf a1d2 dd3e
000002e0: 864e 8bbf 6916 cdbe 0657 efbe 8be7 49be
000002f0: 6e38 84be 44fc 74be f71f e43e cbf6 a03b
00000300: 9107 a2be 4408 ccbe 7e8b b7bd ec70 8fbe
00000310: 1797 523e 3321 1abf 2582 89bc 694b 2ebe
00000320: 9a2b f93d 8774 26be 0561 7b3e 1c3c 2abf
00000330: 2cb7 3a3f 8b45 cdbf 45da 2bbf 9172 2b3f
00000340: 1a1c 85be 0c8e cebc 6933 2e3e bd25 47be
00000350: 9c11 293e 7663 d33e 60e2 04bf 095b ba3e
00000360: 6719 193f 4ccd 13bd ef18 bd3f 2e3c 743f
00000370: 4a76 23bc b10d e7be 067a 453e d5e4 713e
00000380: cf3c d53f a25c 43be 2813 8b3f fbf8 94be
00000390: d75d bc3e 0820 ce3d e998 593f f277 39be
000003a0: 46ad a9bf 16a9 84bf 3e47 b33e efd2 8cbf
000003b0: ded5 983e 654f ac3e f55a 2b3f ca21 833e
000003c0: a19e 9e3d 9ca2 a6be 4567 623f e0dc 823f
000003d0: 30d6 1dbe d334 7f3e 6ff1 e03e 8015 3abe
000003e0: 065d 863e 731f 87bf bdec 56bf 918b 493f
000003f0: e23d 6bbe f772 1ebe 395d ffbe e63f 2dbf
-0.22000183 -0.382122 -0.77064276 0.62931323 0.4398591 0.52296793 0.3231107 -0.30932957
0.040060163 0.4068915 0.32447565 -0.031020254 -0.1273388 0.13238154 -0.9383095 0.38637188
0.02891907 0.8916278 -0.19130382 -0.7965184 -0.22182359 0.73397595 1.0063473 -0.37468213
0.27480888 -1.1678436 0.32035843 -0.28974527 0.9362788 -0.151736 -0.07942916 -0.29562744
0.53083247 0.5350894 -0.3898467 0.08006274 0.25207892 -0.30151683 0.085599706 0.07627258
-0.8046537 0.22217879 -1.2278813 0.036512405 -0.021178983 0.26208383 -0.19645195 0.21883911
-0.36177567 -0.75688344 -0.6428288 0.37184444 -0.6627692 0.11931405 0.23819818 -0.7577357
-0.016651526 0.5319271 0.29494917 0.09884085 -0.781402 0.3056061 -0.06166027 -1.3086045
-0.53361136 0.07471577 -1.154153 -0.67883176 -0.40385383 0.01696746 0.3240795 -0.6314183
-0.48900458 -0.50410044 -0.3954193 0.3878053 -0.10527728 -0.82473886 0.88094056 -0.13399692
0.26587793 1.1787915 0.6345052 0.18931574 -0.10402181 -0.37981018 0.631077 1.2076167
-0.38465843 0.97952336 -0.57672936 0.5965046 0.13022178 0.25353107 0.4639479 -0.03968688
-1.0050323 1.1190853 0.40442097 -0.16017821 -0.39987674 0.94963974 1.0489253 -0.7881493
-0.0072845793 -0.43111652 -0.2258423 0.21995729 0.48186243 -1.7145218 0.4367417 -0.1536459
-0.825827 -0.24353687 -0.012780814 0.37246642 -0.71700543 0.1195439 0.23990156 -0.10291082
-0.09047969 -1.2070472 -1.2560046 0.15723145 0.3510322 0.35913053 0.97862613 -0.71997315
-0.93995804 0.12595467 -0.012331278 0.19812809 1.2032124 0.5556911 -0.162292 -0.47917137
-0.28827918 0.41346404 0.23345347 -0.6814284 -0.2606649 0.2519545 0.20806222 -0.5361257
-1.2699805 0.15496272 -0.83752555 -0.7802524 -0.5954364 -0.45831788 1.059515 1.0767574
-0.40731186 -0.29209512 -0.003483941 -0.048501253 -0.04676948 0.17977226 0.265047 0.34305343
0.8981145 -0.4075057 0.3873952 -0.42910814 1.0149523 0.06942685 -0.026363553 -1.0154417
-0.030775728 0.17886633 0.36057046 -0.13440883 -0.26257604 -0.067718826 0.27502364 0.17109682
-0.13208805 0.09042672 1.4126415 0.17175314 0.024725286 -0.56359327 -0.91773075 0.4332476
-1.0883338 -0.4005616 -0.4674608 -0.19717233 -0.25824302 -0.23924357 0.44555637 0.0049122325
-0.31646398 -0.39850056 -0.08962153 -0.2801584 0.20565449 -0.6020691 -0.01678569 -0.17020954
0.121665195 -0.16255389 0.24548729 -0.6649797 0.7293575 -1.6036848 -0.6712993 0.6697169
-0.25998002 -0.025214218 0.17011799 -0.1944799 0.16510624 0.4128682 -0.5190792 0.3639758
0.59804386 -0.03608446 1.4773234 0.95404327 -0.009976933 -0.45127633 0.1928483 0.23622449
1.6659182 -0.19078305 1.0865221 -0.29096207 0.36790344 0.10064703 0.8499895 -0.18112162
-1.3256004 -1.0364101 0.3501529 -1.1001872 0.29850668 0.33654323 0.66935664 0.25611717
0.077451 -0.32545936 0.88438827 1.0223656 -0.15413737 0.24922495 0.439342 -0.18172264
0.26242846 -1.0556473 -0.83954984 0.78728586 -0.22972825 -0.15473543 -0.4987581 -0.67675626

rnn.weight_hh_l0 f4 [256, 64]
00000000: c1f6 393f 663f 383f a8e7 69be 184c 5bbd
00000010: 0e17 43be c441 f53f 0ad3 923e 1f92 74be
00000020: 37d0 943f eeae e23e d17d dc3e 4e35 103f
00000030: 55eb 3dbf 5b0f fc3d d76e a4bf 7c86 6dbd
00000040: 98ec 76be 932a 93be 8424 8fbf 1f96 803f
00000050: 108d 513e 7d4a 493f 4309 ccbf a320 33be
00000060: 50ed edbe d6a8 1b40 06cc 133f af50 0040
00000070: 0640 1ec0 dbba b83e 2a09 18bf 1320 9bbf
00000080: c305 14be a861 153f 074c 2dc0 7e13 b23e
00000090: acf8 8b3f 33a9 9e3e 16dd 17bf bcc3 c43e
000000a0: c3f9 913f ae8f 9bbd 9bec adbf acde 283f
000000b0: 9060 41bf d456 3240 743e ac3e 19dd 36bf
000000c0: da2c a8bf ea15 813e 7c40 dc3d 7981 963f
000000d0: 6926 81bf 937b 0dbc 6cab 813b b286 29bd
000000e0: 39e6 19bf 0b95 8dbf e51c 743f dfdd b43f
000000f0: 6fd2 b7bd 0b76 be3f 3df1 7e3f 1a20 b7bf
00000100: d5d0 b33f b7b4 f23e a78a 28bf e124 e8bf
00000110: 8cbe d13e 405c c03f 9c6b d2be e34c bfbf
00000120: 3e18 31bf 93b4 713f 7ec1 4bbf b38f 073f
00000130: 24d2 ef3d ec47 8cbf 12a3 d1bf 1e60 833f
00000140: 6a15 03bf b2ea 3abe 9893 98bf d387 99bd
00000150: 5701 87bf 9daf 57be 254d 0a3f 980b 0740
00000160: bdb0 6e3f f7a3 833f e8e8 8dbf 0eff b8be
00000170: 325d c1be 06bc 613f fbd1 8a3e 4768 d0be
00000180: 26c7 42be 78fd 213f 53e6 59bf 1340 e43b
00000190: 7de1 24c0 71fa e53c 0770 8b3f 9861 85bf
000001a0: efa4 7f3f f6c4 fd3f 65fe 81be e18a c9be
000001b0: 8470 a9be 1616 52be 0425 a3bf 3278 c93f
000001c0: 1d16 dbbf 757a a7bf 337b 353f 03b3 9b3e
000001d0: 1beb 16bf 2e2f bcbe 3823 083f 959f 463e
000001e0: 617e 40bf d709 6fbf 44f3 3a3e 34af 423f
000001f0: 81cc 9abf 826d 1d3f 7a6f 843f dee4 5a3f
00000200: aafd 01bf 7067 d33d 22c7 0ec0 255e 67bf
00000210: 382d 5cbf a094 d63e 292e 743e 7cda c4be
00000220: 176e a2bd 95bf 1440 77da 5c3f 71f0 173f
00000230: 7e70 7f3d c142 9bbf ef24 033f 93fc 743e
00000240: 4d43 82be db79 c13f 466c 093f d638 7abf
00000250: e824 983f 2ae0 b23f c6d9 643e 200d 8a3f
00000260: 518b d9bf 5595 613f 923f 59bf bd59 ce3e
00000270: bc98 ddbe 9b57 83be fedb d93e c44a 80bf
00000280: 5a3c 8d3f 6bf4 fc3e f026 0f3f 8d0d febf
00000290: d4c8 54be 306b 25bf df02 47bf 77b2 93be
000002a0: fa62 e5bf 3991 983e 2e68 d7bf 0424 0b3e
000002b0: 9256 623e 33ae 203e 9405 32be ffe2 953f
000002c0: 5710 12bf 949a 493f 9e63 593f 16b4 2bbf
000002d0: f789 ea3e 0a96 c03f dc33 753f 0c02 953f
000002e0: 1a02 2fbf d9c8 c23e 406c 213e 774d 953f
000002f0: 6813 933f 2840 46bf 1d4c c23e 0e9a 1bc0
00000300: 6d4a 8d3f f0fe 83bf 9083 63bf fc56 bdbf
00000310: 587c 803f c671 06bf 3f8b 46bf 9912 b8bf
00000320: f365 673e cd43 8b3f 3040 be3e 805e 633f
00000330: e6f9 e03e 6960 b9be d5f1 e5bf 22db b43f
00000340: c083 bd3d 93c4 6d3e dd6e 51bf 719c 953f
00000350: db0d a8be d32b e5be af23 8e3f 8ba6 c73f
00000360: 4245 91bf c579 553f 5a65 adbf bdbb 8d3f
00000370: 3404 a23e 0a73 88be 3622 ce3e e32c 09bf
00000380: be05 3f3e b731 ac3e e1e5 d2bf 9564 6ebf
00000390: c727 8ebf 89aa 3d3f f0ec c53f 9f60 213f
000003a0: 128b 303f 2b11 c0bf 7ab4 86be 3d2c b93e
000003b0: b68b a7bf 597d 0b40 3dff 05bf 4f3d cbbe
000003c0: 8529 53bf e568 2dc0 f690 9bbe 4048 67bf
000003d0: 1879 7fbf b1bc b73e e4cd 13bf 47a7 773f
000003e0: 2603 0dbd 66b9 0740 07b2 d03e b1b0 943f
000003f0: 7db0 dbbf cd89 15bf 9845 8e3e 8c22 863f
0.7264214 0.7197174 -0.22842276 -0.053539366 -0.19051763 1.9160695 0.28676635 -0.23883866
1.1626042 0.44274086 0.4306474 0.56331336 -0.74187213 0.12307616 -1.2846326 -0.057989582
-0.24113691 -0.2874342 -1.1183019 1.0045813 0.20463967 0.78629285 -1.5940326 -0.17492919
-0.46470118 2.43218 0.5773319 2.0049245 -2.4726577 0.3608006 -0.59388983 -1.2119163
-0.14455323 0.58352137 -2.7077653 0.34780496 1.0935264 0.30988464 -0.59321725 0.38430583
1.1404346 -0.07595764 -1.3587831 0.6596477 -0.7553797 2.7865496 0.33641398 -0.7143112
-1.3138688 0.25212032 0.10754487 1.1758262 -1.0089847 -0.008635419 0.0039572027 -0.04138822
-0.60116917 -1.1061109 0.9535659 1.413021 -0.08975684 1.4879774 0.9958685 -1.4306672
1.4048105 0.474035 -0.65836567 -1.8136255 0.40965688 1.5028152 -0.41097724 -1.4945339
-0.69177616 0.9441616 -0.7959212 0.5295364 0.11710003 -1.0959449 -1.637789 1.0263708
-0.5120455 -0.18253592 -1.1920042 -0.074966095 -1.0547284 -0.21063085 0.54023963 2.1100826
0.9323843 1.0284413 -1.1086702 -0.3613209 -0.37766415 0.88177526 0.27113327 -0.40704557
-0.19021282 0.6327739 -0.8511707 0.006965646 -2.5762627 0.028073521 1.0893563 -1.0420408
0.99861044 1.9825733 -0.253894 -0.3936377 -0.33093655 -0.20516238 -1.2745671 1.5739806
-1.7116123 -1.3084246 0.7089111 0.30410013 -0.5895249 -0.36754745 0.5317874 0.19396813
-0.7519284 -0.9337439 0.18256861 0.7604859 -1.209366 0.6149522 1.034652 0.85505474
-0.50777686 0.103224635 -2.230904 -0.9037803 -0.860065 0.41910267 0.23845734 -0.3844794
-0.07931154 2.3241932 0.8627085 0.5935126 0.06236314 -1.2129747 0.5122823 0.23924474
-0.2544197 1.5115312 0.5368084 -0.97742975 1.1886263 1.397466 0.22348699 1.0785255
-1.6995641 0.8811849 -0.84862626 0.4030284 -0.4328059 -0.25652775 0.42550653 -1.0022817
1.1034043 0.49405226 0.5591879 -1.9847885 -0.20779735 -0.6461668 -0.77738756 -0.28847095
-1.792083 0.29798296 -1.6828668 0.13587958 0.22103336 0.15691452 -0.1738494 1.1709899
-0.5705618 0.7875149 0.8491763 -0.67071664 0.45808384 1.5045788 0.95782256 1.164125
-0.6836258 0.3804386 0.1576395 1.1664265 1.1490297 -0.77441645 0.37948695 -2.4312778
1.1038338 -1.0312176 -0.88872623 -1.479217 1.0037947 -0.52517354 -0.7755622 -1.4380676
0.22597484 1.0880066 0.37158346 0.8881607 0.43940657 -0.36206368 -1.7964426 1.4129374
0.09253645 0.23219518 -0.8180979 1.1688367 -0.3282307 -0.44759998 1.110464 1.55977
-1.1349261 0.8338893 -1.3546555 1.1072918 0.31643832 -0.26650268 0.40260476 -0.53584117
0.18654534 0.3363168 -1.6476403 -0.93122226 -1.1105889 0.7408834 1.5462933 0.6303806
0.68962204 -1.5005239 -0.26309568 0.36166564 -1.3089511 2.1795256 -0.5234259 -0.39695212
-0.8248523 -2.7095273 -0.30384034 -0.9034462 -0.9979415 0.35886148 -0.5773604 0.9673962
-0.03442683 2.1206908 0.40760824 1.1616422 -1.7163235 -0.5841339 0.2778747 1.0479293

rnn.bias_ih_l0 f4 [256]
00000000: 248a 213f 6f53 203c 5f45 463e aa5c 97bd
00000010: e4dd c83e aa9f 223f bd6b 3dbb d27a bb3d
00000020: 0e0e e0bc bb32 1dbe cfba c33d 8c51 ce3e
00000030: 114a 433d 23bb 77bd cea1 fe3e c57d ba3e
00000040: 4592 6c3f fe21 913d 9068 a33d 921a 443f
00000050: 90f4 d33e dff4 2b3f 6ab3 033f c098 9e3e
00000060: 7361 13be 6f32 4d3f eb60 143f d787 873e
00000070: 716e ac3e 427f 5c3e ec6a d53e 1bd7 8b3c
00000080: 8d6f 063f 32cd 793e 6808 b03e 8903 ee3e
00000090: 0084 1f3f 251e 913e 5716 5f3e 8f82 d13e
000000a0: c481 843f 95eb d9bd dce9 933d 28ac 3f3f
000000b0: 8576 0e3f 1479 243e 1cfa 533f 8831 fa3c
000000c0: fb37 8d3e 146d 513e 6a3b bb3e c87d 093f
000000d0: caeb 6b3f db37 133f e329 553f 00d7 5d3f
000000e0: 853a c43e 539c 7f3e 5aef 803e 03c1 693f
000000f0: 93e5 623e bd46 8b3f 08dd 093e 1d12 893e
00000100: f79e a23e aace 1b3e df39 46bf 96f0 99bd
00000110: 845e 873e 145f 163e 61ab 09be 8960 a23e
00000120: 8656 863e e966 c13e 6fdd 543d 5a1e 14bf
00000130: 2cc7 81be 19eb eb3b 0133 583e 39db 223f
00000140: a744 d6bd 6079 503d 4a46 7b3d 7b53 473d
00000150: 8c7d 4dbd e6e2 963e f811 be3e 10ea cb3e
00000160: e0b3 2c3f b493 b83e 77eb 3d3e 2e7b 2b3d
00000170: 8d3d 22bd b3f0 9bbe 51ef 143e 2b45 443d
00000180: 3177 e33e 99ca 5bbe 57ba 333e 6b05 fa3e
00000190: 9bdb 26be 4d18 253f ba6a f93e 09ca 12bf
000001a0: e793 ebbd 902c a8bc f0d3 9a3e 8b00 8b3e
000001b0: c4ed 3b3b eb63 0d3e 984d 99be 81e8 b43e
000001c0: 48d8 e03d 3c50 49bf 97c0 923e 3919 d1bd
000001d0: cc41 afbe d7d2 823e f561 623c 1618 16bf
000001e0: c10c 393f cb6f c43e efa0 bdbd 6c13 7e3f
000001f0: 70c1 80be 968c d53e 38d4 9b3e 9b1e 9d3e
00000200: bcda 6b3f 16c0 80be 079a 17bb 434f 37be
00000210: 5363 18bf 7541 fcbe 1608 fd3d 7972 86be
00000220: c9be 523f 15eb 6c3e 334c 293f d565 ab3e
00000230: deef a33e 562c cf3d be35 31bf 4b7d 28be
00000240: c4ac 3dbf 72e6 613f 8296 ed3d 564f 88be
00000250: c31b a23f c5ee a23f f702 15bf e46f 8f3e
00000260: 33b0 06be afd2 33bf d17e 48bf be58 a83d
00000270: c316 c3be dbd1 ee3e 0e10 a03e d1ab 14bf
00000280: c4dc c5be 17b6 603a 040b 00bf 3d69 6ebf
00000290: 4e65 4bba 10c2 30bf 083d 4ebf 7d9d 7dbd
000002a0: 20db ff3e 1ecd ed3e 814d 82bd f1a5 773f
000002b0: ee65 463f ad3e 1e3f b09f d93e a5f8 4f3f
000002c0: d571 10bf 2c9e efbd 044f 103e 4628 e53e
000002d0: 04fb 88be 5862 0f3e 6217 403e ff7d 36bf
000002e0: d807 42bf 82ae ccbe 1ed6 ae3d 5abb 693f
000002f0: e21d 9f3f f387 463f 3030 1ebe cf52 b2be
00000300: 1763 153f 73a6 583e c146 183f b966 3f3e
00000310: 43bb 85be 34ba 593e 84bc 2d3e 4263 81be
00000320: f864 0e3f 9b57 93bc efde 84be 7648 613f
00000330: c7c4 a23e 4549 583f bcc2 3a3e a6d3 48bd
00000340: 4528 273f 38c4 dcbe 9d90 9f3e 3b94 983f
00000350: c46c ee3e eb1b a23e 5c31 c63e 6b35 b23e
00000360: eec1 5c3f 5844 833d 921e 56be 78e3 1c3f
00000370: fff5 a7bc 28b6 423f 2603 c43a 72bd a03e
00000380: ed45 473f 6319 093f 17a2 a9be 4a17 e5be
00000390: acfb d73e 0eef 473e 1d7d ca3c b757 9f3e
000003a0: d081 a13f 420f 1b3f b2b0 913e 73a3 623e
000003b0: 48e4 8f3e 29ab 0fbf 7249 2f3f 35cd ff3e
000003c0: 5f1a b33e 70f4 a03f 758f fb3e 908f 08be
000003d0: 8cb7 763f cc0d e63d 73b2 243f 343f 2e3e
000003e0: 31c0 ac3d 5ff5 123f 6b0c a4bd cf5d ea3d
000003f0: aafe cb3d 9ae3 aebe 2c32 793e 2f22 563f
0.6310141 0.009785517 0.193624 -0.07390721 0.3923179 0.6352488 -0.0028903328 0.091542855
-0.027350452 -0.15351383 0.09557115 0.4029659 0.047678057 -0.0604812 0.49732822 0.3642408
0.9241069 0.070865616 0.07978928 0.76603043 0.41397524 0.6717052 0.5144564 0.30975914
-0.14392643 0.8015508 0.57960385 0.26470825 0.3367801 0.2153292 0.41683137 0.017070344
0.52513963 0.24394682 0.34381413 0.46487072 0.6231079 0.2834331 0.21785866 0.4091992
1.0352101 -0.10640637 0.072223395 0.74872065 0.55649596 0.16061813 0.8280351 0.030541196
0.27581772 0.20451766 0.36568767 0.5370755 0.9215666 0.57507104 0.8326704 0.8665619
0.38325897 0.24961977 0.2518261 0.9131014 0.22157888 1.0880963 0.13463223 0.26771632
0.31761906 0.15215555 -0.77432054 -0.07516591 0.26439297 0.14684707 -0.13444282 0.31714275
0.26237887 0.37773827 0.051968988 -0.5785881 -0.2534727 0.0071996567 0.21113206 0.6361576
-0.10462313 0.050897002 0.06134633 0.048663598 -0.05016856 0.29469985 0.37123084 0.39827013
0.6746197 0.3605019 0.18546854 0.04186552 -0.03960948 -0.30457076 0.14544417 0.047917526
0.44426873 -0.21464004 0.17551552 0.4883226 -0.1629471 0.64490205 0.48714238 -0.5733953
-0.115028195 -0.020529062 0.3023982 0.27148852 0.0028675655 0.13807647 -0.29942012 0.35333636
0.109787524 -0.7863805 0.2866256 -0.10209889 -0.34229887 0.25551483 0.0138173 -0.586305
0.72285086 0.3836654 -0.09259211 0.99248385 -0.2514758 0.4170882 0.30435348 0.30687413
0.9213064 -0.2514655 -0.002313258 -0.1790133 -0.59526557 -0.4926869 0.12355058 -0.2625921
0.82322365 0.23136552 0.66131896 0.3347613 0.32018942 0.10115878 -0.6922263 -0.16454045
-0.74091744 0.88242257 0.11600973 -0.2662303 1.2664722 1.2729117 -0.5820765 0.28015053
-0.13153152 -0.7024335 -0.78318506 0.08220051 -0.38103303 0.46644482 0.3126225 -0.5807467
-0.38644993 0.00085720554 -0.5001681 -0.9312933 -0.0007758931 -0.69046116 -0.80561876 -0.06191777
0.49971867 0.46445554 -0.06362439 0.9673758 0.7749928 0.61814386 0.42504644 0.81238776
-0.56423694 -0.11700091 0.14092642 0.4475729 -0.2675401 0.14002359 0.1875892 -0.71286005
-0.7579322 -0.3997689 0.08536933 0.913015 1.2430995 0.7755119 -0.1544807 -0.34828803
0.58354324 0.21157245 0.5948296 0.1869153 -0.26119432 0.21262437 0.16966444 -0.2527104
0.55622816 -0.01798611 -0.25951335 0.8800119 0.31790754 0.844868 0.18238348 -0.04902997
0.6529582 -0.43118453 0.3116502 1.1920236 0.46567357 0.31661925 0.38709533 0.3480638
0.86233413 0.0640952 -0.20910099 0.6128459 -0.020503042 0.760592 0.0014954552 0.31394535
0.77841073 0.5355436 -0.33131477 -0.4474433 0.42184198 0.19524786 0.024717862 0.3112161
1.2617741 0.60570157 0.2845512 0.22132663 0.28103852 -0.56120545 0.68471444 0.49961248
0.34981057 1.2574596 0.49132887 -0.13336015 0.9637382 0.112331 0.6433479 0.17016298
0.08435095 0.57405657 -0.08010181 0.11443674 0.09960683 -0.3415802 0.24335545 0.8364591

rnn.bias_hh_l0 f4 [256]
00000000: 579f 373f 4866 033e b06f 6a3e 61dc c43d
00000010: fd43 523e ca8a ff3e 590a fe3d 0db2 19bc
00000020: df90 253d f2a7 283d b517 073e 5bc5 bb3e
00000030: 1cb2 0ebd 1964 003e 6aa2 163f f895 233e
00000040: 5fc8 753f d3d3 433e e869 263d 5a6e 1f3f
00000050: e594 143f 0fbc 323f ca43 d03e 1635 2c3e
00000060: 9c90 3ebe 4dd5 583f 3817 0c3f 4b5c 983e
00000070: e292 9d3e 55ef 1d3e 0fea cb3e 8c67 803d
00000080: c068 1c3f ecb2 653e 923d 9f3e cf02 053f
00000090: ca34 353f 8a83 1f3e 6d4f 673e a89b c73e
000000a0: ef95 933f 58dd b0bd 0188 303e 06ef 4c3f
000000b0: afef 223f 1f49 173e 1f31 723f c459 06bd
000000c0: 3b23 b83e 889c bd3e 69c8 d43e 108c 353f
000000d0: 1ef3 5a3f be90 233f e248 543f 4e7b 5e3f
000000e0: 02ed 923e 57b9 233e 5749 f33e 181a 853f
000000f0: 4f9c e53d 460f 763f 1e14 c63d c3c5 ac3e
00000100: ccac d13e 630b 6d3e 6c1c 31bf 5f54 00be
00000110: 81cd 8b3e 2c32 a33e 6eb8 1cbe c331 b03e
00000120: 2259 883e c35e da3e 50a0 6e3e d9f7 febe
00000130: 4886 80be 7bd2 a3bc 37a6 a03e bb92 233f
00000140: f119 4c3d 0f4f ccbc 2d6e 8a3d cb26 c1bd
00000150: 9925 b8bd 94d4 513e baf0 823e 0dfd bc3e
00000160: e0c4 313f b50d d63e a1e3 483e ebc6 773e
00000170: d0de 1bba 3639 b6be 0445 a83e 71af be3d
00000180: 3b3c 013f 3c0c a7be 040c d63c 2ef8 123f
00000190: 1015 43bd 09c0 2f3f 43db 093f cf39 23bf
000001a0: 78e8 a73c 72b7 0ebe a2b3 9d3e 6502 c93e
000001b0: f397 743a ad43 3e3e b7ad bcbe 6445 c43e
000001c0: de9d 3a3d 0710 2abf 1ea6 413e ed52 aebc
000001d0: 761a 96be 0726 a63e 0af6 fa3c 1601 15bf
000001e0: 64f6 253f 2faa 023f a07c b0bb fb23 893f
000001f0: 5c61 a9bd b4f0 903e f67c b13e 22e8 ad3e
00000200: 3b0e 533f b132 3abe 6beb 38be e133 75be
00000210: b7b6 07bf 07a6 dfbe 5e8f 223e 37f7 3bbe
00000220: c7b5 5c3f 6c52 2c3e 0d54 383f a42b 943e
00000230: d86b d03e d2e1 a03e b178 30bf 3215 2dbe
00000240: a7fe 4bbf 68e1 6b3f 2dbb 533e 86a2 48be
00000250: ea72 ba3f 3efa a13f 73b1 1fbf e29f df3e
00000260: 5598 deba d9d5 15bf 13d1 55bf 8c56 e03d
00000270: 253e b8be 3678 0a3f 9dd4 933e 4719 e4be
00000280: f44f aabe 5a7a 3bbd 30cd d7be c560 67bf
00000290: 44fc 3abd 1b47 3bbf 69a5 46bf 8092 1fbc
000002a0: 2ba0 c63e bc7f e53e adcb 83bd b128 7a3f
000002b0: f6db 3e3f 3b56 013f 7bc8 c03e 2d19 583f
000002c0: 5c63 14bf 760c 74bd 5019 553d c8e4 1c3f
000002d0: 3c3b 38be 8290 913d 4a22 3e3e 9f00 15bf
000002e0: 0e21 58bf 64e3 49be e04e 693e 6aee 5f3f
000002f0: f8ee a73f 3d61 5b3f ce85 4cbe 0549 ccbe
00000300: 8a4c 3e3f 1a91 823e 21e9 b73e 2947 f83d
00000310: 9200 eabd 5c1e 5d3e bb0c 2e3e 8eac d1be
00000320: 9cc9 d43e b2cf 5fbd fb88 12be a0ca 523f
00000330: 1c4d 043f dd8a 4d3f d22f b43d 54de c13d
00000340: 46cf 323f 18f7 10bf dd8c 9f3e c98d 833f
00000350: 8ce0 f43e 8a56 243e 1608 c23e fe32 e83e
00000360: 57d8 5d3f 1fd4 de3c 6799 bd3a d509 2d3f
00000370: 5ff1 01be 1485 623f dc99 3abd 9494 b83e
00000380: 3024 4f3f 111b d23e 4f5b a9be e0c9 f2be
00000390: 2b65 b93e d63e 2f3e 8d95 073e d59c 5b3e
000003a0: 94e1 8c3f 28d0 ea3e 158d b03e df5f ba3e
000003b0: 252f 863e dcce aabe 5590 393f 3e65 d83e
000003c0: 4745 033f a213 933f 81c4 0a3f e5a8 6fbd
000003d0: 377f 5f3f ba9a 4d3e 03a7 3a3f 9510 a83e
000003e0: eed7 403d a9da 113f 36a6 ef3d bf39 cbbc
000003f0: 4a43 6a3e 4648 d2be bb36 853e 742a 513f
0.7172751 0.12831986 0.22894168 0.096123464 0.20533748 0.49910575 0.124043174 -0.0093808295
0.040421363 0.04117579 0.13192637 0.36674008 -0.034837827 0.12538184 0.58841574 0.15975177
0.9600887 0.19123773 0.040628344 0.6227776 0.58039695 0.69818205 0.4067672 0.16817126
-0.18609852 0.8470047 0.5472293 0.29757914 0.30776125 0.15423329 0.3982701 0.0626975
0.61097336 0.22431535 0.31101662 0.5195741 0.70783675 0.15577522 0.22588892 0.38985944
1.1530131 -0.08635968 0.17239381 0.8005222 0.6364698 0.14773987 0.946062 -0.03280045
0.3596438 0.37033486 0.4155915 0.70916843 0.8552722 0.63892734 0.8292371 0.869069
0.28696448 0.1598867 0.4751689 1.0398588 0.11211454 0.96117055 0.09671806 0.3374463
0.40952146 0.23148875 -0.69183993 -0.12532185 0.27305225 0.31874216 -0.1530473 0.34412965
0.26630503 0.42650422 0.23303342 -0.49798468 -0.25102448 -0.019997826 0.31376812 0.6389577
0.049829427 -0.024940042 0.067592956 -0.09431227 -0.08991546 0.20491248 0.25574285 0.36911812
0.6944103 0.41807333 0.19618084 0.24196975 -0.00059459824 -0.35590523 0.32865155 0.093108065
0.5048253 -0.32626522 0.026128776 0.5740994 -0.04762751 0.686524 0.5385019 -0.63760084
0.020496592 -0.13937166 0.3080111 0.3925964 0.00093305035 0.18580504 -0.36851284 0.3833419
0.04556071 -0.66430706 0.18911025 -0.021279776 -0.29317063 0.32450888 0.030634899 -0.5820478
0.6482909 0.5104093 -0.00538595 1.0714105 -0.08270523 0.28308642 0.3466565 0.33966166
0.8244359 -0.181834 -0.18058555 -0.23945571 -0.53013176 -0.43681356 0.15875003 -0.18356024
0.8621487 0.16828316 0.7200325 0.28939545 0.40707278 0.31422287 -0.6893416 -0.16902617
-0.79685444 0.9214082 0.2067687 -0.19593248 1.4566319 1.2654493 -0.6238014 0.43676668
-0.0016982654 -0.5852943 -0.83522147 0.109540075 -0.35984913 0.5408968 0.2887315 -0.44550535
-0.33264124 -0.04577098 -0.42148733 -0.90382034 -0.045650735 -0.73155373 -0.77596146 -0.009739518
0.38794073 0.44824016 -0.064353324 0.9771834 0.74554384 0.505222 0.37652954 0.84413415
-0.5796411 -0.059582196 0.052026093 0.6128659 -0.17991346 0.07107641 0.18567768 -0.5820407
-0.8442544 -0.19715649 0.22783995 0.87473166 1.3119802 0.8569525 -0.19972917 -0.3989946
0.7433554 0.2550133 0.3592005 0.12122948 -0.1142589 0.21593612 0.16997044 -0.4095196
0.41560066 -0.054641433 -0.14310066 0.8234043 0.5168016 0.80290014 0.087981835 0.09466234
0.69847524 -0.56627035 0.31162158 1.0277644 0.47827566 0.16048637 0.37896794 0.45351404
0.86658233 0.027200757 0.0014465273 0.6759313 -0.12689732 0.8848431 -0.045556888 0.36050856
0.8091459 0.41036275 -0.33077475 -0.47419643 0.36209998 0.17113814 0.13240643 0.21446545
1.1006341 0.45861936 0.34482637 0.3640127 0.26207843 -0.33360946 0.7248586 0.42264742
0.51277584 1.1490366 0.5420609 -0.05851068 0.8730349 0.20078555 0.7291109 0.3282515
0.047080927 0.56974274 0.11701624 -0.024807809 0.22877231 -0.41070765 0.2601832 0.81705403

rnn.weight_ih_l1 f4 [256, 64]
00000000: d321 8ebe 51cb 33bc d441 e73e c280 553e
00000010: 1643 ad3f 542f 4dbf d117 fe3e 36f3 adbe
00000020: 6e3b 91bf 25ce 92bf 1f47 46be 4814 563e
00000030: 42f5 af3e 7143 03bf c6b1 7c3f 2794 38bb
00000040: 743d a1bf 8749 d2be 521f 323d 2a74 bf3d
00000050: 7ac0 e13e 84c6 4fbf b4f2 24bf ea17 aebe
00000060: 5319 afbe b907 58be 0062 3c3f a256 793f
00000070: fd27 d23e 874f ac3d 498a 3fbf 2219 9fbf
00000080: fa3f 7bbf 6ff7 403f 4fd7 9abf ba57 06bf
00000090: 1e26 343f 5f8a abbe c507 9dbd 4411 afbd
000000a0: 19c3 8bbe 1f3d 65bf 3aad 063e 8fee 37bf
000000b0: c130 a33e 5610 39be ca26 a5bf 92a4 ac3f
000000c0: cdbb e93e d5cb 743c 91d9 87be 5720 1b3f
000000d0: 6cce 23bf 9006 7cbe f488 0b3f e620 833e
000000e0: 2493 9dbf 9bdc d7bf cdbe 3fbf 1dd6 b3bf
000000f0: 1d34 6ebf d114 993f f593 3b3e e979 c83f
00000100: fde1 3c3e 92df 243d f3c5 fabd e8f8 dabd
00000110: 912e 053f 8010 d73f b81e 3bbf fc1e 9dbe
00000120: a6e3 06bf 80c3 aebe a8a1 6a3f 91de 37bf
00000130: 2a73 9d3f ca77 1abf 627f c83e 88c5 80bf
00000140: 05b5 b13f 0963 17bf 2df8 133f 27a4 08be
00000150: 6cc6 f7be 485d df3e 4800 f23d bd9c 233e
00000160: 03ca 193f 6ee3 053f ea39 e1bd c754 ba3e
00000170: 4f40 e93e 786e 2dbf 150d b5be b554 2cbf
00000180: 1ddb 163e 5426 9ebd f300 263e 3e1d 4b3e
00000190: c36e 6abe 33e3 023f 9689 08bf 8dbe ebbe
000001a0: 5563 263f 2e96 393f c201 16bf 3ec6 a8bf
000001b0: 999c a03e c10d 253f d665 e7be 0daa af3e
000001c0: 3096 493e bee9 233e 0a14 62bd a68a ff3d
000001d0: 5dcd d3be db8c 28bf 0c3a c5be 659b 7a3d
000001e0: a3b2 71bf 7186 36bf a3a5 81be 8d02 8f3f
000001f0: 870c aebf 6f2f 03be b102 d73e 29e0 3abf
00000200: 99d6 b53c fa81 143d 99e6 cb3b f783 24be
00000210: ebd9 1abd 0fb0 a5be 3eb3 bc3d d99b 76be
00000220: 3d3d 153e b42a 2e3e 7530 3f3e 2757 203e
00000230: 8849 873d 28c8 843e 3a17 19bd 0337 adbb
00000240: abe2 a2bc 1fba d13d 3fde 2f3e 9128 5ebd
00000250: 5258 943d aaff 8e3e 6b53 42be 7a47 32bb
00000260: 3063 243e 395c 3fbe 45ef 893d a8c6 a63e
00000270: c4be 40be 35e0 4e3e d65c 03be c5a5 85be
00000280: 6f15 b73d 2a07 493e 59d5 e7bd f98a 1ebe
00000290: f271 d7bd 39a0 2ebe ea22 70bc 22f6 8b3d
000002a0: 87cb cebc 4eb2 583d a59e 09be 802f dc3d
000002b0: 049d 4abe 080a 083e 4b01 1e3e 5264 8b3d
000002c0: 0128 c9bd c3a9 76bd 8327 043e dd74 2bbb
000002d0: 85c0 803a 0309 773e aefd 0cbe af62 7dbd
000002e0: 0be4 91bd c5b4 50be 1042 e0bc b71c 3e3e
000002f0: 94dc 233e 57e0 8c3e a66e bbbd afc7 b43d
00000300: 6719 123e aca6 273d c194 04be e6a8 c7bc
00000310: 8a75 303c 4563 e3bd 7d93 1e3e ea59 36bd
00000320: e7c0 d93d a0cc 0e3e c03f 353e 98b0 013e
00000330: 8013 1e3e 8a5c d93d fa1f 87bd 1955 0bbe
00000340: 8141 f1bc 9f9c f3ba 34a3 fb3d 7108 2cbd
00000350: 4792 363d 1ffc 183e ad2c 2ebe b507 8cbb
00000360: d0ff 7d3d 430e 43be 86c8 0cbe f2f3 4fbe
00000370: c76a 36bb 5512 993d d936 16bc 0d45 04be
00000380: 5e3f 553d 6d69 2a3e c566 dbbd 8010 65bd
00000390: 3141 55bc 5a39 55bd 70a8 1fbe 61af 993d
000003a0: bb31 253e ca6d e13d 18e3 40be b639 1cbd
000003b0: 57a7 26bc ffa8 a0bc af18 0d3d 6e00 8c3d
000003c0: 88cc 893b f340 9dbd 9cb6 2d3e a40e 03bc
000003d0: 18a8 10be f3c4 6b3d 78bd 0c3e a019 31be
000003e0: 041b c3bd 0da5 45bd 614f 133e 7bbc 483e
000003f0: 0c0a 1c3e 45ba 423e 9886 48be 8f46 0fbe
-0.2776018 -0.010973767 0.4516741 0.20849898 1.3536098 -0.8015034 0.49627545 -0.33974618
-1.1346262 -1.146916 -0.19363068 0.20906174 0.34366804 -0.5127478 0.9870876 -0.0028164478
-1.2596879 -0.41071722 0.0434869 0.093483284 0.4409216 -0.81162286 -0.64432836 -0.3400262
-0.34199008 -0.21096696 0.73587036 0.97397816 0.41046134 0.08413606 -0.7482038 -1.2429545
-0.98144495 0.75377554 -1.2096957 -0.5247761 0.7037066 -0.33504006 -0.076674975 -0.08548215
-0.27297285 -0.8954639 0.13152018 -0.71848387 0.31873134 -0.18072638 -1.2902462 1.3487723
0.45651093 0.0149411755 -0.26533177 0.6059622 -0.6398685 -0.24611878 0.5450585 0.25611037
-1.2310529 -1.6864198 -0.74900514 -1.4049717 -0.9304827 1.1959478 0.1831816 1.5662204
0.18445583 0.040252276 -0.12244787 -0.10692006 0.5202418 1.680191 -0.7309375 -0.30687702
-0.52691114 -0.3413353 0.9165292 -0.71823984 1.230077 -0.60339034 0.39159685 -1.0060282
1.3883368 -0.5913549 0.5780056 -0.13343869 -0.4839357 0.43625855 0.1181646 0.1597776
0.6007387 0.52300155 -0.10997374 0.36392805 0.45556876 -0.67746687 -0.35361543 -0.6731675
0.14732023 -0.07722154 0.162113 0.19835374 -0.22893815 0.5112793 -0.5333494 -0.46043816
0.6499532 0.7249478 -0.5859643 -1.3185499 0.31369475 0.6447411 -0.45194882 0.34309426
0.19686198 0.16007134 -0.055194892 0.12477617 -0.41367617 -0.6583993 -0.3852085 0.061183352
-0.94413203 -0.7129889 -0.25321683 1.1172653 -1.3597573 -0.12811063 0.4199424 -0.7299829
0.022197055 0.036256768 0.0062225577 -0.16065966 -0.03780548 -0.32360885 0.09213875 -0.24082889
0.14574142 0.17008477 0.18670829 0.15658246 0.06605822 0.25933957 -0.037375666 -0.005286099
-0.019883474 0.10240578 0.17174624 -0.054237906 0.07243408 0.2792943 -0.18977134 -0.0027203248
0.16053462 -0.18687524 0.0673509 0.32573438 -0.18822771 0.20202716 -0.12828383 -0.26103035
0.08939635 0.19631639 -0.1131999 -0.15482701 -0.1051978 -0.17053308 -0.014656762 0.068340555
-0.025243534 0.05290442 -0.13439424 0.107512474 -0.19786459 0.13285077 0.1543018 0.06806244
-0.09822083 -0.06022049 0.12905698 -0.0026162185 0.0009823 0.24124531 -0.13768646 -0.06186169
-0.07123574 -0.20381458 -0.027375251 0.18565641 0.16002113 0.27514908 -0.09151964 0.08827149
0.14267503 0.040930435 -0.1294737 -0.02437253 0.010770211 -0.111029185 0.1548595 -0.044519342
0.10632496 0.13945246 0.177001 0.12665021 0.15437126 0.106133536 -0.06597896 -0.13606681
-0.02945018 -0.0018586105 0.12286988 -0.042000238 0.044573095 0.14939927 -0.1700923 -0.0042733797
0.06201154 -0.19048409 -0.13748369 -0.20307902 -0.002783464 0.074742 -0.00916835 -0.12916966
0.052062385 0.16641779 -0.10712961 -0.05592394 -0.013016031 -0.052056648 -0.15591598 0.07504154
0.16132252 0.11007269 -0.1883663 -0.038140975 -0.010171733 -0.019611834 0.03444737 0.068360195
0.00420529 -0.07678404 0.16964191 -0.007999096 -0.14126623 0.057560872 0.13744152 -0.17294931
-0.09526637 -0.048253108 0.1438575 0.1960315 0.15238208 0.19016369 -0.19582593 -0.1399176

rnn.weight_hh_l1 f4 [256, 64]
00000000: 92cd 1e3f 6537 e03d 4210 8abf 4a59 d43c
00000010: beb9 0bbf 121a 49be 2384 d73e 9795 123f
00000020: 2e05 cf3e d8f3 36bd dd9c b0bf 185d e83e
00000030: 7807 b9bf 57e0 36bf d5e4 0fbf 889e d7be
00000040: b537 403f cff5 0a3f 7939 343f 634c 573f
00000050: 2924 97bf d16c f33e 32e8 2bbf 51d3 c6be
00000060: 5d53 bbbe 43d5 f73e aee9 aebf cf7e c53c
00000070: 1039 36bf 71e4 d73d ffe8 90bf e5c3 94bd
00000080: 7ff1 af3c 6e67 03be b47e bb3e 7046 913f
00000090: 0b57 e3be 8550 bcbb 887d 3b3f 7524 753f
000000a0: e36c 0cbe 70c4 ab3d 2464 00bf 86e4 98bf
000000b0: 487a 01be 1208 88be f198 43bf e85a d63e
000000c0: f7cd c03e 8956 bcbf e737 4dbf 7c31 1b3f
000000d0: ef34 883f 415f cd3e cb3d b33f 9aaf e1be
000000e0: 3c3d b4bd fa20 45bf 473f 2b3e 8a5b 83bf
000000f0: 20a8 aa3e 70c8 07bf 6932 043f 5f3e d3bf
00000100: 3bc1 9e3e 724a dfbe 5fcd 023f 59b4 323f
00000110: f7b7 28be c054 96be 1a07 5bbf 29c0 913f
00000120: 5472 01bf 00de 513e 522e f9be ab26 efbe
00000130: f7b4 73bf 1fc9 39bf cfcb 0e40 2b0d 06bf
00000140: 774b d53d 230a 10bf ba54 f03e f1d7 3d3f
00000150: 70c5 76be a93e 3cba e267 9cbf fe1a bebf
00000160: a1b3 60bf fb77 b43f 7853 eabe be30 0040
00000170: fcf6 94bf 30e3 a4bf 5a47 e23e 8f3b 15be
00000180: eb68 8ebf cff0 de3e d74b b23d b8af 4840
00000190: 495b 84be 39c7 7d3e 02a0 2a3f 0959 22bf
000001a0: 3a66 0abe a97a 88bf f926 fa3e 2655 97be
000001b0: de99 c6bf c0a0 6cbf 6c10 21be 6abe 91be
000001c0: 1002 073f 8d0f 613d 0ea6 b2bf f82a d2be
000001d0: f754 80bf 6fd1 c2be 1319 1c3f 8b90 74be
000001e0: 906f da3e 89e1 c0be 1d1b 5cbf 9dc9 0bbf
000001f0: d0ba 49bf 736b 72bf 2c13 f0be d0a4 04bf
00000200: 6824 72bd 9be8 ec3d 19aa 5bbe 2105 e33d
00000210: 4455 223e aa1f 873d 23e4 9e3e 57d9 babd
00000220: 2c41 57bd 9c21 dfbd 2966 263e 78dd 99bd
00000230: 54e8 73be 9925 49be e3e0 5d3e 3b2b bc3e
00000240: 6a7f 80be e2da cd3c 7b2f 5ebe 6501 48bd
00000250: b322 4c3e 9e58 70be 8362 6ebd ee69 83bd
00000260: 0391 0f3e d0fb c0be 7134 3e3d 51e7 183e
00000270: 37f2 8ebe 0b09 33be 6615 1cbe 269b 83bd
00000280: f73f 34bc ce1c 38be a1f9 d8bb d35a 5f3e
00000290: aa4f 903d e83a 40bd 1b3f 67bc ac0c 96bd
000002a0: dd2c f5bd 4d70 9abd 48be f5bb cd36 acbd
000002b0: d640 9c3c e9c8 103c 6512 203e bca0 0f3e
000002c0: 6607 f1bd 5aa6 99bd d97a 14be 76dc 033e
000002d0: 1414 183e 23f7 143e 7d1e 96bd 51b4 c7bd
000002e0: cf11 0c3e b2fd fe3d 9035 483e e594 94be
000002f0: c40b 663e e61d 84bd 0657 b7be 2dc7 4a3e
00000300: 4a9a cf3c 3423 403d 66c0 7e3d b941 3dbd
00000310: 6af9 533e 9857 483d 02f1 54bd 4524 5fbc
00000320: 5422 99bb b3df f33a f01b 113e 7f71 12be
00000330: e036 1c3c 11f0 febc eb54 613d 6e39 883d
00000340: 62db ba3c 3dc3 6a3d b8e3 28bd b735 0c3d
00000350: 97b1 123c d87e 6bbd 8515 43be a056 37bd
00000360: 5a34 0cbd ecac 963d c634 48bd 2032 3a3e
00000370: c345 a0bc 0df6 17be 8a71 d1bd f7ef a93d
00000380: 4ce9 3ebb 9ec9 eebd 880a 0cbb a35a a43d
00000390: f782 d5b9 af31 76bc e4ab 2b3e 290e 5cbc
000003a0: 791c 233e 831d ffbb 56aa 013e 7d91 d1bd
000003b0: 7582 233e e2d2 1cbc 812a 863b 0d4b f1bb
000003c0: e26b 7e3d 5f90 813d 0b23 aebd f453 9c3d
000003d0: 68ea 4ebe 1492 c73d 49d3 94bd 1deb 4ebc
000003e0: f245 143e 03e1 f1bd ba3c 2f3e 4401 0cbe
000003f0: ef81 23be 71c1 ddbd d964 7fbd 398e 193e
0.62032425 0.10948066 -1.0786211 0.025921483 -0.54580295 -0.19638851 0.42093 0.57259506
0.4043364 -0.04466614 -1.3797871 0.45383525 -1.4455404 -0.71436065 -0.56208545 -0.42113137
0.75085 0.54281324 0.70400196 0.8410093 -1.180791 0.47543958 -0.67151177 -0.38833097
-0.3658704 0.48404893 -1.3665063 0.024108319 -0.7118082 0.105416186 -1.1321105 -0.072639264
0.021477459 -0.12832424 0.36620104 1.1349621 -0.44402346 -0.0057469034 0.7323842 0.95758754
-0.13713412 0.08387077 -0.501528 -1.194474 -0.12644303 -0.26568657 -0.76405245 0.4186623
0.3765714 -1.4713908 -0.80163425 0.6062238 1.0641154 0.40111735 1.4003233 -0.44079286
-0.08800742 -0.77003443 0.16723357 -1.026231 0.33331394 -0.5304022 0.5163942 -1.6503409
0.31006798 -0.43611485 0.5109462 0.6980644 -0.16476427 -0.29361534 -0.8555771 1.1386768
-0.50565076 0.20494843 -0.48668152 -0.4670919 -0.95198005 -0.7257251 2.2311895 -0.5236384
0.104147844 -0.5626547 0.4693964 0.74157625 -0.24098754 -0.0007180968 -1.2219203 -1.4851987
-0.8777409 1.4099115 -0.45766807 2.002975 -1.1637874 -1.2881832 0.44195062 -0.14573501
-1.1125768 0.43543097 0.087058716 3.135725 -0.25850895 0.24783029 0.666504 -0.63417107
-0.13515559 -1.0662433 0.4885786 -0.2955715 -1.5515707 -0.92432785 -0.1572892 -0.28465587
0.5273752 0.05494647 -1.3956926 -0.41048408 -1.0025929 -0.3805041 0.6097576 -0.23883264
0.4266324 -0.3767207 -0.8597887 -0.5460451 -0.7880068 -0.94695204 -0.46889627 -0.51813984
-0.05911675 0.115678035 -0.21451606 0.11084963 0.15852839 0.06597836 0.3103343 -0.091234855
-0.052552387 -0.10895082 0.16249909 -0.07512945 -0.23819095 -0.19643249 0.21667819 0.36751732
-0.2509721 0.025128786 -0.216978 -0.048829455 0.19935112 -0.23471305 -0.058199417 -0.06416689
0.14020161 -0.37692118 0.04643673 0.1493199 -0.2791917 -0.17483918 -0.15242538 -0.064260766
-0.0110015785 -0.17979738 -0.006621555 0.2181199 0.07046445 -0.046931177 -0.014114167 -0.07326636
-0.119714476 -0.07540951 -0.00749949 -0.0840889 0.019073885 0.008836963 0.15632017 0.14026159
-0.11768989 -0.07502432 -0.14499988 0.12877068 0.14851409 0.145474 -0.07330034 -0.097511895
0.13678668 0.12450732 0.19551682 -0.29019848 0.22465426 -0.06451015 -0.3580858 0.19802542
0.025342125 0.046908572 0.062195204 -0.046205256 0.20700613 0.04891166 -0.051987655 -0.013619487
-0.0046732817 0.0018606096 0.14170814 -0.14301108 0.009534568 -0.031120332 0.055012625 0.06651579
0.022809688 0.0573151 -0.041232795 0.034230914 0.0089534735 -0.057494015 -0.19051178 -0.044760346
-0.034229614 0.07357201 -0.048878454 0.18183184 -0.019564515 -0.14839955 -0.10226734 0.08297723
-0.0029130755 -0.11659549 -0.0021368582 0.080251 -0.00040724102 -0.015026494 0.1676479 -0.01343111
0.1592883 -0.0077855005 0.12662634 -0.10232828 0.15967734 -0.009571763 0.0040944223 -0.007363683
0.062114604 0.06326365 -0.08502778 0.076332 -0.20206606 0.09744659 -0.07266862 -0.012629298
0.14479807 -0.11810496 0.17113009 -0.13672358 -0.15967534 -0.10827912 -0.062352035 0.1499566

rnn.bias_ih_l1 f4 [256]
00000000: ee79 c93e 65c7 e23d a603 153e 76f0 5e3e
00000010: 6d7d d23e a0c7 83be 8eb2 bbbe 8c35 6abe
00000020: a23d 803e ddcc 093b d88a 8e3e 106d 04bf
00000030: 82d6 a13d 89eb fbbd d023 d23e ff8b d3be
00000040: 9fe5 623e ae9d abbe 6c42 983e 81e8 8ebd
00000050: c4c7 50bc d206 2d3e a658 b93d f402 f8be
00000060: ddd0 d33e 2f6f 653c 4263 52be 1413 23bd
00000070: abac ee3c f954 c6be 0dda ff3b e38b d93d
00000080: 3337 ca3c e244 60bc d743 323e 9eb2 c3bd
00000090: 3ce6 ae3e 4165 ddbe fb75 3abe 6e77 3fbe
000000a0: 43af a3bd c054 55bd d7a8 c83e b8c3 94bd
000000b0: bcfb 8bbe ed29 113d 6c1b 793e cef6 5abe
000000c0: f926 ecbe dd1a 16be a600 21be 606b c2be
000000d0: 38d3 6f3f 9746 c03e dbf2 803f 3b59 953e
000000e0: 8b83 d2bd 5df9 cabe 532b 93be 5517 803d
000000f0: bc12 fabd 85eb 843d 74aa 16be 3c82 3d3d
00000100: 64ef 3d3d b651 13bf 4ae6 6f3e d2a4 083e
00000110: c86d 9e3d 4cdf 79be 16fd e0be 935a 08bf
00000120: ee26 833e 1637 11bf 3be1 dcbe 8c89 6ebe
00000130: 3b60 c6be 35ff 96be bfa4 5a3e 833e adbe
00000140: bc98 423e 36f1 d6be 9396 5a3e 45b4 283e
00000150: cede abbe 5187 8fbe f87b a33e ae9c 0abf
00000160: 4c3c ad3c 4c1d f9be ee8d 9dbe 2043 aabe
00000170: ef3a c83d 3096 e73d 9639 a83b 0ab6 5bbd
00000180: b6ff 083e f7f3 adbe dc11 76bf 73e7 eebd
00000190: 73f5 dc3d d812 fdbe 203e 17bf 5e46 51be
000001a0: 399d de3c 536f a8be ca21 e03b e6e4 55bf
000001b0: 91db 0dbe 9656 93be 2d26 29be 8dc6 91be
000001c0: 2f4d ebbe 3244 3ebe fc9b 97bd 7a20 c1bc
000001d0: 6f3d 93bf ec16 863d 893e 68bf 27f0 31bc
000001e0: e1c8 e1bd 980d 3cbe 4596 00bf 1625 a5be
000001f0: 5238 4ebe 3e68 c9be d43a cabd a880 afbe
00000200: fd74 1abe aa93 0c3e ee1a f2bd aa7a 2f3e
00000210: 4800 de3e 47ce 24bd 6483 803e 6470 923e
00000220: d489 7dbe 4021 1fba 71f6 073e c0aa fcbe
00000230: 3180 cbbd 385a b4be b1dc e73e 62c7 513e
00000240: 8e81 5fbe 8242 1c3d 2156 ef3b 8d42 50be
00000250: d956 ee3e 7061 91bd 810a ffbd 5f52 9dbe
00000260: 6a5a 74be aa07 afbe 5972 913e d025 0e3f
00000270: 158c b2bd 5b83 013e 18a9 8ebc 15a0 673e
00000280: 53b1 8fbd 8671 4cbe 4165 de3e 64f8 853e
00000290: c244 e2bd 4ff6 583e 89ed c23e b49a 58be
000002a0: 2fc1 093f 2c09 803e 7e04 213e 3a8e cabd
000002b0: 69a7 4c3e 3e6e 2d3f 446a d93c 187f bf3d
000002c0: 4f26 143f fd85 c7be 444e 07bf 6c66 a43e
000002d0: 1dc0 99be 19d1 1d3e 1376 9abe f4cc 88be
000002e0: dac4 7cbe a7bc e3be 1f8c a03d a3a8 30bd
000002f0: 8883 93be 4fe4 32bf 9cdd a9bc b299 023e
00000300: e306 cabe a580 e33d 97e2 e5be 2fa1 febe
00000310: 575a 6fbe 0c9b d63e f6c0 a2be 89de aebe
00000320: b583 66bf 0b57 803e 7aa3 75bd f7a4 bfbd
00000330: d592 99be 7684 0cbe 5b41 2f3e a190 5fbe
00000340: 89ce 63bf 1f79 aebe 19dc c7bf 4bd9 e539
00000350: 7736 e13e be31 84be 6247 02bf c01b 60bf
00000360: 7bde 9b3e c210 8fbd 532d 123d 6513 a3be
00000370: 6798 16be 952b 94be db39 52be df61 3ebe
00000380: 4bba dbbe aae5 823e 4246 b23c 50c5 b5bd
00000390: 8b36 3fbf 72a9 6e3e 8b87 15bf 87c9 6c3e
000003a0: ca29 13bd 5769 36be d42f 07bf a5f9 b03e
000003b0: b5ca d3be d295 82be 3f94 0dbf 6159 4fbf
000003c0: d823 c8be c5f7 e1be 8f96 30bd f1fe 6cbe
000003d0: c1f0 50bd c7c4 263f c961 dc3e b8d8 edbe
000003e0: 706a 93be c806 76be 6ac2 29be 9a2c c0bd
000003f0: 84c6 81bd d164 25be fc14 d73e 8c6c cabe
0.39350837 0.11073188 0.14552173 0.21771416 0.41111317 -0.2573824 -0.36659664 -0.22871989
0.25047022 0.002102665 0.27840304 -0.51728916 0.07902242 -0.12300784 0.41042948 -0.41317746
0.22157906 -0.33518738 0.29738176 -0.0697794 -0.01274294 0.16897133 0.090501115 -0.48439753
0.41370288 0.014003559 -0.20545676 -0.039813116 0.029135069 -0.38736704 0.007807976 0.106223844
0.024684524 -0.013688298 0.17408691 -0.09555553 0.3416003 -0.43241313 -0.18209068 -0.18697903
-0.07992413 -0.052082777 0.39191315 -0.07263893 -0.27340496 0.035440374 0.24326867 -0.21383211
-0.46123484 -0.14658685 -0.15722904 -0.37972546 0.9368167 0.37553856 1.0074114 0.2916964
-0.10278996 -0.39643374 -0.2874399 0.0625445 -0.122106045 0.06490234 -0.1471346 0.04626678
0.04637088 -0.57546556 0.23427692 0.13344124 0.07735783 -0.24401587 -0.4394309 -0.53263205
0.25615638 -0.5672468 -0.43140587 -0.23294657 -0.38745293 -0.29491583 0.21351908 -0.33836755
0.19003576 -0.41980904 0.21346502 0.16475017 -0.33568424 -0.28032926 0.31930518 -0.54145324
0.021146916 -0.48655164 -0.30772346 -0.33254337 0.09776866 0.11307943 0.005133818 -0.053640403
0.13378796 -0.33975193 -0.96121 -0.11665239 0.10789003 -0.4942844 -0.5907917 -0.20436999
0.027174579 -0.32897434 0.0068399655 -0.83552396 -0.13853289 -0.28776997 -0.16518469 -0.28471795
-0.45957324 -0.18580702 -0.074027985 -0.023575056 -1.1503123 0.06547341 -0.9072042 -0.010860479
-0.11024643 -0.1836456 -0.50229293 -0.32254857 -0.20138672 -0.39337343 -0.09874502 -0.34277844
-0.1508369 0.13728204 -0.11821543 0.17136636 0.4335959 -0.040235784 0.25100243 0.28601372
-0.24759609 -0.0006070323 0.13277604 -0.49349022 -0.0993656 -0.3522508 0.45285562 0.20486215
-0.21826765 0.038149364 0.0073039685 -0.20337887 0.46550635 -0.07098663 -0.12453175 -0.30726907
-0.23862615 -0.34185535 0.28407553 0.5552645 -0.08718125 0.12647764 -0.017414615 0.2261966
-0.07016244 -0.19965181 0.43436626 0.2616607 -0.11048271 0.2118771 0.3807185 -0.21152765
0.538104 0.25006998 0.1572437 -0.09890409 0.19985737 0.6774634 0.02653993 0.09350413
0.57870954 -0.38969412 -0.528538 0.32109392 -0.30029383 0.15411796 -0.30168208 -0.26718867
-0.24684468 -0.44479868 0.07839226 -0.043129575 -0.28811288 -0.6987962 -0.020735554 0.12753943
-0.3945838 0.11108521 -0.44899437 -0.49732348 -0.23374306 0.41915166 -0.31787843 -0.34154156
-0.9004472 0.2506641 -0.059970357 -0.093576364 -0.29994836 -0.13722405 0.17114775 -0.21832515
-0.8898702 -0.34076783 -1.5614043 0.0004384018 0.43986866 -0.258192 -0.5089017 -0.87542343
0.30443177 -0.06985618 0.035687756 -0.31850734 -0.14706574 -0.289395 -0.20529883 -0.18592022
-0.42915568 0.25565845 0.021762017 -0.08875525 -0.746926 0.23306826 -0.5840995 0.23123752
-0.035928525 -0.17813621 -0.52807355 0.34565464 -0.4136559 -0.2550493 -0.5530433 -0.80995756
-0.39089847 -0.44134346 -0.043112334 -0.23144127 -0.05101085 0.6514401 0.43043354 -0.46454406
-0.28792143 -0.24026024 -0.1657807 -0.09383507 -0.06336692 -0.1615174 0.42008197 -0.3953594
